outputs_intermediate/models/encoder_with_attention.pth (torch, 336714 bytes, 24 tensors)

encoder.0.weight f4 [256, 50]
0.052883554 -0.18446212 -0.13164695 0.13144223 -0.17817782 -0.034382418 -0.023536718 -0.044497456
0.16982263 0.31646508 0.23138948 -0.07383723 0.0072946358 0.010324641 0.08595461 0.025933357
0.08793077 -0.012334221 0.116871126 -0.09228387 0.03150833 0.07110845 0.03546488 -0.18430789
0.21230592 0.10470207 0.06242889 -0.016649581 -0.048750628 -0.09071639 0.008608136 0.15076081
0.101357 0.103098296 0.14915258 -0.048239335 0.109636776 0.08750383 0.022609215 0.07305757
-0.0060156225 0.24081406 0.06127775 -0.027229782 -0.0413214 0.13281728 0.06782517 -0.040020302
0.26404056 -0.013434618 0.013227629 -0.14101547 -0.03774583 -0.00035238866 -0.27418676 0.21812513
-0.026797954 0.16032799 0.13490047 -0.096475124 -0.14521569 -0.1733753 0.07240251 0.16737874
-0.11475261 -0.01564616 0.07004038 0.0703921 0.042058185 0.07723313 0.1471042 0.09058743
0.13532759 -0.17415473 -0.012180949 -0.099337935 -0.030306466 -0.11103169 -0.020172955 0.03382294
-0.11721321 -0.008505213 0.029753167 0.11009047 0.040712643 0.04849326 0.035954025 -0.0572331
0.06390501 -0.05237084 0.104263924 0.016860545 0.09575778 -0.054631125 0.014811264 0.006186649
-0.04701392 -0.061538026 0.067257166 -0.098035075 -0.0020071224 -0.009428149 0.012140097 0.0567056
0.00779552 -0.058692325 0.032506008 0.06895637 -0.12008327 -0.057287335 -0.10566154 -0.087594196
-0.13362926 -0.068388306 -0.34147334 0.29475707 -0.14786685 -0.014969197 0.18448232 0.086854756
-0.07797067 0.07131577 0.051806893 -0.052745827 -0.22409086 0.09654154 0.24225602 0.080564134
-0.01987665 0.04662662 -0.16957597 -0.13559487 0.19820917 -0.115179636 -0.14652686 0.06958864
0.02640853 -0.022808783 0.03404619 0.11712941 -0.080043614 0.10660406 -0.022633286 0.0029871524
-0.060636546 -0.01011688 -0.07801559 -0.16645612 -0.23518611 0.090669625 0.0027059638 -0.105927736
-0.10265684 0.19341895 -0.24382159 0.2733505 -0.184797 0.14007822 0.17451012 0.056544594
-0.21239138 -0.0075867586 0.11020738 -0.15934989 -0.12138856 0.071463235 0.108771816 0.1213413
-0.06821161 -0.005147537 -0.026724305 -0.046860293 -0.055635322 -0.10928346 -0.030131869 -0.040663637
-0.04834003 -0.007767395 -0.017259749 -0.09056349 0.04206398 0.12579334 -0.019164577 0.12667651
-0.06849113 -0.001920687 0.049001846 -0.013737132 -0.08073188 -0.0985024 -0.123126976 0.030146785
0.17675102 0.040740147 -0.15211642 -0.121931516 0.018598614 -0.036477152 -0.064589605 0.0037727938
-0.0051148375 -0.07271959 -0.023962487 0.07003717 -0.029693173 0.00505864 0.16056904 -0.031193672
0.24992043 0.000859856 0.05513191 0.0008204046 -0.0010837036 -0.12894085 0.04462558 -0.17301017
-0.011478929 0.056114007 -0.020362247 0.029098758 -0.110421665 -0.07786529 0.092414 0.05605226
0.19977349 0.0848044 0.1326282 0.12642103 -0.037743676 0.012552272 0.15083055 0.15902936
-0.049652413 -0.07115217 0.049116056 0.17407297 -0.12995178 -0.09318255 -0.17733005 -0.14711134
-0.10745763 -0.08225825 0.11831559 -0.035686 -0.1069465 0.14478101 -0.06482183 -0.24698168
-0.068087175 -0.017604692 -0.011911682 0.036669374 -0.018916236 -0.04366795 -0.05347501 0.016260663
00000000: 6d9c 583d a3e3 3cbe 75ce 06be cb98 063e
00000010: 3f74 36be 94d4 0cbd 13d0 c0bc f742 36bd
00000020: fce5 2d3e b607 a23e 5df1 6c3e f937 97bd
00000030: d707 ef3b af28 293c f808 b03d 3172 d43c
00000040: 0c15 b43d 7915 4abc 215a ef3d 53ff bcbd
00000050: e10e 013d 4fa1 913d 9f43 113d 35bb 3cbe
00000060: b966 593e 0a6e d63d 70b5 7f3d b464 88bc
00000070: bdae 47bd 84c9 b9bd 2409 0d3c 0b61 1a3e
00000080: 4294 cf3d 3325 d33d 74bb 183e 9c96 45bd
00000090: 3f89 e03d 3535 b33d f636 b93c 359f 953d
000000a0: b31e c5bb f697 763e 61fe 7a3d fe10 dfbc
000000b0: a140 29bd 4101 083e ece7 8a3d 54ec 23bd
000000c0: 5330 873e df1c 5cbc b2b8 583c 5c66 10be
000000d0: 5f9b 1abd cec0 b8b9 3562 8cbe 325c 5f3e
000000e0: 6287 dbbc 052d 243e 5923 0a3e c094 c5bd
000000f0: 6cb3 14be 4b89 31be c447 943d 5565 2b3e
00000100: 6b03 ebbd 602c 80bc 5571 8f3d bc29 903d
00000110: 3445 2c3d 672c 9e3d 7ca2 163e e785 b93d
00000120: 5193 0a3e 9e55 32be 9a92 47bc b071 cbbd
00000130: 4445 f8bc 9564 e3bd c141 a5bc ec89 0a3d
00000140: 7b0d f0bd 7359 0bbc eabc f33c 1d77 e13d
00000150: 4dc2 263d dea0 463d 8744 133d 416d 6abd
00000160: a1e0 823d ce82 56bd 5388 d53d 201f 8a3c
00000170: a81c c43d e3c4 5fbd f2aa 723c 60b9 ca3b
00000180: ab91 40bd 4c0f 7cbd 20be 893d 9dc6 c8bd
00000190: ed89 03bb 8678 1abc 42e7 463c 2244 683d
000001a0: 9071 ff3b 5d67 70bd 0525 053d ff38 8d3d
000001b0: 38ee f5bd 20a6 6abd 1465 d8bd 9664 b3bd
000001c0: 1cd6 08be 2b0f 8cbd 98d5 aebe 66ea 963e
000001d0: 686a 17be 5d41 75bc efe8 3c3e e8e0 b13d
000001e0: 16af 9fbd 010e 923d 7733 543d 020c 58bd
000001f0: 1378 65be 92b7 c53d f611 783e cffe a43d
00000200: 5bd4 a2bc 8efb 3e3d 53a5 2dbe 62d9 0abe
00000210: 58f7 4a3e 4de3 ebbd 230b 16be 7d84 8e3d
00000220: b456 d83c 7cd9 babc 0574 0b3d 8be1 ef3d
00000230: e8ed a3bd 3b53 da3d 7169 b9bc 1ac4 433b
00000240: 075e 78bd 45c1 25bc a3c6 9fbd 7973 2abe
00000250: a1d4 70be ffb0 b93d 8a56 313b a4f0 d8bd
00000260: c03d d2bd 9e0f 463e 5eac 79be 99f4 8b3e
00000270: 6d3b 3dbe aa70 0f3e c8b2 323e 4e9b 673d
00000280: 207d 59be 589a f8bb 68b4 e13d 9e2c 23be
00000290: 919a f8bd 515b 923d c2c3 de3d ca81 f83d
000002a0: 87b2 8bbd acac a8bb eeec dabc 94f0 3fbd
000002b0: dde1 63bd 02d0 dfbd 1cd7 f6bc ea8e 26bd
000002c0: 3200 46bd a285 febb 5164 8dbc 5a79 b9bd
000002d0: 484b 2c3d f8cf 003e 08ff 9cbc 7db7 013e
000002e0: 1445 8cbd 90bf fbba 29b6 483d b511 61bc
000002f0: c256 a5bd a0bb c9bd ff29 fcbd 64f6 f63c
00000300: 38fe 343e 24df 263d 68c4 1bbe 3bb7 f9bd
00000310: 1f5c 983c 1169 15bd 8e47 84bd fa40 773b
00000320: 5e9a a7bb 02ee 94bd fa4c c4bc a66f 8f3d
00000330: 193f f3bc f3c2 a53b 366c 243e df89 ffbc
00000340: 24eb 7f3e f667 613a ffd1 613d 6c10 573a
00000350: 0f0b 8eba 1209 04be 50c9 363d 9429 31be
00000360: 1e12 3cbc cdd7 653d bace a6bc 8560 ee3c
00000370: c124 e2bd d677 9fbd 8d43 bd3d 0e97 653d
00000380: 6c91 4c3e eead ad3d b0cf 073e 8474 013e
00000390: 1d99 1abd 0ba8 4d3c 5373 1a3e 98d8 223e
000003a0: 5460 4bbd 3bb8 91bd eb2d 493d 2f40 323e
000003b0: 1412 05be 7ed6 bebd 0296 35be 5ba4 16be
000003c0: bf12 dcbd 0377 a8bd 724f f23d 7c2b 12bd
000003d0: c406 dbbd 7941 143e 4fc1 84bd c4e8 7cbe
000003e0: 4a71 8bbd b737 90bc 3729 43bc a032 163d
000003f0: 39f6 9abc 2add 32bd 9d08 5bbd 1535 853c

encoder.0.bias f4 [256]
-0.018799253 0.08061789 -0.13824177 -0.06832142 0.111868754 0.08396757 -0.10688698 -0.08415751
0.060636915 0.040742837 -0.1190123 -0.032442003 -0.006576616 0.13505383 -0.04413664 -0.02691809
0.032314528 -0.032089856 -0.07414871 0.061194673 0.037578546 -0.06968917 -0.0465348 -0.10724415
0.017644625 0.034576137 -0.0050758417 -0.1068089 -0.08680303 0.078316845 0.0069004023 0.025304567
-0.100360155 -0.1359932 -0.04955078 0.036856685 -0.013631876 -0.03743854 -0.03643013 -0.0017684464
0.09714689 0.0742566 0.046244696 -0.03143684 0.107310206 0.123890676 -0.055888165 0.083560996
0.11853408 0.037409946 0.06410841 0.06459862 -0.07747456 -0.11255068 0.068729736 -0.0796175
-0.13553363 0.06162546 -0.13973026 -0.08806835 -0.13831614 -0.020585263 -0.09208033 -0.0028617505
0.0055341083 0.115990296 0.08636126 0.13843568 -0.1092754 -0.12769866 0.09599579 -0.018666608
-0.0032875559 -0.062027384 -0.034521867 0.10538176 0.08085157 0.06375333 -0.108468406 0.13149428
-0.099985056 -0.0066979984 0.07069428 -0.082642734 -0.06222965 0.081755474 0.13741507 -0.10879955
-0.13407372 -0.12329201 -0.0693763 -0.0024838466 0.109109774 -0.09870935 -0.13507183 -0.14025855
0.0014476852 0.12337624 0.027466351 0.014474085 -0.027078534 0.044976164 -0.019526673 0.08813351
0.08446667 0.13846916 -0.12688099 -0.052738186 -0.0946562 0.12774156 -0.04355587 0.0063185436
-0.118762024 -0.050834756 0.12134803 -0.124115944 -0.0966286 -0.04485494 -0.07952979 0.11561786
0.06658376 -0.014829779 0.09972265 -0.003265094 -0.11724375 -0.078748375 -0.13071965 -0.077141374
0.03566575 -0.124873884 0.105647095 -0.078352086 -0.016132237 0.02487057 0.12391029 0.100444555
0.016411163 0.0017371291 0.0705386 -0.07801984 -0.0027944231 0.04506938 0.042594336 0.12998782
-0.12652473 0.12603596 -0.085086346 -0.08827738 -0.013494491 -0.12667511 0.11282194 -0.025095405
-0.07606459 -0.02238267 -0.039361775 -0.099930644 0.13908269 0.13127899 -0.13054831 -0.09524208
-0.13018966 -0.14125092 -0.010369788 0.035220247 -0.0784656 0.13361357 -0.10985038 -0.08223712
0.05790604 -0.13271335 0.015705999 -0.09563318 -0.04711571 -0.08454796 -0.0600713 -0.11537417
-0.106638946 0.07479431 0.06726377 -0.09915999 -0.13029745 0.123583704 -0.03433257 0.017817497
0.045704186 0.008092464 0.083655156 0.075187065 -0.13503563 -0.12448593 -0.07680994 -0.12039014
0.00777521 -0.09166849 -0.0007488072 0.0652765 -0.05784237 0.12904367 0.13112594 -0.13245262
0.036638252 0.10468878 -0.019966066 -0.01729949 0.060927063 -0.114621565 0.13998641 0.09441714
0.018811442 -0.07448636 -0.048792195 0.027770584 -0.050885875 -0.10101727 -0.051170845 -0.11482626
-0.1376979 -0.02763447 0.052428108 0.03684076 0.10836592 -0.03878532 -0.14128982 -0.05390486
-0.08233303 0.12706271 -0.1005652 0.033129778 0.0600146 -0.04780816 0.048335195 -0.018337466
-0.11001174 0.12966424 -0.07897316 -0.04263447 0.04540961 -0.019217735 -0.10115908 -0.0018926542
-0.034979038 0.11224596 -0.085519455 0.0054077143 -0.11364738 -0.028904974 0.082290106 -0.03249792
0.02528031 0.075706035 -0.08849607 -0.021484246 0.060282473 0.09676518 -0.09329723 0.015129332
00000000: e400 9abc fe1a a53d 408f 0dbe 1aec 8bbd
00000010: 721b e53d 30f7 ab3d 90e7 dabd c65a acbd
00000020: 6a5e 783d f6e1 263d b9bc f3bd e8e1 04bd
00000030: a780 d7bb 8d4b 0a3e 9fc8 34bd 5483 dcbc
00000040: 3d5c 043d a770 03bd 47db 97bd 44a7 7a3d
00000050: f6eb 193d 32b9 8ebd 469b 3ebd d2a2 dbbd
00000060: 768b 903c b59f 0d3d 3f53 a6bb a0be dabd
00000070: c9c5 b1bd 9564 a03d c51c e23b 864b cf3c
00000080: a089 cdbd cd41 0bbe c2f5 4abd 09f7 163d
00000090: 3b58 5fbc 2859 19bd c337 15bd 37cb e7ba
000000a0: f3f4 c63d d813 983d 146b 3d3d eac3 00bd
000000b0: 74c5 db3d 65ba fd3d fdea 64bd 0722 ab3d
000000c0: ffc1 f23d 2c3b 193d 454b 833d 484c 843d
000000d0: fbaa 9ebd f980 e6bd 2dc2 8c3d 800e a3bd
000000e0: 54c9 0abe fa6a 7c3d 7315 0fbe 2e5d b4bd
000000f0: bfa2 0dbe 6da2 a8bc 9d94 bcbd 358c 3bbb
00000100: 7757 b53b 528c ed3d 2cde b03d 15c2 0d3e
00000110: c8cb dfbd 70c3 02be 7199 c43d b7ea 98bc
00000120: 0974 57bb 6d10 7ebd cd66 0dbd 64d2 d73d
00000130: 8295 a53d 1b91 823d af24 debd 70a6 063e
00000140: f7c4 ccbd e27a dbbb 2ac8 903d 9840 a9bd
00000150: 84e4 7ebd 6a6f a73d 89b6 0c3e 4cd2 debd
00000160: 9f4a 09be 8580 fcbd 2915 8ebd 08c8 22bb
00000170: f274 df3d 2128 cabd 4550 0abe f09f 0fbe
00000180: 41c0 bd3a afac fc3d 1d01 e13c b624 6d3c
00000190: cdd3 ddbc ed38 383d 67f6 9fbc 577f b43d
000001a0: ddfc ac3d dcca 0d3e 17ed 01be ff03 58bd
000001b0: 1cdb c1bd afce 023e a467 32bd c90b cf3b
000001c0: 8139 f3bd 1b38 50bd 5185 f83d 8030 febd
000001d0: 37e5 c5bd d0b9 37bd 84e0 a2bd 0ec9 ec3d
000001e0: 115d 883d 9af8 72bc 643b cc3d 30fb 55bb
000001f0: 7e1d f0bd d446 a1bd 5fdb 05be 4cfc 9dbd
00000200: 4016 123d e1bd ffbd 815d d83d 0f77 a0bd
00000210: c127 84bc 5ebd cb3c aec4 fd3d e0b5 cd3d
00000220: b470 863c 61b0 e33a 8b76 903d dec8 9fbd
00000230: a422 37bb ac9a 383d 6677 2e3d 871b 053e
00000240: b38f 01be 920f 013e c041 aebd c5ca b4bd
00000250: ff17 5dbc 1fb7 01be 300f e73d e194 cdbc
00000260: c0c7 9bbd dc5b b7bc d039 21bd 70a8 ccbd
00000270: b16b 0e3e 006e 063e 75ae 05be 480e c3bd
00000280: 7050 05be 15a4 10be 0be6 29bc 1b43 103d
00000290: 93b2 a0bd ffd1 083e 3cf9 e0bd ef6b a8bd
000002a0: e22e 6d3d 02e6 07be dea9 803c 54db c3bd
000002b0: 67fc 40bd 7b27 adbd 530d 76bd 4b49 ecbd
000002c0: 8565 dabd c22d 993d 96c1 893d 6514 cbbd
000002d0: b26c 05be 7419 fd3d 4fa0 0cbd 00f6 913c
000002e0: 5034 3b3d 4196 043c 6553 ab3d adfb 993d
000002f0: c846 0abe 7bf2 febd 884e 9dbd 1b8f f6bd
00000300: 30c7 fe3b b0bc bbbd 9a4b 44ba b0af 853d
00000310: 1fec 6cbd 0624 043e e145 063e a9a1 07be
00000320: fe11 163d 1267 d63d e08f a3bc a9b7 8dbc
00000330: a88e 793d b6be eabd 9958 0f3e c65d c13d
00000340: 741a 9a3c 4e8c 98bd 53da 47bd 237f e33c
00000350: b56d 50bd 24e2 cebd 8598 51bd 082a ebbd
00000360: ae00 0dbe af61 e2bc dbbe 563d 56e6 163d
00000370: f4ee dd3d 5bdd 1ebd 47ae 10be 58cb 5cbd
00000380: 389e a8bd ba1c 023e 21f5 cdbd 17b3 073d
00000390: dfd1 753d 7dd2 43bd 20fb 453d 7438 96bc
000003a0: d64d e1bd b4c6 043e aebc a1bd 7ba1 2ebd
000003b0: 6dff 393d 836e 9dbc 7e2c cfbd f012 f8ba
000003c0: 2e46 0fbd 36e1 e53d d324 afbd 3233 b13b
000003d0: f5bf e8bd 20ca ecbc b787 a83d 8a1c 05bd
000003e0: a718 cf3c c40b 9b3d 6d3d b5bd bbff afbc
000003f0: c1ea 763d d32c c63d 9e12 bfbd 05e1 773c

encoder.1.weight f4 [256]
0.8953909 1.0306866 1.0248054 1.0135319 0.97817975 1.0031754 1.0364001 0.9860626
0.89093614 1.0077118 0.99279237 1.0489306 0.99636877 1.0229151 1.0304046 0.976056
1.0018669 1.0164486 0.9287027 1.0013291 0.95447165 0.9557605 1.0205803 0.9453197
1.0826215 0.99234885 0.93753815 1.0161498 1.0081373 0.95771366 0.95716095 1.0415187
1.0433589 1.0866959 1.0176588 0.987948 0.9743919 0.99613976 0.9699384 0.9316515
0.95559484 1.06526 1.0778189 0.959286 0.9727108 0.94869244 0.91652673 1.0513885
0.9992001 0.9587643 1.0613889 0.95921254 1.1255934 0.95855474 0.9078275 0.9406372
0.9681522 0.89002544 0.9633402 1.0535234 1.1232036 0.9484088 0.9652002 0.9455415
0.96375394 1.0357529 0.9981456 0.9625904 0.9878449 1.033932 0.98589087 0.9806314
0.9787599 0.95649886 1.0845201 0.99757224 0.9446501 0.97815573 0.99149036 0.9777892
1.0332483 1.0082145 1.050876 1.049911 1.0322498 0.96778333 1.0236758 1.066033
1.0540123 0.9865028 0.96518433 1.0644213 1.0487787 1.0483749 0.99959373 0.96206975
0.9879814 1.0193247 0.94486797 0.9844311 0.98154926 1.0384152 1.0429063 1.014262
1.022765 0.93110704 0.9371273 0.9268249 0.998198 0.9861422 0.93927187 0.98543566
0.9856583 0.97010404 0.94571173 0.9252782 0.9923554 1.0537469 0.9737032 1.0470688
1.1050351 0.97453487 0.971258 1.048775 1.0496267 0.99328196 0.9990247 0.9261912
1.0039994 1.1240308 0.9465031 1.0549637 1.0230123 1.050116 0.99695504 1.0657723
0.95119655 0.9957647 0.95541096 0.90246534 1.057645 1.0415164 1.0502439 0.987905
0.96987456 0.98161566 1.1263554 1.0098035 0.99653816 1.0597643 1.0026399 0.9656175
1.0559385 0.93915033 0.8916881 0.983881 1.0642892 0.98465246 1.0123535 0.9673458
1.025868 1.0085113 0.9866702 0.9524289 1.0103116 1.0009701 0.98682755 1.0393982
0.96956724 1.0020136 1.0535424 0.9078582 1.0104169 0.9062095 0.9373581 1.0415648
0.9777769 1.0216644 1.0430931 1.0521265 0.99341434 0.945764 0.97835845 1.0073432
0.9951113 0.97205836 1.1164104 0.8907628 1.0300121 0.9659302 0.9940478 0.9683423
1.0442923 0.98868704 1.0176256 0.98432356 1.0271616 1.065767 0.9757566 1.0020643
1.0368485 1.0477433 0.959348 0.9611158 1.0445403 1.0219778 1.002327 1.1028185
0.98341775 0.9406544 0.95726794 1.0323571 0.98983806 0.9869765 0.9260132 1.0732964
1.0836644 0.9496688 1.0168647 0.9737654 1.026162 0.9617559 0.94316226 1.0113198
0.8995177 1.0098625 0.93959206 0.9970143 0.98577476 0.9096884 0.9233069 1.0090073
1.076367 0.94310963 0.9266863 0.9686117 1.0285916 0.9784589 1.0104744 1.0031729
1.0474387 1.0501813 1.1282398 0.96223414 1.0665991 1.0234404 1.0518652 0.93257815
1.0319247 1.0261415 1.0236137 0.992362 0.9382809 0.9714807 1.1139469 0.9465333
00000000: 5738 653f 8aed 833f d32c 833f 6abb 813f
00000010: fd69 7a3f 0d68 803f c2a8 843f 996e 7c3f
00000020: 6414 643f b3fc 803f a427 7e3f 5c43 863f
00000030: 0612 7f3f e2ee 823f 4ce4 833f cede 793f
00000040: 2d3d 803f fd1a 823f 76bf 6d3f 8d2b 803f
00000050: 4158 743f b8ac 743f 60a2 823f 7900 723f
00000060: 5793 8a3f 930a 7e3f 8002 703f 3211 823f
00000070: a50a 813f b92c 753f 8008 753f 7c50 853f
00000080: c98c 853f da18 8b3f a542 823f 29ea 7c3f
00000090: bf71 793f 0403 7f3f e24d 783f b680 6e3f
000000a0: dda1 743f 715a 883f f8f5 893f c493 753f
000000b0: 9303 793f 82dd 723f 7fa1 6a3f e693 863f
000000c0: 94cb 7f3f 9471 753f 97db 873f f48e 753f
000000d0: 7213 903f d863 753f 6267 683f 99cd 703f
000000e0: d3d8 773f b5d8 633f 779d 763f dbd9 863f
000000f0: 23c5 8f3f ebca 723f 5c17 773f 020f 723f
00000100: 94b8 763f 8d93 843f 7886 7f3f 536c 763f
00000110: 67e3 7c3f e257 843f 5863 7c3f a90a 7b3f
00000120: 0290 7a3f 1cdd 743f 8ed1 8a3f e560 7f3f
00000130: 97d4 713f 6a68 7a3f 50d2 7d3f 6550 7a3f
00000140: 7b41 843f 2c0d 813f 1b83 863f 7c63 863f
00000150: c320 843f a6c0 773f cf07 833f c573 883f
00000160: e0e9 863f 738b 7c3f 5216 773f f53e 883f
00000170: 613e 863f 2631 863f 60e5 7f3f 344a 763f
00000180: 59ec 7c3f 3b79 823f dee2 713f ad03 7c3f
00000190: d046 7b3f caea 843f f47d 853f 56d3 813f
000001a0: f7e9 823f 085d 6e3f 93e7 6f3f 6644 6d3f
000001b0: e789 7f3f d173 7c3f 1f74 703f 8345 7c3f
000001c0: 1a54 7c3f bd58 783f 2a1a 723f 08df 6c3f
000001d0: 010b 7e3f 2ee1 863f 9d44 793f 5a06 863f
000001e0: ca71 8d3f 1e7b 793f 5da4 783f 423e 863f
000001f0: 2b5a 863f ba47 7e3f 15c0 7f3f de1a 6d3f
00000200: 0d83 803f 3ee0 8f3f 074e 723f 0d09 873f
00000210: 11f2 823f 336a 863f 7238 7f3f 3a6b 883f
00000220: 9e81 733f 6fea 7e3f d095 743f f807 673f
00000230: e960 873f 6950 853f 646e 863f 58e7 7c3f
00000240: b349 783f 2a4b 7b3f 6a2c 903f 3e41 813f
00000250: 201d 7f3f 5ba6 873f 8156 803f b532 773f
00000260: fe28 873f 286c 703f ac45 643f a0df 7b3f
00000270: a13a 883f 2f12 7c3f cd94 813f f9a3 773f
00000280: a54f 833f e616 813f 6b96 7c3f 61d2 733f
00000290: e451 813f ca1f 803f bba0 7c3f 000b 853f
000002a0: 8f35 783f fb41 803f 7ada 863f 6569 683f
000002b0: 5755 813f 59fd 673f b3f6 6f3f ff51 853f
000002c0: 964f 7a3f e6c5 823f 1384 853f 15ac 863f
000002d0: 6750 7e3f 971d 723f b375 7a3f 9ff0 803f
000002e0: 9dbf 7e3f d1d8 783f 89e6 8e3f 0809 643f
000002f0: 70d7 833f 3447 773f eb79 7e3f 48e5 773f
00000300: 5fab 853f 981a 7d3f 8e41 823f a1fc 7b3f
00000310: 087a 833f 0e6b 883f 2fcb 793f a543 803f
00000320: 74b7 843f 741c 863f d597 753f af0b 763f
00000330: 7fb3 853f 2bd0 823f 404c 803f 2829 8d3f
00000340: 44c1 7b3f bace 703f 830f 753f 4724 843f
00000350: 0766 7d3f 7eaa 7c3f 330f 6d3f c761 893f
00000360: 84b5 8a3f 7f1d 733f 9f28 823f b048 793f
00000370: 4759 833f a235 763f 1573 713f ed72 813f
00000380: cb46 663f 2d43 813f 1b89 703f 543c 7f3f
00000390: bc5b 7c3f 57e1 683f d75d 6c3f 2727 813f
000003a0: 65c6 893f a26f 713f 503b 6d3f f0f6 773f
000003b0: e4a8 833f 487c 7a3f 3a57 813f f867 803f
000003c0: 7912 863f 576c 863f 296a 903f fa54 763f
000003d0: 5286 883f 1800 833f 85a3 863f 71bd 6e3f
000003e0: 1c16 843f 9b58 833f c605 833f 700b 7e3f
000003f0: 2d33 703f f6b2 783f d095 8e3f 0250 723f

encoder.1.bias f4 [256]
-0.04864197 -0.06201801 -0.020126142 -0.013143665 -0.04291803 -0.1648233 -0.112483785 -0.05359609
0.005886032 -0.15010817 -0.07533737 -0.09312848 -0.019978534 -0.13855568 -0.04480196 -0.118606955
-0.088819966 0.007531866 -0.029582713 0.008053352 -0.08510612 -0.29265577 -0.07620384 -0.044027284
-0.04091938 -0.059538975 0.009377257 0.02175337 -0.08261536 0.021024564 -0.007021992 0.004847571
-0.22226927 -0.0076492843 -0.11117812 -0.06621488 -0.022795318 -0.09288956 -0.1123309 0.15469038
-0.07325241 0.027053406 0.030395305 -0.25481302 -0.006296707 -0.055220775 -0.23604695 -0.09226937
0.012212158 0.065777056 -0.06607246 -0.19554165 -0.1459387 -0.029223712 0.029113535 -0.07028803
0.011454864 0.10617543 -0.08358536 -0.07824478 0.025836645 0.17343707 0.008483162 -0.017809708
0.06227315 -0.1938281 -0.013303962 -0.2557732 0.095783964 0.042044718 -0.0062571797 -0.024538102
0.08149505 -0.029495927 0.16691954 0.11509403 0.07108962 -0.0044844556 -0.026556171 0.014870439
-0.04974042 -0.066062294 -0.12697838 -0.13321139 -0.12675072 -0.038401417 0.12632194 -0.040035423
0.041591093 0.071864374 -0.08352301 0.02606747 0.020657763 0.057227246 0.039756574 -0.011819555
-0.10467403 0.050095204 -0.027635226 -0.049721476 -0.16021845 -0.020652218 0.09967271 -0.1056307
0.007874887 -0.10114199 -0.09388471 0.12982038 -0.10758661 -0.13328344 -0.12175958 -0.11539718
-0.031909354 -0.047425456 0.07028035 -0.11177915 0.13819733 0.002054654 0.057530228 -0.002301717
0.037138082 0.072696276 0.017514547 -0.00557307 -0.02360063 -0.06881512 0.061424017 0.08197218
-0.047725342 -0.04843735 -0.10576965 -0.04505011 -0.06903728 0.042036925 -0.17463331 0.12661032
-0.02399732 -0.026795916 0.05775369 -0.13850717 -0.014271364 -0.0099561345 -0.04958857 -0.09110623
-0.056369916 -0.10822617 -0.06782882 0.083620496 -0.0004974595 -0.014882486 -0.01450231 -0.08926584
-0.016463736 0.09954056 -0.077038825 -0.10228124 -0.008881176 -0.009057644 -0.05774772 -0.14086428
-0.08291928 -0.06196729 -0.30943826 -0.08296522 -0.050966747 0.053375807 0.027665656 0.078538686
0.12882008 -0.037255928 0.025582839 0.12144247 -0.033817288 -0.08795353 -0.15552823 -0.0008356511
0.12854894 0.08208354 -0.11035672 -0.063225426 -0.054100007 -0.073368214 -0.08982427 -0.10840182
0.00945971 -0.04789026 -0.1026867 0.18108407 0.04398854 0.13248597 -0.12304211 -0.014745499
-0.047944553 -0.03527564 -0.11323738 -0.009952171 -0.022159373 -0.15291059 0.07769221 -0.05337757
-0.0030535914 0.014392881 -0.033493124 0.006020692 -0.0641952 0.049446784 -0.076696485 0.05628011
-0.026470715 -0.016839232 -0.15094432 -0.016740939 -0.07498447 0.02113546 -0.030507836 -0.02819141
-0.017837198 -0.08797673 -0.12232083 -0.0038581935 0.098872006 -0.052450664 -0.0019849888 0.04406973
0.0069154343 0.055282813 -0.06768565 0.009359711 0.12853019 0.010878837 -0.095663846 -0.039987735
0.01918493 0.0485455 0.018496918 -0.12340376 -0.07197304 -0.032323 -0.000746047 0.013420345
-0.14597888 -0.10193613 0.033843648 0.02818254 0.013585151 -0.07731656 -0.084751315 0.065266244
-0.058242023 -0.039466966 -0.15988225 -0.023863275 -0.20661207 -0.1377472 0.022703875 0.11759088
00000000: cd3c 47bd 9906 7ebd 94df a4bc 8758 57bc
00000010: d1ca 2fbd 70c7 28be e65d e6bd 9387 5bbd
00000020: 9ddf c03b f5b5 19be 7b4a 9abd 25ba bebd
00000030: 06aa a3bc 8ae1 0dbe 4382 37bd 34e8 f2bd
00000040: 3ee7 b5bd dfcd f63b 7257 f2bc 35f2 033c
00000050: 1e4c aebd fad6 95be c210 9cbd f455 34bd
00000060: 149b 27bd 24df 73bd 11a3 193c 2034 b23c
00000070: 3e32 a9bd b53b ac3c bd18 e6bb 5fd8 9e3b
00000080: 8e9a 63be d9a6 fabb 5bb1 e3bd ab9b 87bd
00000090: 3fbd babc e23c bebd be0d e6bd 2867 1e3e
000000a0: 5c05 96bd 1b9f dd3c 93ff f83c da76 82be
000000b0: 9b54 cebb 2e2f 62bd 4bb6 71be b9f7 bcbd
000000c0: 8115 483c 1fb6 863d ff50 87bd 123c 48be
000000d0: f470 15be 9166 efbc 827f ee3c 2cf3 8fbd
000000e0: 2fad 3b3c 8172 d93d cd2e abbd cd3e a0bd
000000f0: 5fa7 d33c 7d99 313e f6fc 0a3c aae5 91bc
00000100: 2112 7f3d e07a 46be dcf8 59bc b4f4 82be
00000110: 622a c43d 1537 2c3d 0709 cdbb 2104 c9bc
00000120: e0e6 a63d 71a1 f1bc f5ec 2a3e 6bb6 eb3d
00000130: 6f97 913d 57f2 92bb 548c d9bc 24a3 733c
00000140: 9cbc 4bbd ab4b 87bd 9f06 02be 9168 08be
00000150: f1ca 01be ce4a 1dbd 8a5a 013e 2ffc 23bd
00000160: 6c5b 2a3d a12d 933d 1d0e abbd 728b d53c
00000170: 783a a93c 1e67 6a3d cad7 223d cfa6 41bc
00000180: 565f d6bd a130 4d3d 4563 e2bc bfa8 4bbd
00000190: 4e10 24be d72e a9bc 3521 cc3d e954 d8bd
000001a0: ac05 013c 8823 cfbd a046 c0bd a2ef 043e
000001b0: 5e56 dcbd 747b 08be 165d f9bd 5b55 ecbd
000001c0: 62b3 02bd 3241 42bd 25ef 8f3d 78ec e4bd
000001d0: 9a83 0d3e 60a7 063b d1a4 6b3d 67d8 16bb
000001e0: 1a1e 183d c9e1 943d ab7a 8f3c 4d9e b6bb
000001f0: 1c56 c1bc f1ee 8cbd c097 7b3d 08e1 a73d
00000200: a67b 43bd 3e66 46bd c29d d8bd 7786 38bd
00000210: 6b63 8dbd e92e 2c3d 13d3 32be 23a6 013e
00000220: 0796 c4bc 1c83 dbbc 228f 6c3d d3d4 0dbe
00000230: 70d2 69bc 0e1f 23bc 621d 4bbd e795 babd
00000240: 24e4 66bd afa5 ddbd d6e9 8abd 3941 ab3d
00000250: f167 02ba acd5 73bc 199b 6dbc 02d1 b6bd
00000260: f5de 86bc ecdb cb3d 88c6 9dbd d478 d1bd
00000270: 5a82 11bc 8366 14bc e088 6cbd ba3e 10be
00000280: 95d1 a9bd 6ad1 7dbd b16e 9ebe abe9 a9bd
00000290: 82c2 50bd 97a0 5a3d 16a3 e23c e4d8 a03d
000002a0: 69e9 033e ac99 18bd 1a93 d13c d4b6 f83d
000002b0: ff83 0abd fb20 b4bd cb42 1fbe 990f 5bba
000002c0: 55a2 033e 6a1b a83d b402 e2bd 557c 81bd
000002d0: f897 5dbd 1342 96bd c9f5 b7bd c601 debd
000002e0: e6fc 1a3c 9428 44bd 684d d2bd 1a6e 393e
000002f0: 542d 343d 67aa 073e 80fd fbbd 1b97 71bc
00000300: 8261 44bd 317d 10bd 00e9 e7bd 6e0e 23bc
00000310: 9387 b5bc 9894 1cbe 181d 9f3d 70a2 5abd
00000320: c31e 48bb 1ed0 6b3c 1630 09bd 3a49 c53b
00000330: c678 83bd b688 4a3d 0c13 9dbd f985 663d
00000340: 1dd9 d8bc 6ef2 89bc 2691 1abe 4b24 89bc
00000350: 7591 99bd 4624 ad3c 92eb f9bc acf1 e6bc
00000360: 511f 92bc 252d b4bd 5883 fabd bfd9 7cbb
00000370: 687d ca3d 82d6 56bd 9616 02bb 7682 343d
00000380: de9a e23b 3b70 623d c69e 8abd 7959 193c
00000390: 6b9d 033e 263d 323c 68eb c3bd 2eca 23bd
000003a0: b729 9d3c a5d7 463d d986 973c 1cbb fcbd
000003b0: 9a66 93bd 1f65 04bd 5e92 43ba 02e1 5b3c
000003c0: 7d7b 15be e4c3 d0bd a39f 0a3d 12df e63c
000003d0: 4194 5e3c 2558 9ebd 1992 adbd 4faa 853d
000003e0: 308f 6ebd 1da8 21bd 2cb8 23be ea7c c3bc
000003f0: 1d92 53be 9a0d 0dbe 7afd b93c 7dd3 f03d

encoder.1.running_mean f4 [256]
0.20518853 -0.115393214 -0.30788937 -0.23157896 0.30861214 0.7999235 -0.30191645 -0.49674827
-0.29116696 0.18597533 -0.30516407 -0.26223537 0.015402225 0.13183552 -0.3456234 0.17226273
0.16742986 0.05779729 -0.30597064 0.06295829 -0.30769172 -0.009994633 0.30610973 -0.56878054
0.3084861 -0.09077508 0.27603275 0.104377605 -0.09243011 0.17233048 0.05524406 -0.45019063
-0.19118564 0.31543452 -0.12806065 0.24567477 0.012567261 0.08205607 -0.54873484 0.14369208
0.041716646 0.4339126 0.18229993 -0.11440364 0.24534415 -0.040017135 0.07323455 0.28539872
0.024781575 0.48457608 0.44826737 1.3420217 -0.3329295 -0.63986444 0.4422061 -0.1026327
-0.18170884 0.11036109 -1.3690196 -0.29746574 -0.12299491 0.16183548 0.23262393 0.008028924
-0.21859021 0.5021934 0.5071686 0.5554469 -0.33355018 0.10767678 0.10873026 0.48410332
0.007346734 0.22476149 0.15061612 -0.03554904 -0.007902506 0.2276506 -0.6409505 0.020209495
-0.18079668 -0.36665383 -0.08948177 0.058002353 0.44165337 0.27720296 -0.13591906 0.24295592
-0.47400978 -0.41017172 -0.48917666 0.1490107 0.38649338 0.18382104 -0.08636621 -0.36773598
0.089421526 0.12191813 -0.025030948 -0.25083563 -0.18105301 -0.06052597 -0.44687337 -0.43544376
0.45944524 0.05928159 0.18740824 0.16174416 -0.35616055 0.47436333 0.37094915 0.23257557
-0.069633015 -0.31542787 -0.6285674 -0.64002365 0.23994085 0.02757286 -0.1926053 0.1596798
0.31146774 0.0073591704 0.19127627 0.054483313 -0.6784452 0.16362384 -0.45497188 -0.15321305
-0.024693096 0.3602202 0.46666193 0.104477175 0.85013664 0.19341975 0.22275396 0.06586278
0.005723042 0.119174175 0.0978225 0.15449403 -0.07116656 0.019787233 -0.14314745 -0.093256116
-0.36415508 -0.5458425 -0.3046679 -0.012517076 -0.14930308 0.020548081 -0.27997103 -0.23431492
-0.4461396 -0.69560075 -0.05231604 0.021783266 -0.35589564 -0.11043564 -0.22368091 -0.07750595
-0.3347996 -0.13859066 -0.054723598 0.25847977 -0.27449414 0.01786668 -0.29618964 -0.33781555
-0.3576921 0.37017146 -0.26368317 -0.27976063 -0.15454164 -0.02395467 -0.048305854 0.25572202
-0.2322978 0.21818876 -0.2611006 0.14975037 -0.7363725 -0.24914992 -0.18653369 0.7525136
-0.00058778893 -0.1725675 -0.062686354 -0.14885898 -0.272045 -0.5188472 -0.6938605 -0.070054166
-0.09310734 0.22394119 -0.21882024 -0.050463267 0.27510893 -0.14953145 -0.25800928 0.117503785
-0.064871386 -0.044905763 0.14564095 -0.10135674 -0.11063682 -0.5735223 0.22153476 0.02068628
0.42713326 -0.20018113 0.4976729 0.50394577 0.0875963 -0.2533533 -0.101561055 0.15189017
0.11233966 0.07176746 0.2735972 0.24176319 -0.13220903 0.22757383 -0.24899092 0.13603629
-0.28662652 0.25449213 -0.4125522 -0.23447634 -0.068347074 -0.050495807 0.4225541 -0.044934332
0.41283333 0.80191183 0.18043005 0.39552134 0.19389997 -0.51845974 0.1384964 -0.054037265
0.51536167 -0.048556056 -0.0052546393 -0.35899457 -0.15871297 -0.36576974 0.103937045 0.041121967
0.20148574 0.7751927 -0.41508237 0.18720855 0.1676075 -0.0018770291 -0.08916355 -0.5560661
00000000: f11c 523e 4753 ecbd ada3 9dbe 0923 6dbe
00000010: 6902 9e3e c9c7 4c3f cb94 9abe ca55 febe
00000020: d613 95be 5170 3e3e 773e 9cbe b743 86be
00000030: 9d59 7c3c e4ff 063e 8df5 b0be a465 303e
00000040: bc72 2b3e dabc 6c3d 2fa8 9cbe 47f0 803d
00000050: c589 9dbe 87c0 23bc 6aba 9c3e 9a9b 11bf
00000060: e4f1 9d3e 49e8 b9bd 2a54 8d3e edc3 d53d
00000070: ff4b bdbd 6777 303e 9847 623d 637f e6be
00000080: 2bc6 43be a280 a13e 5522 03be 2b92 7b3e
00000090: eae6 4d3c 030d a83d e379 0cbf 0424 133e
000000a0: 13df 2a3d cb29 de3e d5ac 3a3e 754c eabd
000000b0: 7f3b 7b3e 02e9 23bd fffb 953d c81f 923e
000000c0: bb02 cb3c 5b1a f83e 4d83 e53e 5ec7 ab3f
000000d0: bc75 aabe 28ce 23bf d768 e23e 1831 d2bd
000000e0: e211 3abe ff04 e23d 093c afbf 6e4d 98be
000000f0: c1e4 fbbd 33b8 253e f834 6e3e c08b 033c
00000100: 1dd6 5fbe bf8f 003f cdd5 013f c531 0e3f
00000110: 17c7 aabe a585 dc3d f8ad de3d 64dc f73e
00000120: dfbc f03b e027 663e 1d3b 1a3e df9b 11bd
00000130: 8379 01bc 3d1d 693e 5515 24bf 628e a53c
00000140: c422 39be 0dba bbbe 3842 b7bd e093 6d3d
00000150: 6420 e23e 8ced 8d3e 5e2e 0bbe 70c9 783e
00000160: 69b1 f2be 0702 d2be 5d75 fabe 4396 183e
00000170: 76e2 c53e 953b 3c3e c4e0 b0bd e447 bcbe
00000180: a222 b73d 36b0 f93d b40d cdbc 876d 80be
00000190: f665 39be 14ea 77bd 96cc e4be 7cf2 debe
000001a0: 683c eb3e 41d1 723d f2e7 3f3e 43a0 253e
000001b0: ad5a b6be c0df f23e 0ced bd3e 4a28 6e3e
000001c0: c19b 8ebd c37f a1be cbe9 20bf 97d8 23bf
000001d0: 0eb3 753e 7ae0 e13c 533a 45be 1a83 233e
000001e0: b378 9f3e 3225 f13b eddd 433e e529 5f3d
000001f0: 96ae 2dbf 028d 273e 13f2 e8be e2e3 1cbe
00000200: 2d49 cabc c86e b83e 50ee ee3e 21f8 d53d
00000210: 8ea2 593f d40f 463e 9d19 643e 11e3 863d
00000220: 5b88 bb3b 9711 f43d 2a57 c83d af33 1e3e
00000230: c6bf 91bd d618 a23c 3f95 12be 10fd bebd
00000240: 8972 babe 56bc 0bbf 6efd 9bbe 6c14 4dbc
00000250: e8e2 18be 7354 a83c 5d58 8fbe 40f0 6fbe
00000260: 696c e4be e412 32bf 5849 56bd d272 b23c
00000270: f437 b6be 152c e2bd 9c0c 65be 71bb 9ebd
00000280: da6a abbe b6ea 0dbe da25 60bd 7657 843e
00000290: 7f8a 8cbe 255d 923c 2ba6 97be 29f6 acbe
000002a0: 6b23 b7be 1d87 bd3e 7b01 87be c93c 8fbe
000002b0: 2a40 1ebe 963c c4bc 5cdc 45bd ffed 823e
000002c0: 79df 6dbe e06c 5f3e faae 85be 2958 193e
000002d0: e882 3cbf 2821 7fbe b002 3fbe bba4 403f
000002e0: d915 1aba 89b5 30be b461 80bd 7d6e 18be
000002f0: 7b49 8bbe 2cd3 04bf d7a0 31bf 8f78 8fbd
00000300: 10af bebd d750 653e 6a12 60be 92b2 4ebd
00000310: 14db 8c3e c61e 19be cb19 84be d3a5 f03d
00000320: 4adb 84bd 1bef 37bd e722 153e 1f94 cfbd
00000330: 8f95 e2bd 5cd2 12bf 02da 623e 4676 a93c
00000340: 36b1 da3e 48fc 4cbe fbce fe3e 9702 013f
00000350: b065 b33d 86b7 81be 3eff cfbd 1989 1b3e
00000360: 5612 e63d d1fa 923d ef14 8c3e c590 773e
00000370: ce61 07be 1d09 693e 7af7 7ebe 194d 0b3e
00000380: b6c0 92be cb4c 823e 0b3a d3be 911a 70be
00000390: 8df9 8bbd b1d4 4ebd 0359 d83e 100d 38bd
000003a0: e45e d33e 184a 4d3f a8c2 383e c681 ca3e
000003b0: b78d 463e c7b9 04bf 00d2 0d3e 2e56 5dbd
000003c0: beee 033f b7e2 46bd 1c2f acbb 23ce b7be
000003d0: a785 22be 2c46 bbbe f2dc d43d 826f 283d
000003e0: 4752 4e3e 0773 463f ad85 d4be 99b3 3f3e
000003f0: 4da1 2b3e a506 f6ba 619b b6bd 595a 0ebf

encoder.1.running_var f4 [256]
0.2772889 0.01102819 0.06283483 0.002335657 0.015809724 0.015873669 0.0988942 0.44263852
0.020127835 0.592341 0.05511961 0.0704075 0.07434103 0.019574584 0.059344366 0.10334699
0.04137615 0.04160648 0.6972637 0.07529326 0.11245119 0.14746113 0.006035974 0.07334576
0.027524704 0.032775987 0.011106711 0.027749298 0.48402807 0.15554474 0.06836082 0.0250359
0.043433726 0.018791573 0.21229924 0.12755792 0.09940863 0.17190921 0.0031337352 0.16952917
0.0007360428 0.20910417 0.02680169 0.36262557 0.0493511 0.9828756 0.07984316 0.0042450284
0.0036145092 0.059489366 0.04823789 0.005330223 0.10457642 0.2596062 0.09071381 0.063919164
0.3026928 0.09451284 0.0070237266 0.1279307 0.007059405 0.0023572578 0.12336524 0.09029199
0.034841675 0.0154636465 0.0036370228 0.0049755652 0.02409123 0.024801232 0.0016241529 0.080078594
0.05288195 0.00854964 0.044607818 0.25994334 0.09585338 0.045544468 0.4087247 0.00533283
0.040782735 0.030163899 0.055993535 0.010683801 0.06833518 0.009310209 0.18968625 0.046197668
0.0032269864 0.8949518 0.06849969 0.037708383 0.0022250945 0.08601802 0.0089609595 0.008100801
0.0055838265 0.00078169076 0.1174344 0.008836739 0.017137611 0.03655452 0.08522748 0.14531405
0.043630466 0.009173892 0.09328416 0.0023168945 0.040362727 0.0083796615 0.056937713 0.03904622
0.010100168 0.03164769 0.06320789 0.036874708 0.027556477 0.004950355 0.10758706 0.049964275
0.050375495 0.08342068 0.047055446 0.05445406 0.10228374 0.0172727 0.04261579 0.41512987
0.035222225 0.09197004 0.058513965 0.0066386084 0.037411712 0.091953084 0.06562727 0.079291426
0.052323006 0.0085880095 0.23637643 0.024777152 0.10367832 0.027425649 0.027774917 0.011464611
0.10322954 0.13827233 0.0011774042 0.018088376 0.14862847 0.038350422 0.015333648 0.11411036
0.027111847 0.042420093 0.43668666 0.019605635 0.109745294 0.26276273 0.0022715775 0.012351087
0.027950829 0.058694724 0.043661952 0.026016671 0.13953203 0.041948188 0.0242462 0.047875233
0.01016303 0.03794028 0.17348252 0.0076736975 0.09259105 0.11764803 0.03269171 0.09580164
0.3940675 0.0012779547 0.15108831 0.05712861 0.0026815631 0.011294724 0.06712999 0.016968537
0.0073740184 0.296072 0.15702753 0.050946876 0.11650645 0.23496073 0.023312321 0.08178842
0.07207491 0.008871697 0.0084651895 0.0116410395 0.77125746 0.01825204 0.025710564 0.033036698
0.032318655 0.0013054725 0.0013328716 0.25318676 0.024062034 0.026678843 0.05022732 0.09263349
0.05971113 0.05945522 0.11712194 0.0051716208 0.008399561 0.12200163 0.03464667 0.049793556
0.0023561337 0.009287489 0.023982884 0.07052716 0.18502963 0.039558552 0.14431645 0.08868916
0.17947519 0.052232068 0.03755892 0.035677254 0.07251041 0.0628612 0.4543131 0.0109808445
0.13421904 0.031419273 0.021138769 0.10665392 0.014509764 0.076345116 0.012313254 0.05447925
0.0015716586 0.073196664 0.03682805 0.12553766 0.13686195 0.06653618 0.0018838822 0.027173772
0.0033034931 0.04127504 0.09717873 0.033734746 0.022989841 0.03271189 0.029665282 0.07963059
00000000: d0f8 8d3e 95af 343c 8caf 803d d211 193b
00000010: 6583 813c 7f09 823c 0b89 ca3d 84a1 e23e
00000020: 21e3 a43c a9a3 173f 1ac5 613d cf31 903d
00000030: 1c40 983d e15a a03c 1413 733d 96a7 d33d
00000040: 0a7a 293d 8e6b 2a3d e07f 323f 5a33 9a3d
00000050: cf4c e63d 0d00 173e 6bc9 c53b 4d36 963d
00000060: 7d7b e13c 1d40 063d ecf8 353c 7f52 e33c
00000070: 87d2 f73e 1f47 1f3e c200 8c3d 1618 cd3c
00000080: 90e7 313d c9f0 993c f964 593e 8b9e 023e
00000090: c096 cb3d f808 303e 5a5f 4d3b 0e99 2d3e
000000a0: fff2 403a 671f 563e 388f db3c 0faa b93e
000000b0: 6124 4a3d bc9d 7b3f d084 a33d e119 8b3b
000000c0: 67e1 6c3b 1fab 733d 1895 453d 27a9 ae3b
000000d0: 292c d63d 1beb 843e 29c8 b93d 0de8 823d
000000e0: 8dfa 9a3e f38f c13d 4a27 e63b 4400 033e
000000f0: 9552 e73b 397c 1a3b eaa6 fc3d 02eb b83d
00000100: 25b6 0e3d 3c5b 7d3c 1e5b 6e3b 110a a33b
00000110: f95a c53c f42b cb3c 87e1 d43a 3f00 a43d
00000120: be9a 583d ca13 0c3c b0b6 363d 4b17 853e
00000130: c74e c43d d68c 3a3d 5d44 d13e 05bf ae3b
00000140: cc0b 273d 481a f73c 7a59 653d 1c0b 2f3c
00000150: 51f3 8b3d d989 183c 1d3d 423e c439 3d3d
00000160: d97b 533b 901b 653f 9149 8c3d 1b74 1a3d
00000170: e4d2 113b 372a b03d fdd0 123c 39b9 043c
00000180: 88f8 b63b 61ea 4c3a 7281 f03d f8c7 103c
00000190: 2d64 8c3c 31ba 153d bf8b ae3d 35cd 143e
000001a0: dcb5 323d 184e 163c c40b bf3d 0ad7 173b
000001b0: 6353 253d d94a 093c 8537 693d eeee 1f3d
000001c0: 2d7b 253c 02a1 013d 2373 813d ef09 173d
000001d0: 1fbe e13c 9636 a23b 9b56 dc3d 57a7 4c3d
000001e0: 8956 4e3d 76d8 aa3d 36bd 403d 380b 5f3d
000001f0: 237a d13d 7a7f 8d3c e58d 2e3d e78b d43e
00000200: 2e45 103d ca5a bc3d 57ac 6f3d af88 d93b
00000210: 063d 193d e651 bc3d 9767 863d 8b63 a23d
00000220: a650 563d b9b4 0c3c aa0c 723e 74f9 ca3c
00000230: 4d55 d43d c1ab e03c 3988 e33c 10d6 3b3c
00000240: 026a d33d 4397 0d3e 2153 9a3a 132e 943c
00000250: 1032 183e 5515 1d3d fb39 7b3c b1b2 e93d
00000260: aa19 de3c b1c0 2d3d 6595 df3e ff9b a03c
00000270: 24c2 e03d d688 863e bfde 143b 375c 4a3c
00000280: 23f9 e43c e169 703d e0d6 323d ea20 d53c
00000290: 7ce1 0e3e ddd1 2b3d f89f c63c d218 443d
000002a0: d682 263c 4467 1b3d 67a5 313e a473 fb3b
000002b0: 60a0 bd3d 73f1 f03d bee7 053d a633 c43d
000002c0: 37c3 c93e 0b81 a73a e5b6 1a3e b0ff 693d
000002d0: 2abd 2f3b 820d 393c 737b 893d 9a01 8b3c
000002e0: c0a1 f13b c096 973e d3cb 203e acad 503d
000002f0: ef9a ee3d 8c99 703e 7bf9 be3c b080 a73d
00000300: 039c 933d 985a 113c 94b1 0a3c 0fba 3e3c
00000310: 2171 453f 4d85 953c f69e d23c 7d51 073d
00000320: 9160 043d 631c ab3a c0b3 ae3a b2a1 813e
00000330: be1d c53c 978d da3c 2abb 4d3d a1b6 bd3d
00000340: a893 743d 5187 733d a1dd ef3d b376 a93b
00000350: 509e 093c fedb f93d abe9 0d3d 54f4 4b3d
00000360: 5d69 1a3b 8d2a 183c c177 c43c 8b70 903d
00000370: 6878 3d3e 2608 223d b1c7 133e aaa2 b53d
00000380: 58c8 373e 4bf1 553d 62d7 193d 5022 123d
00000390: 5680 943d 5fbd 803d ba9b e83e 00e9 333c
000003a0: b770 093e 7fb1 003d 362b ad3c 5f6d da3d
000003b0: 5cba 6d3c d45a 9c3d 88bd 493c a225 5f3d
000003c0: 1d00 ce3a 22e8 953d 02d9 163d f28c 003e
000003d0: 8a25 0c3e 1f44 883d 99ec f63a 889b de3c
000003e0: 6b7f 583b 0410 293d a405 c73d 722d 0a3d
000003f0: 3155 bc3c e7fc 053d 9b04 f33c 5d15 a33d

encoder.4.weight f4 [128, 256]
-0.056321364 -0.056599878 0.029228337 -0.026079124 -0.047353987 -0.012480032 -0.055779405 0.0156403
-0.114288285 0.054594625 0.07754741 -0.077218324 0.030055834 -0.01898642 -0.10582734 0.023731548
0.0240535 0.040186405 0.0037258046 -0.040258702 -0.00652675 0.029901117 -0.012116092 0.06881626
0.16934043 -0.10845178 0.010956428 -0.07347814 -0.03941364 0.047962047 -0.08594535 -0.21308136
0.030750562 0.06264551 -0.004266753 -0.10038118 -0.020033445 0.046714094 -0.0939597 0.03281542
-0.017534379 -0.06260898 0.08387441 0.0088200085 0.026526265 -0.1399062 -0.049359307 -0.04960783
-0.047478165 -0.05903726 -0.035662387 -0.055131633 -0.028900933 -0.038522217 -0.043181576 -0.05556328
0.047248997 0.05574421 -0.060766343 -0.12497973 0.019194197 0.10698106 0.008851466 -0.0015140667
-0.052029468 -0.003192107 -0.12670043 -0.040357593 0.13182837 -0.0025543375 -0.092654996 -0.01726404
-0.0299578 0.017451424 0.0066737663 -0.033036705 0.094118826 -0.015520926 -0.06525811 -0.013906334
0.019148322 -0.0005474989 -0.053497232 0.0036022696 0.082317114 -0.01511302 -0.015118436 -0.07978438
-0.020161474 -0.08658637 -0.04250712 0.0013523782 -0.065599576 0.013302209 -0.074245505 -0.08933394
0.0028833163 -0.035291053 0.050097514 0.013936151 0.0032949867 0.05454635 0.040661056 -0.043538924
0.09964243 0.06736994 0.018033953 -0.013947127 -0.09510014 -0.095439255 0.033563707 -0.020091629
-0.04149405 0.026964683 0.01887085 0.027282115 -0.012193482 0.028541444 0.03791458 -0.060674272
-0.06997846 0.034693267 -0.064843416 -0.095832676 0.060022507 -0.18865968 -0.016704082 -0.1575782
0.054523278 -0.004964233 -0.06964483 0.058877762 0.06387637 0.064806126 0.037474014 0.053010575
-0.08940634 0.054637995 -0.01043296 -0.009503156 0.0008152988 -0.060679857 0.02724629 -0.019549346
-0.18227713 -0.0029680294 0.06431022 0.02538367 -0.04780553 0.057913616 0.033521447 -0.024430458
-0.07668072 -0.12639323 0.00629059 -0.063540496 -0.023392707 -0.10293354 -0.000521742 -0.05243979
-0.07058674 -0.046166793 -0.08493718 0.034117803 0.01526586 -0.048701007 -0.0025504965 0.0040435735
-0.14408454 -0.01825077 -0.012034821 0.024039237 0.06644217 0.020288397 -0.030360812 0.02217601
0.012123173 -0.074535385 -0.1073996 0.05037759 0.06898347 -0.06240181 -0.010757063 0.042394962
-0.082751594 -0.13355349 -0.067388006 0.023749076 -0.070312686 -0.044839352 -0.111177854 -0.038719837
0.048515897 -0.023674086 0.03138269 -0.045926392 0.0962418 0.14378099 -0.07763906 -0.15947342
0.039371956 -0.013828173 -0.021617776 -0.015158382 -0.07063759 -0.04195376 -0.038368665 -0.12461761
0.074806124 0.07316579 0.03394543 0.07490056 -0.139498 0.03295553 0.032258525 0.0035052109
-0.022213815 -0.05713267 -0.09580233 0.06264196 -0.0038493115 -0.0038560163 0.0070754546 0.024606973
-0.0016719695 0.033608854 -0.00027554086 -0.015110125 -0.056389783 -0.041772272 0.050080676 -0.11168337
0.12809436 0.041947894 0.036209464 -0.07576937 -0.08984269 -0.060251772 -0.12447144 0.04116471
0.029147323 0.041329276 0.02429857 -0.01727056 -0.041471392 -0.10606541 0.051951163 0.052519657
-0.082841374 -0.059011582 0.0013866356 -0.005394557 0.043198843 -0.051111884 0.021267062 0.057623863
00000000: 3bb1 66bd 46d5 67bd 4470 ef3c e3a3 d5bc
00000010: 41f6 41bd 0c79 4cbc f278 64bd 1620 803c
00000020: fa0f eabd 9d9e 5f3d 2dd1 9e3d a424 9ebd
00000030: a737 f63c 6989 9bbc 01bc d8bd aa68 c23c
00000040: d80b c53c 809a 243d a12c 743b 4fe6 24bd
00000050: 59de d5bb 30f3 f43c 9382 46bc 8aef 8c3d
00000060: 9467 2d3e f81b debd 9782 333c b57b 96bd
00000070: 3270 21bd da73 443d 1e04 b0bd 0032 5abe
00000080: 9ae8 fb3c 4a4c 803d 1ed0 8bbb a694 cdbd
00000090: 2e1d a4bc 4757 3f3d f16d c0bd 7669 063d
000000a0: 42a4 8fbc 2339 80bd 59c6 ab3d cc81 103c
000000b0: 9c4d d93c 9243 0fbe fc2c 4abd 9431 4bbd
000000c0: 7778 42bd 0ed1 71bd b912 12bd b5d1 61bd
000000d0: a6c1 ecbc 79c9 1dbd 2adf 30bd 5296 63bd
000000e0: 2a88 413d 0a54 643d 21e6 78bd 5ff5 ffbd
000000f0: 263d 9d3c e318 db3d bd05 113c a673 c6ba
00000100: da1c 55bd ab32 51bb c2bd 01be 014e 25bd
00000110: 04fe 063e ac66 27bb e7c1 bdbd 516d 8dbc
00000120: 0f6a f5bc 4af6 8e3c 9caf da3b 7f51 07bd
00000130: 5fc1 c03d 7b4b 7ebc 0ba6 85bd 64d7 63bc
00000140: f1dc 9c3c 0786 0fba ea1f 5bbd 0e14 6c3b
00000150: e095 a83d 9a9c 77bc 51b3 77bc fe65 a3bd
00000160: ad29 a5bc 3254 b1bd f21b 2ebd 4842 b13a
00000170: 1259 86bd 82f1 593c 070e 98bd b6f4 b6bd
00000180: 05f6 3c3b 5a8d 10bd 0d33 4d3d 7454 643c
00000190: b4f0 573b fe6b 5f3d 358c 263d df55 32bd
000001a0: 5511 cc3d 40f9 893d f1bb 933c 7e82 64bc
000001b0: ddc3 c2bd a875 c3bd 197a 093d 3397 a4bc
000001c0: aaf5 29bd 0ae5 dc3c 0a97 9a3c be7e df3c
000001d0: 2cc7 47bc bfcf e93c 524c 1b3d 9685 78bd
000001e0: de50 8fbd 871a 0e3d a0cc 84bd ec43 c4bd
000001f0: 29da 753d 0130 41be 00d7 88bc 2e5c 21be
00000200: cd53 5f3d 01ab a2bb f3a1 8ebd cf29 713d
00000210: 9dd1 823d 13b9 843d 5a7e 193d 9e21 593d
00000220: ac1a b7bd 17cc 5f3d 02ef 2abc 20b3 1bbc
00000230: c7b9 553a 718b 78bd 9d33 df3c f325 a0bc
00000240: dba6 3abe 4583 42bb 14b5 833d 6af1 cf3c
00000250: bbcf 43bd d436 6d3d c94d 093d 6222 c8bc
00000260: c80a 9dbd 3a6d 01be 4b21 ce3b 8521 82bd
00000270: 10a2 bfbc d2ce d2bd 83c5 08ba 1bcb 56bd
00000280: c88f 90bd 6419 3dbd 8bf3 adbd 1cbf 0b3d
00000290: a81d 7a3c b57a 47bd 3b26 27bb f47f 843b
000002a0: e68a 13be a482 95bc b32d 45bc efed c43c
000002b0: d512 883d da33 a63c 3db7 f8bc 77aa b53c
000002c0: 46a0 463c 02a6 98bd 52f4 dbbd bb58 4e3d
000002d0: 3547 8d3d 0a99 7fbd 643e 30bc 57a6 2d3d
000002e0: ab79 a9bd 3fc2 08be b902 8abd 6c8d c23c
000002f0: 1900 90bd 78a9 37bd 37b1 e3bd b198 1ebd
00000300: 9bb8 463d 28f0 c1bc 238b 003d 501d 3cbd
00000310: 6c1a c53d 533b 133e 3a01 9fbd 004d 23be
00000320: 7d44 213d 908f 62bc c317 b1bc dd5a 78bc
00000330: 71aa 90bd b5d7 2bbd 7628 1dbd 8437 ffbd
00000340: f433 993d f2d7 953d 5d0a 0b3d 7765 993d
00000350: 90d8 0ebe 61fc 063d 8421 043d aeb7 653b
00000360: bff9 b5bc f203 6abd 0334 c4bd 6e4a 803d
00000370: bb44 7cbb 38b5 7cbb 37d9 e73b 9094 c93c
00000380: fd25 dbba 70a9 093d 7876 90b9 7590 77bc
00000390: f9f8 66bd 6719 2bbd 6521 4d3d 40ba e4bd
000003a0: 2b2b 033e 8ed1 2b3d 6050 143d f92c 9bbd
000003b0: 72ff b7bd 90ca 76bd e2ea febd 549c 283d
000003c0: 5ec6 ee3c e348 293d cb0d c73c fd7a 8dbc
000003d0: e8dd 29bd d238 d9bd beca 543d da1e 573d
000003e0: bda8 a9bd 21b6 71bd c5bf b53a d3c4 b0bb
000003f0: 45f1 303d b25a 51bd 4338 ae3c 0007 6c3d

encoder.4.bias f4 [128]
0.0064238063 -0.033645943 0.04882034 0.02016186 0.008925428 -0.013296523 0.016390482 -0.058989026
-0.034411255 0.04526176 -0.016902797 -0.05306409 -0.04997691 -0.0147123365 -0.041215483 -0.047517527
-0.020134633 0.045096956 0.015171772 0.009297639 0.026148578 -0.030966617 -0.0006683763 -0.004251248
0.036283273 -0.003546595 0.042374976 0.011443696 -0.050206766 -0.05712237 -0.04203905 0.023525422
0.039274044 -0.019909311 0.062541045 -0.0055901883 0.02544832 -0.06002719 0.043461747 0.018373676
0.003608439 0.034850214 0.0010852792 -0.023760485 0.045051042 0.06014386 -0.013879219 0.029426754
0.04432432 0.031037495 -0.060380913 0.024175433 0.039017275 -0.033769917 -0.044766806 0.057918686
-0.053203776 0.0054232823 0.04062753 -0.010749319 -0.017791834 -0.031733308 -0.02954934 0.020196116
0.027995294 -0.03638642 -0.025437336 -0.021851802 -0.051012922 -0.0062897266 -0.030190986 0.05923316
-0.022286989 -0.052709118 -0.0035655752 -0.02652559 0.048855953 -0.009777262 -0.068576604 0.006118544
-0.013036914 -0.048316304 -0.056853265 0.047352873 -0.01972727 0.01601067 -0.014732354 -0.05505188
-0.022513524 -0.0021237775 -0.007835949 -0.009681666 0.029133199 -0.020657694 -0.054781463 -0.03637504
0.049051467 -0.00018621013 -0.006509072 0.033851776 -0.054752048 -0.005454725 -0.0034807173 0.047645506
-0.04037398 0.021205181 0.0076780226 -0.026246838 0.05853447 -0.025315864 0.03445435 0.06445529
0.0041798893 -0.041220073 -0.049510993 -0.059283625 -0.036707778 -0.013720717 -0.055852976 0.04344218
0.0062598926 0.007109541 0.045567546 0.020792969 0.017435644 -0.06707933 -0.040409554 -0.05749622
00000000: cb7e d23b 54d0 09bd d6f7 473d 7c2a a53c
00000010: f53b 123c a9d9 59bc 5545 863c 7a9e 71bd
00000020: d1f2 0cbd 6564 393d bc77 8abc bb59 59bd
00000030: 97b4 4cbd 030c 71bc 91d1 28bd bda1 42bd
00000040: 63f1 a4bc 96b7 383d 0693 783c 2055 183c
00000050: 8b35 d63c b4ad fdbc f935 2fba 0e4e 8bbb
00000060: c59d 143d fe6d 68bb 6291 2d3d 577e 3b3c
00000070: 9ca5 4dbd 25f9 69bd 2431 2cbd 63b8 c03c
00000080: d2dd 203d da18 a3bc 8515 803d e62d b7bb
00000090: ff78 d03c 12df 75bd f204 323d 6484 963c
000000a0: 8f7b 6c3b 19bf 0e3d ed3f 8e3a 59a5 c2bc
000000b0: 7187 383d 6859 763d aa65 63bc 6010 f13c
000000c0: 6b8d 353d 5842 fe3c fa51 77bd 8f0b c63c
000000d0: 94d0 1f3d 5352 0abd 665d 37bd 253c 6d3d
000000e0: 34ec 59bd cab5 b13b 0e69 263d e91d 30bc
000000f0: 2ec0 91bc c9fa 01bd 7511 f2bc 5372 a53c
00000100: 6356 e53c ed09 15bd f661 d0bc 8d02 b3bc
00000110: edf2 50bd 0d1a cebb 1653 f7bc 789e 723d
00000120: 3493 b6bc 84e5 57bd 6dac 69bb 324c d9bc
00000130: 2e1d 483d cf30 20bc e471 8cbd 117e c83b
00000140: c898 55bc 51e7 45bd f8de 68bd 16f5 413d
00000150: 159b a1bc cf28 833c f95f 71bc 157e 61bd
00000160: 486e b8bc 132f 0bbb 5a62 00bc da9f 1ebc
00000170: bfa8 ee3c 533a a9bc 8762 60bd fefd 14bd
00000180: 31ea 483d 6741 43b9 0e4a d5bb 29a8 0a3d
00000190: af43 60bd 8dbd b2bb bf1c 64bb ef27 433d
000001a0: 305f 25bd 7db6 ad3c ec97 fb3b 9c03 d7bc
000001b0: d7c1 6f3d 3763 cfbc 0120 0d3d 2301 843d
000001c0: 74f7 883b 61d6 28bd 0acc 4abd 63d3 72bd
000001d0: e55a 16bd dccc 60bc 17c6 64bd 6df0 313d
000001e0: c91f cd3b 27f7 e83b 09a5 3a3d 0456 aa3c
000001f0: 32d5 8e3c e360 89bd 7d84 25bd 2881 6bbd

encoder.5.weight f4 [128]
0.9695168 0.9308008 1.0468119 0.93757826 0.9695432 1.1428958 1.0738323 0.88558424
0.9163587 0.99088573 1.0003009 0.9334608 0.93591905 1.0455865 0.99313235 1.096248
0.9665238 0.95407754 1.010135 1.1649603 0.9386523 1.0144421 0.9402994 0.90202695
0.9920991 0.94036907 1.0820874 0.9625198 0.93815327 1.0426617 1.001219 0.9790209
0.97285295 1.1638166 0.9365919 0.9105873 0.9496825 0.92339325 1.0387347 0.9549658
0.92905265 1.0381247 1.0261331 0.9743041 0.9397356 0.87359124 1.0417356 1.0174419
0.9266355 0.9752334 0.9689156 1.0189594 0.94719625 0.9874697 1.0209711 1.0304484
0.9346166 1.1153481 1.0305718 0.95672303 0.9524316 0.9527874 1.0086161 1.0581338
1.1442132 0.99363947 0.9885244 0.9090274 0.89051956 1.0244029 0.97034204 0.9543536
0.9083334 0.98775876 1.0920453 0.9188817 1.1085148 0.94757664 0.9644751 1.0182797
1.1338006 1.0688465 0.9884413 1.0604022 0.9770257 0.9326351 1.0524395 0.9247021
0.9542508 0.9276989 1.0607642 1.0048169 1.0125154 0.94593376 0.9720998 0.96590096
1.0082513 0.9760626 0.96378434 0.92616147 0.97710395 0.9275231 1.0391753 1.0919365
1.0149425 0.9367882 0.9943922 1.090084 0.94230676 0.9921937 1.0379031 0.9410639
0.9679042 0.94044673 0.9993706 1.0195724 1.0194879 0.9934489 0.9088336 0.94390774
0.919376 1.126 0.9085693 0.91727585 1.0058653 0.95369905 0.99955475 1.038473
00000000: 4132 783f f648 6e3f effd 853f 2105 703f
00000010: fc33 783f 694a 923f 5673 893f a6b5 623f
00000020: 7c96 6a3f b0aa 7d3f dc09 803f 49f7 6e3f
00000030: 6498 6f3f c7d5 853f ec3d 7e3f db51 8c3f
00000040: 1b6e 773f 6d3e 743f 1b4c 813f 6b1d 953f
00000050: 844b 703f 3dd9 813f 76b7 703f 3deb 663f
00000060: 35fa 7d3f 07bc 703f d781 8a3f b367 763f
00000070: d02a 703f f075 853f f227 803f 1da1 7a3f
00000080: e40c 793f f1f7 943f 7dc4 6f3f 401c 693f
00000090: 641e 733f 8063 6c3f 42f5 843f a378 743f
000000a0: 65d6 6d3f 45e1 843f 5458 833f fe6b 793f
000000b0: 8392 703f ada3 5f3f 9857 853f 893b 823f
000000c0: fc37 6d3f e5a8 793f da0a 783f 436d 823f
000000d0: 747b 723f d0ca 7c3f 2eaf 823f bce5 833f
000000e0: 0943 6f3f bac3 8e3f c7e9 833f cdeb 743f
000000f0: 8fd2 733f e0e9 733f 551a 813f ee70 873f
00000100: 9475 923f 285f 7e3f ef0f 7d3f 05b6 683f
00000110: 17f9 633f a21f 833f 5668 783f 8450 743f
00000120: 8a88 683f c2dd 7c3f 24c8 8b3f d53b 6b3f
00000130: d0e3 8d3f 6294 723f d7e7 763f fd56 823f
00000140: 6120 913f f6cf 883f 7d0a 7d3f 42bb 873f
00000150: 5b1e 7a3f 2dc1 6e3f 56b6 863f 47b9 6c3f
00000160: c849 743f ad7d 6d3f 1fc7 873f d79d 803f
00000170: 1b9a 813f b728 723f 88db 783f 4945 773f
00000180: 610e 813f 3ddf 793f 92ba 763f eb18 6d3f
00000190: 7c23 7a3f 2772 6d3f b203 853f 93c4 8b3f
000001a0: a3e9 813f 5ad1 6f3f 7d90 7e3f df87 8b3f
000001b0: 043b 713f 6800 7e3f 02da 843f 90e9 703f
000001c0: 92c8 773f 1ec1 703f c0d6 7f3f 5981 823f
000001d0: 947e 823f ab52 7e3f 52a9 683f f0a3 713f
000001e0: 3a5c 6b3f c520 903f ff97 683f 97d2 6a3f
000001f0: 32c0 803f 9f25 743f d2e2 7f3f afec 843f
