outputs_intermediate/models/encoder_with_attention.pth (torch, 336714 bytes, 24 tensors)

encoder.0.weight f4 [256, 50]
000000 d3 63 dc 3c 8d 60 cd 3d 72 5e b5 3c 46 82 19 bd
       0.026903069 0.10028181 0.022139762 -0.037477754
000010 60 6e 53 3e ca 05 45 be 0d 8c be 3e d7 3f bc be
       0.20647573 -0.1924049 0.37216225 -0.36767456
000020 d8 4d 28 be 7f 8b f0 bd c7 df 5d bd ca 8b 60 3e
       -0.16435945 -0.11745357 -0.05416849 0.21928325
000030 90 b7 05 be 03 24 84 3d 9a 6e a7 3b 72 a4 72 bd
       -0.13058305 0.06452181 0.0051096203 -0.05923886
000040 ed 46 84 bd 14 8c 78 bd f0 67 be bd 3f ea b7 bd
       -0.064588405 -0.060680464 -0.09297168 -0.08980226
000050 ee 59 c0 3d ee 55 d1 bc c0 58 ec 3d 37 8a 0d bd
       0.09392153 -0.02555367 0.11540365 -0.03455564
000060 33 06 97 3d 44 ad 10 3d bb 21 a8 3d 4d 7e 06 bd
       0.07374229 0.03532149 0.082095586 -0.032835294
000070 fe c7 36 3d 30 7b 48 3d 84 f0 33 3d 27 6e b4 3d
       0.04462432 0.048945606 0.043930545 0.088100724
000080 47 cd 00 be c1 4c e3 3c 44 c2 6e bd 64 2d 4f 3c
       -0.12578307 0.02774656 -0.058290735 0.012645099
000090 3d a2 4e 3d 2b 00 84 bd ba 25 16 bd 83 dd 09 3e
       0.05044769 -0.064453445 -0.036657073 0.13463406
0000a0 b9 72 9d 3d a8 ce 30 bd f2 7e ee 39 0c cb 8f 3c
       0.07687897 -0.043165833 0.0004548948 0.017552875
0000b0 e8 e9 f5 bc 2e 1b 87 3d d6 41 9f 3d c5 a0 c1 bc
       -0.030018762 0.06596981 0.07776229 -0.023636231
0000c0 7f f5 0e bd c6 5c e8 bc 9a 0a 41 3c 2b a3 a5 bd
       -0.034902092 -0.02836455 0.011782313 -0.080877624
0000d0 0d f7 49 be 9d de 0a be 2d 60 9b 3d 8f bd 6c be
       -0.19723149 -0.13561483 0.075867034 -0.23119186
0000e0 61 08 38 3e 91 88 0c 3e bb d2 30 be 78 49 d6 3d
       0.17971946 0.13723971 -0.17267887 0.10463232
0000f0 4f 16 99 3e 1a 40 bc 3b b0 a2 0b be c6 87 f2 bd
       0.29899833 0.005744946 -0.13636279 -0.11842303
000100 33 6f 27 bd ea d4 1a 3e fb 7e b3 3d 8b d9 04 be
       -0.040877532 0.15120283 0.08764454 -0.12973611
000110 1c 06 de 3d ac c7 96 3c e6 36 3c 3e 1d 34 88 3d
       0.10841009 0.018405758 0.18380317 0.06650565
000120 8d 8d 9e 3c 5f 96 89 3d 71 30 23 bd a9 40 46 be
       0.019354606 0.06718134 -0.03984112 -0.19360603
000130 06 65 c8 3d 79 9c 99 3c eb 2a d1 bd 7b 3d 8d bd
       0.09784894 0.01875137 -0.10213264 -0.06896492
000140 58 77 6e bd a9 8a 46 bd e2 9f d2 3d 27 0e 03 3e
       -0.058219284 -0.04847208 0.102844015 0.12798367
000150 94 61 b3 bd 3f 37 0c be 57 b4 26 bd 27 ca 6c bd
       -0.08758846 -0.1369295 -0.04069933 -0.057809975
000160 db 65 e1 3d f9 07 fa bd e4 ec ad 3c e4 71 79 3d
       0.110057555 -0.12208552 0.021231122 0.06089963
000170 63 88 a9 3d 30 78 13 3e f3 98 a1 3d f0 9f e4 3a
       0.08277967 0.14401317 0.07890501 0.0017442685
000180 e5 ed a1 3c 92 0f e1 3d f7 c2 7f 3d 15 db 21 3e
       0.019766757 0.10989298 0.062441792 0.1580623
000190 ce 0b 2b 3c 24 c6 4b bd 6e 5d 0f 3d 33 28 bc bc
       0.010439826 -0.04974951 0.03500121 -0.022968387
0001a0 f7 bc 4d 3d be c2 28 3e 8f 4f 56 be 56 2b 86 be
       0.05022904 0.16480538 -0.20928787 -0.26204938
0001b0 70 21 f1 bd e7 31 49 3c e8 bf d8 bc 62 dc 81 bb
       -0.11773956 0.012279964 -0.026458696 -0.0039630393
0001c0 0f 77 90 bd d5 aa c3 bc e0 dc 74 3e 65 35 90 3d
       -0.070539586 -0.02388517 0.23912382 0.07041434
0001d0 1a db f2 bd 30 1a 2c bb ba 82 97 bd 28 60 93 3d
       -0.118581966 -0.0026260726 -0.07397981 0.07196075
0001e0 c9 ba 9d 3e 9d 1e c0 bb e1 d6 5c bc 42 8c c2 3d
       0.30806568 -0.0058630244 -0.0134789655 0.09499408
0001f0 6e 82 95 3c 99 d7 a5 3d 4f 05 3d 3d 3a fc fe bc
       0.01825067 0.080977626 0.04614764 -0.03112613
000200 4f 79 54 3c 49 c0 40 be b6 90 09 3e f9 84 25 be
       0.012968375 -0.18823351 0.13434109 -0.16164006
000210 a4 e4 57 bc 08 2b 26 bd 3c 05 c6 bd f9 e6 ff bc
       -0.013177071 -0.04056838 -0.09668967 -0.031238066
000220 ea 2a 84 3d dc 60 3d be 5c f0 6d be cb 24 d8 bd
       0.06453498 -0.1849398 -0.23236221 -0.10553893
000230 98 ce 00 3e 5e 26 42 3e b6 0f 85 be e3 3b d7 3c
       0.1257881 0.18959948 -0.2598855 0.026273673
000240 70 14 94 3d 14 d3 52 3d 6d a5 61 3b 2d 4c 54 bc
       0.07230461 0.05147083 0.0034430877 -0.012957615
000250 d8 e8 0b be ed 62 4d bc 18 31 56 bc 63 08 03 3e
       -0.13663042 -0.012535793 -0.013073228 0.12796168
000260 38 91 bd bc 3d 38 f7 3b c6 e6 94 bc ba 29 88 bc
       -0.023140535 0.007544546 -0.018176448 -0.01662146
000270 2a 62 25 3e b3 2a 09 be fe b9 16 be ca 35 81 bd
       0.16150728 -0.13395195 -0.14719388 -0.063090876
000280 7d 8b a6 bd 0e e3 70 3e c9 51 f6 bd c1 b2 81 bd
       -0.08132074 0.23524114 -0.12027318 -0.06332923
000290 16 31 02 3e 39 8b 49 3c 93 a3 43 3e e6 6e c0 bd
       0.12714037 0.01230126 0.19105367 -0.09396152
0002a0 c7 31 64 bd 71 1b 9d bd d8 df 03 3e b4 73 12 3e
       -0.055711534 -0.0767125 0.12878358 0.1430195
0002b0 2c 17 fa 3d 7c 45 d5 3d fb c9 b0 3d bd 02 bd 3d
       0.12211451 0.10413644 0.08632275 0.09229038
0002c0 07 48 e3 bd e4 c4 d3 bd 47 af 75 bd e5 7b 6f bc
       -0.110977225 -0.10340288 -0.05998161 -0.014616941
0002d0 e0 21 12 3e 06 a8 a2 3d b8 7b 01 3d c1 34 ad bd
       0.14270735 0.07942204 0.031612128 -0.08457328
0002e0 fb d7 98 bc cd 85 f5 bd ef 64 04 be 65 c2 09 3c
       -0.018657675 -0.11988411 -0.12929128 0.008408164
0002f0 0d 84 95 3d 91 17 0a be ed 62 1c bd 41 7b f6 bd
       0.07300577 -0.13485552 -0.03818028 -0.120352276
000300 2e de 18 be 58 79 28 3c 2c 7b a7 3c d8 40 48 3d
       -0.14928505 0.010282837 0.020444475 0.048889965
000310 df 19 a4 3d 03 82 2f be fd 78 e0 3d 18 bc 21 be
       0.08012747 -0.1713944 0.10960577 -0.15794408
000320 cd 0d f3 3c d3 73 a9 bd f6 0a 80 bc 9a b4 5f bc
       0.029669667 -0.08274045 -0.015630227 -0.013653899
000330 c7 d9 54 be 5f 3f d3 3e 51 7b 78 be 29 af ed 3c
       -0.207862 0.41259286 -0.24265791 0.029014187
000340 16 93 6a bd d2 61 43 3e 18 ce 5d bd e0 80 82 be
       -0.05726918 0.19080284 -0.054151624 -0.2548895
000350 7b 20 02 bd 25 b7 32 3d 52 88 ec bd c3 ed e8 bb
       -0.031769257 0.04363169 -0.115494385 -0.0071084215
000360 70 22 28 bd f1 68 26 3e 2c 45 54 3d a7 cc e6 bd
       -0.041048467 0.1625097 0.05182378 -0.11269503
000370 6f 34 2c bc 2d dd 90 bd bf 26 57 3e c2 59 1b be
       -0.010510548 -0.07073436 0.21010874 -0.15170959
000380 1f a8 83 3d 12 32 21 3d ae b8 03 be fe bf bc bc
       0.06428551 0.03935439 -0.12863418 -0.023040768
000390 0b 9f c5 bd 65 fc fc bd 18 62 1b bd 14 e8 90 3c
       -0.09649476 -0.12352828 -0.037935346 0.017688788
0003a0 13 c9 3f bc db fd 5d bc 2a b8 09 3d ae 23 72 3a
       -0.011705655 -0.013549293 0.0336229 0.0009236884
0003b0 7a 49 73 bd 93 f2 3f 3d f6 45 e0 bd 53 e9 30 3d
       -0.059396245 0.046862196 -0.10950844 0.043191265
0003c0 a3 bc 22 bd 56 0c b5 bb 5a 6d 92 3d bf a7 6a 3c
       -0.03973068 -0.005525152 0.071497634 0.01432222
0003d0 23 66 8b bd 34 60 9d bd b9 89 12 3c 15 3d 7e 3d
       -0.068065904 -0.07684365 0.008943968 0.06206997
0003e0 7f 89 90 bd 3f dc 93 3c b2 80 3e bd f0 cb b5 3d
       -0.07057475 0.018049357 -0.046509452 0.088767886
0003f0 1f 3d 4d 3e 82 db 10 3e fb 8a 58 bd d9 86 83 3d
       0.20042847 0.14146236 -0.052866917 0.064222045

encoder.0.bias f4 [256]
000000 34 3d df 3b 71 80 07 3e 0b 3c 8a 3c 6d 4f 07 3e
       0.006812716 0.1323259 0.016874334 0.13213892
000010 9f 90 a7 bc 08 6b ff 3d b1 73 f0 3c f6 98 10 3e
       -0.020454703 0.124715865 0.029352041 0.1412085
000020 28 76 cc 3d 9f 44 f5 3d b5 fd 59 3c e3 7e 06 be
       0.09983474 0.11975979 0.013305117 -0.13134341
000030 30 98 07 bb c2 cf 48 bd 9c d5 2b 3d 0f 04 8b 3d
       -0.0020690076 -0.04902626 0.04195176 0.067878835
000040 a2 67 c5 bd 53 79 43 bd af 61 d7 bd 03 5f 0f 3e
       -0.09638907 -0.047723126 -0.105166785 0.14001088
000050 2f 5d 4f bd 08 b4 02 be 45 70 ff 3b ce 20 df 3d
       -0.050625976 -0.12763989 0.007795366 0.10894929
000060 ef 74 0e 3e 02 2a 14 bd 21 49 ca 3c d8 07 d8 bc
       0.13911794 -0.036172874 0.024693074 -0.026370928
000070 cf e2 3a 3c 5c b2 ff 3d 48 e8 6d 3d 44 8f 91 3d
       0.011406614 0.12485191 0.05808285 0.07107404
000080 b6 49 12 bc 11 8c bb bd dd 66 a5 3d 7d fe c5 3d
       -0.008928707 -0.09157575 0.0807626 0.096676804
000090 55 40 2d 39 de 22 bb bd b6 49 a4 3b 60 6e a2 3d
       0.00016522531 -0.0913751 0.00501367 0.079312086
0000a0 75 56 37 bd a4 47 92 bd 53 73 45 bd 46 22 4d 3c
       -0.044760186 -0.071425706 -0.048205685 0.012520378
0000b0 43 71 e2 bd b1 0b 0b 3c 2c ac ff 3d 6f ee fa bd
       -0.11056759 0.008486674 0.12484011 -0.12252509
0000c0 e4 b8 c4 bd f5 df 36 bd 75 f6 6b 3d da 6d fb bd
       -0.096055776 -0.044647176 0.057608087 -0.12276812
0000d0 8b 29 d3 3c ee 2f ad bd fe 37 05 bd 90 58 1a ba
       0.025776645 -0.084564075 -0.0325241 -0.00058878306
0000e0 1b 34 df 3b 40 b3 0c 3e e0 1f bb 3d b4 a4 0f 3e
       0.0068116314 0.13740253 0.09136939 0.14027673
0000f0 56 d9 a9 3d d9 1d c3 bd b1 f9 5e 3d d4 b4 20 3d
       0.08293407 -0.09527177 0.054437343 0.03923495
000100 1a 58 90 bd e3 b8 4c 3c fb 55 e8 bd b3 50 e1 bc
       -0.07048054 0.012495252 -0.113445245 -0.0275043
000110 1c 40 00 3e 41 f0 97 bd ca 0e 12 be 93 5b d6 3d
       0.12524456 -0.07418872 -0.14263454 0.10466685
000120 e0 31 07 be cf 8b 08 3e bf 50 4f 3d 0d 7b b2 3d
       -0.1320262 0.13334583 0.050614115 0.08714876
000130 7f 22 ef 3c 63 6d 91 bd 58 4f 0e be 3d d4 09 3e
       0.029191254 -0.07100942 -0.13897455 0.13459869
000140 e8 b9 8b bd 8b 43 93 bd e3 a3 f9 3d de af 75 bd
       -0.06822568 -0.07190617 0.12189462 -0.059982173
000150 fa 39 0c be cd e0 06 3e 2f 15 db 3d a5 b7 9f bd
       -0.13693991 0.13171692 0.106974 -0.07798699
000160 89 9d 35 3d 44 5e bf 3d f5 4d be 3d 15 b8 54 bd
       0.04433969 0.093441516 0.09292213 -0.051933367
000170 0d 40 09 3e 5e 54 cd bd 0e c0 46 bd aa db 07 3c
       0.1340334 -0.100258574 -0.048523 0.008292118
000180 bb c1 d0 3d 9f 79 97 bd 1a e9 06 be 6f ea fc bd
       0.10193201 -0.07396244 -0.13174859 -0.12349402
000190 57 96 29 3d 22 16 d0 3d 0e 9e 70 3d 51 cb ae bd
       0.04140314 0.101604715 0.058744483 -0.08534873
0001a0 6f 93 97 bd da 93 15 bd 8b df 1b 3c 03 74 c3 3d
       -0.074011676 -0.036517955 0.009513746 0.09543612
0001b0 02 10 8f bd 55 2c 83 bd f4 95 f5 3c 10 3c 47 3d
       -0.06985475 -0.0640494 0.02997873 0.048641264
0001c0 ae 80 e2 bd f9 27 67 3d d1 c2 ab bd a8 d8 03 3e
       -0.110597 0.056434605 -0.08386768 0.12875617
0001d0 d1 91 b7 bd 7f 57 a4 3d 44 ab a0 bb af 95 d9 bc
       -0.08963359 0.08024501 -0.004903229 -0.026560633
0001e0 36 93 b1 bd 26 9c 97 bd cb 0f a5 bd 81 91 60 bc
       -0.086706564 -0.0740283 -0.08059653 -0.013706566
0001f0 a0 7f f9 bd 0e 33 09 3e 93 5b 85 bc 00 23 88 3d
       -0.12182546 0.13398382 -0.016279018 0.06647301
000200 1e 60 c0 3d b9 bb 0b 3e 6e 81 6d bd 61 eb fc 3d
       0.09393333 0.1364583 -0.057984762 0.123495825
000210 43 15 a2 3d 3c 99 98 bd c0 2c ff bc ec d9 c9 bc
       0.079142116 -0.07451102 -0.031149268 -0.024640046
000220 9c 0a 1f 3d 05 c8 22 3d 14 27 bb bd ad 16 e1 3c
       0.038828477 0.039741535 -0.09138313 0.027476633
000230 d2 32 f4 3b 65 ae cf 3c 4a ec ef 3d ac b5 12 bd
       0.0074523473 0.025351712 0.117149904 -0.035817787
000240 38 3b 77 3d 44 31 b8 bc 96 e0 dc bc a3 3d 96 3c
       0.06035921 -0.02248443 -0.02696256 0.018339938
000250 c8 de 77 bd 71 80 6f 3d 8e 4c d1 bd e9 67 b6 3d
       -0.060515195 0.0584721 -0.1021968 0.08906538
000260 44 9b e3 3b 03 90 b3 3c c2 81 69 bd 4a 25 9e bd
       0.0069459993 0.021919256 -0.057008512 -0.07721956
000270 4b cd fe 3d 32 79 74 3d 5f be 10 bc 61 63 0d be
       0.124415 0.059685893 -0.0088344505 -0.13807441
000280 81 04 2e bd f2 07 f7 3d 44 bc b8 3d fd 85 b5 bc
       -0.042484764 0.12062062 0.09020284 -0.022158617
000290 de ce 0d 3e 22 e9 8a bd 19 05 ca bd e5 28 08 3e
       0.13848445 -0.06782748 -0.098642536 0.1329685
0002a0 f2 9e fd bd 8d ec 9b bd 71 f7 79 3c eb ff b1 3d
       -0.12383832 -0.07613478 0.015256749 0.086913906
0002b0 77 2c 69 bc 24 19 fe bc d5 76 dd 3a 0c 30 8e bd
       -0.014231793 -0.031017847 0.0016896377 -0.06942758
0002c0 fe 0d 05 be 32 81 80 bd 5e 1d b7 3d 66 44 ba bd
       -0.12993619 -0.06274642 0.08941148 -0.09095077
0002d0 cc a9 05 3e ce ca b2 3d b7 04 a6 3d 13 f3 dc 3d
       0.13053054 0.08730088 0.08106368 0.1078855
0002e0 4d 2e 92 bd c8 ee ad bd 3b 98 3b bd e4 d6 d3 3d
       -0.071377374 -0.084928095 -0.045799475 0.103437215
0002f0 f5 c2 c5 bd c6 dc 59 bd 86 ab bb bd bc 2e 5d 3d
       -0.09656326 -0.05318906 -0.09163575 0.053999647
000300 03 ed b9 bd 4f be 16 3d 2d fd b1 bc ac 89 09 be
       -0.090784095 0.036802586 -0.021727169 -0.13431424
000310 bf 87 8e 3d 09 ba 69 bd 85 ea 05 3e 67 1a 07 be
       0.06959485 -0.057062183 0.13077743 -0.13193665
000320 1c 8b 81 bd 37 6e 88 3c ed 71 88 bd fe fb 83 bd
       -0.06325361 0.016654117 -0.066623546 -0.06444548
000330 44 ea 71 bc 7a 4c 50 3d d9 9b 9c 3c fa 0a 73 bc
       -0.014765326 0.050854184 0.019117283 -0.01483416
000340 3f 28 6b 3d 45 b4 d3 3d 78 5c 56 3b c8 b2 60 3d
       0.05741143 0.10337118 0.0032708924 0.054858
000350 b3 04 b2 3d 56 48 20 bc 92 db aa bb 7c 23 b0 3d
       0.086923026 -0.009782871 -0.005214163 0.08600518
000360 0f 0d 70 3b 07 4f 9a 3d e3 bb 57 bd 04 1d ad bd
       0.0036628877 0.075346045 -0.052669417 -0.084528
000370 1f 22 f8 3d 02 7f f3 bd 76 79 9f bd 18 bf a5 3d
       0.12115883 -0.11889459 -0.07786839 0.08093089
000380 3d 28 cf bc be ba a6 3d 34 d5 33 bd 4c e6 8c 3d
       -0.025287742 0.08141087 -0.0439045 0.06879863
000390 d7 23 0f 3d 68 9a 00 3e 60 76 a7 bd d5 05 44 3d
       0.03494629 0.12558901 -0.08176875 0.047857124
0003a0 f4 17 1e bd 2c 8e 11 3d c3 7d 81 bd fc 15 9b 3c
       -0.038597062 0.035535976 -0.06322815 0.018931381
0003b0 13 0a 5f bd 51 2f 01 3e 86 30 5b bd e4 be 71 3d
       -0.054452967 0.12615706 -0.053513072 0.059019938
0003c0 71 5e 1a bd ef 36 0b be 27 b3 bc bd bf 1e 7d bc
       -0.037687723 -0.13595174 -0.09213858 -0.015449225
0003d0 c2 bb e6 3d 7d 79 bc bd 82 e7 84 bd 16 b7 89 bd
       0.11266281 -0.092028596 -0.06489469 -0.06724374
0003e0 c1 b3 6f 3d 5e fb 94 bd aa ff 10 bb d6 b8 45 bd
       0.058521036 -0.07274507 -0.0022125044 -0.048271976
0003f0 4e e0 8b 3d bb 0c 0d 3e fd f0 8e bd bf 8f 2b bd
       0.06829892 0.13774388 -0.069795586 -0.041885134

encoder.1.weight f4 [256]
000000 82 f4 7b 3f 03 b2 86 3f ac f5 82 3f ea 28 6a 3f
       0.98419964 1.0523075 1.0231223 0.9146868
000010 99 97 7d 3f f1 dc 69 3f ab 91 78 3f bb 17 7d 3f
       0.99059445 0.91352755 0.9709727 0.98864335
000020 16 76 86 3f 22 e2 67 3f 5f 91 82 3f c3 a6 75 3f
       1.0504787 0.90579426 1.0200614 0.95957583
000030 fa 77 82 3f 19 6c 7f 3f 79 55 83 3f 9f 4a 7d 3f
       1.0192864 0.9977432 1.0260459 0.9894199
000040 e6 36 84 3f 77 93 6a 3f 37 e5 83 3f 34 93 6a 3f
       1.0329254 0.91631263 1.0304326 0.91630864
000050 ae 2d 7d 3f f9 61 78 3f 02 35 88 3f 99 d5 86 3f
       0.98897827 0.97024494 1.0641177 1.0533935
000060 b9 35 83 3f 42 70 8e 3f b3 aa 81 3f 8b 62 67 3f
       1.025077 1.1128008 1.0130218 0.9038474
000070 51 71 79 3f 42 f4 71 3f 28 24 77 3f eb f8 7a 3f
       0.9743853 0.9451333 0.96539545 0.9803607
000080 81 e1 82 3f 3a dd 76 3f e5 b9 80 3f 89 92 86 3f
       1.0225068 0.96431315 1.005673 1.0513469
000090 58 58 7e 3f 56 01 87 3f 26 fa 88 3f 82 2b 83 3f
       0.9935355 1.0547283 1.0701339 1.0247653
0000a0 72 91 76 3f 8b 05 8c 3f 1a 79 81 3f 5c 07 72 3f
       0.9631568 1.0939192 1.0115082 0.9454248
0000b0 76 a4 75 3f c8 fb 7a 3f 4d ef 66 3f ff 2d 85 3f
       0.9595407 0.9804044 0.90208894 1.0404662
0000c0 6a 90 71 3f 0c 4f 89 3f 2c 37 84 3f 86 9e 74 3f
       0.94360983 1.0727248 1.0329337 0.9555439
0000d0 a3 9d 7a 3f f6 9c 75 3f 49 fe 9c 3f 40 97 6f 3f
       0.97896785 0.9594263 1.2265102 0.93590164
0000e0 bf bb 6f 3f d3 5c 81 3f 5a 12 8a 3f e3 8b 7f 3f
       0.9364585 1.0106453 1.078685 0.99822825
0000f0 f9 c1 72 3f 2e 43 66 3f d1 48 8a 3f ee 9e 82 3f
       0.9482723 0.8994626 1.0803472 1.0204751
000100 eb 35 74 3f c7 c6 94 3f 8b 84 80 3f b3 80 6c 3f
       0.9539477 1.1623162 1.0040449 0.9238388
000110 ad 60 81 3f fc 68 85 3f 82 d3 85 3f 33 d2 8a 3f
       1.0107628 1.0422664 1.0455172 1.0845398
000120 3b ca 80 3f 63 8d 81 3f a3 eb 6f 3f b7 36 82 3f
       1.0061716 1.0121273 0.9371893 1.0172948
000130 cf 2b 81 3f b4 be 76 3f e1 f7 6b 3f 7b 71 78 3f
       1.0091494 0.9638474 0.9217511 0.9704816
000140 a0 8a 84 3f 9d 0d 6a 3f 75 ac 72 3f af 57 6d 3f
       1.0354805 0.9142702 0.947944 0.9271192
000150 72 7b 7e 3f 7e e8 82 3f aa a7 79 3f 96 59 76 3f
       0.9940711 1.0227201 0.9752146 0.9623045
000160 8a 44 81 3f 4d 64 81 3f 94 4a 79 3f 40 8b 79 3f
       1.0099041 1.0108734 0.9737942 0.97478104
000170 ab b4 80 3f 20 69 7e 3f ef 49 74 3f 0d 5c 6b 3f
       1.0055135 0.9937916 0.95425314 0.91937333
000180 99 6c 77 3f 35 e8 76 3f 01 c2 79 3f 58 36 84 3f
       0.9665008 0.9644807 0.9756165 1.0329084
000190 a8 70 80 3f bb 35 7d 3f 6d 69 80 3f 2c c5 7f 3f
       1.003438 0.9891011 1.0032173 0.99910235
0001a0 2c 33 65 3f 2f a3 77 3f a0 26 71 3f b8 b5 69 3f
       0.8953121 0.96733373 0.9419956 0.91292906
0001b0 d3 66 7f 3f 62 5b 71 3f 15 c9 7c 3f e4 fb 69 3f
       0.9976627 0.94280064 0.98744327 0.9139998
0001c0 87 a8 75 3f 0f aa 80 3f 45 d9 83 3f 11 65 83 3f
       0.9596028 1.0051898 1.030068 1.0265218
0001d0 10 87 81 3f 6d da 80 3f 88 2f 6d 3f 0b 65 84 3f
       1.0119343 1.0066658 0.9265065 1.0343336
0001e0 9e d0 85 3f 1e 58 77 3f 2e 5f 7e 3f 0f 65 7f 3f
       1.045429 0.9661883 0.9936398 0.9976358
0001f0 14 53 84 3f 15 d5 61 3f b0 84 7a 3f 0a f3 74 3f
       1.0337853 0.8821576 0.97858715 0.9568335
000200 ae df 79 3f d5 93 82 3f 9c fa 80 3f 27 26 83 3f
       0.97606933 1.0201365 1.007648 1.0246018
000210 e6 14 89 3f f7 47 82 3f c2 76 86 3f cb 37 7d 3f
       1.0709503 1.0178212 1.0504992 0.9891326
000220 cb d2 7d 3f f7 01 7d 3f 5c 3a 78 3f f9 11 81 3f
       0.9914977 0.98831123 0.9696405 1.008361
000230 80 d1 86 3f c4 22 7f 3f f3 7d 75 3f 66 fe 8c 3f
       1.0532684 0.99662423 0.9589531 1.1015136
000240 06 e6 88 3f 04 0f 77 3f e2 3d 76 3f 28 a5 7b 3f
       1.0695198 0.9650729 0.96188176 0.98298883
000250 8b 07 85 3f 1a 73 6a 3f dd 62 6e 3f 00 22 74 3f
       1.0392927 0.9158188 0.93119603 0.9536438
000260 70 1a 78 3f 6d 60 85 3f 1c 0b 86 3f c1 d8 71 3f
       0.9691534 1.0420052 1.047214 0.94471365
000270 ce 93 8d 3f 4f f1 87 3f 8d 16 7d 3f 8b f8 78 3f
       1.1060731 1.0620517 0.98862535 0.97254246
000280 6c a4 79 3f 69 a0 8a 3f 7a f7 83 3f 1a 01 7a 3f
       0.9751651 1.0830203 1.0309899 0.9765793
000290 4d 19 70 3f 2f 61 8c 3f 20 d7 92 3f dd d3 71 3f
       0.93788606 1.0967158 1.1471901 0.944639
0002a0 b2 1f 8d 3f 4d a3 87 3f 6e 27 77 3f 49 d0 8b 3f
       1.1025298 1.059671 0.9654454 1.0922939
0002b0 0a 8c 73 3f 27 fa 74 3f 11 75 7f 3f c3 fb 81 3f
       0.9513556 0.956942 0.99788004 1.0154957
0002c0 11 b2 85 3f 82 20 6c 3f 40 c3 79 3f f2 a4 82 3f
       1.0444967 0.92237103 0.9756355 1.0206587
0002d0 df 56 87 3f 14 21 74 3f df f2 83 3f a7 0e 82 3f
       1.0573386 0.95362973 1.0308493 1.0160722
0002e0 9a d8 78 3f d0 2d 81 3f 8c c0 7a 3f aa a2 8f 3f
       0.9720551 1.0092106 0.97950053 1.1221516
0002f0 2c da 73 3f 18 4d 8c 3f 60 5f 87 3f 2b b3 6b 3f
       0.9525478 1.0961027 1.0575981 0.92070264
000300 e4 3f 75 3f ba 72 7e 3f b1 26 6c 3f 93 3c 76 3f
       0.95800614 0.9939381 0.9224654 0.9618618
000310 19 01 81 3f cc ae 79 3f af 67 81 3f ef dd 8b 3f
       1.007846 0.97532344 1.0109767 1.0927104
000320 ac d9 7f 3f 07 23 80 3f b6 23 6e 3f 8d 04 85 3f
       0.99941516 1.001069 0.9302324 1.0392014
000330 c4 50 7d 3f 16 7c 81 3f 83 77 7a 3f 79 51 89 3f
       0.98951364 1.0115993 0.9783861 1.0727988
000340 a8 17 6e 3f 5f 73 85 3f 5d 55 80 3f d3 af 7c 3f
       0.93004847 1.0425833 1.0026051 0.98705786
000350 eb 6e 80 3f 2a 35 95 3f 9d 59 7e 3f 14 4b 74 3f
       1.003385 1.1656849 0.9935549 0.9542706
000360 45 6f 86 3f 5c e0 7c 3f fc f3 81 3f 21 2c 7d 3f
       1.0502707 0.98779845 1.0152583 0.9889546
000370 6d ec 73 3f 4a 60 6c 3f fa df 76 3f cc c3 84 3f
       0.9528263 0.92334425 0.9643551 1.0372252
000380 e9 5e 85 3f e4 9d 83 3f e6 2b 87 3f 03 10 87 3f
       1.0419589 1.0282559 1.0560272 1.0551761
000390 23 2b 70 3f 4b 16 80 3f 19 40 84 3f 36 1d 81 3f
       0.9381582 1.0006803 1.0332061 1.008704
0003a0 82 ba 7d 3f 1a 42 79 3f 77 d2 82 3f 22 b3 74 3f
       0.99112713 0.9736649 1.0220479 0.95585835
0003b0 cb ec 7d 3f 3e b2 78 3f 6a b7 84 3f f6 65 83 3f
       0.9918944 0.97146976 1.0368474 1.0265491
0003c0 06 65 77 3f 8d d9 7c 3f 39 84 86 3f 48 6c 71 3f
       0.96638525 0.98769456 1.0509101 0.9430585
0003d0 59 19 8a 3f 05 98 7f 3f f3 97 72 3f 0d 1e 74 3f
       1.0788985 0.9984134 0.94763106 0.95358354
0003e0 35 6c 80 3f 81 e2 83 3f d7 13 77 3f 9d f4 82 3f
       1.0033022 1.0303499 0.9651465 1.02309
0003f0 eb 59 77 3f fd 31 63 3f 73 1b 7f 3f 88 67 7f 3f
       0.9662158 0.8874815 0.9965126 0.9976735

encoder.1.bias f4 [256]
000000 8b b1 10 bd 28 2e 1c be f7 01 19 bd ba 45 8b bd
       -0.03532557 -0.15251982 -0.03735539 -0.06800409
000010 e2 95 4d bd 87 7f 6b 3e 0d 96 57 bd cd ca 65 bd
       -0.050191768 0.22997867 -0.052633334 -0.05610161
000020 f6 3b 7e be 7f 52 20 3c 26 dc 82 bd 9c 6c e5 bd
       -0.24827561 0.009785294 -0.06389646 -0.11202356
000030 26 8c 58 bc 91 d5 f3 bc cb 4d ce bd ac 01 ca bb
       -0.013217008 -0.029764922 -0.100734316 -0.00616475
000040 8e 2f 54 3c 20 cd 9f 3d 7f 8a a6 bd ce de 00 3d
       0.012950791 0.07802796 -0.08131885 0.031462483
000050 ac 21 10 3d 8e ed fa bd 92 36 9a 3c 40 09 dc 38
       0.035188362 -0.12252341 0.01882485 0.000104921404
000060 68 3d 1d bc c6 c9 06 3c 82 b4 00 3e bc 02 f9 3c
       -0.00959716 0.0082268175 0.12568858 0.030396812
000070 46 ef 8f bc 59 1c b6 bc e9 1c fc 3d b3 d1 9f bd
       -0.01757015 -0.022230314 0.12310202 -0.07803669
000080 4b 3c ab 3c d1 e0 ab bc b3 d8 8d 3d 2d fe 21 be
       0.020902773 -0.020981224 0.06926098 -0.15819617
000090 75 b2 6a bd 33 46 07 bd 27 e8 26 bd 9a c9 df bc
       -0.057299096 -0.03302593 -0.04074874 -0.02731781
0000a0 d1 6a af bd f8 6f 06 3e 71 1d d1 bd 2f 86 ab 3d
       -0.085652955 0.1312865 -0.10210694 0.08375203
0000b0 0f 80 bf 3c 08 cf 8f 3d 29 84 95 b9 bb 14 9e 3c
       0.023376493 0.0702191 -0.00028517962 0.019296994
0000c0 ff fe 2c be 6d 9e 0f 3d 48 77 f1 3c f8 f1 4f bc
       -0.16894148 0.035063196 0.029475823 -0.012691967
0000d0 82 3d 80 bd d7 a2 af bc df 98 12 be cf 19 43 be
       -0.06261732 -0.021439953 -0.14316128 -0.19052814
0000e0 44 64 d4 bc 3a 21 f2 bd 1c e0 17 bd 15 77 f6 bd
       -0.025926717 -0.11822744 -0.03707896 -0.12034432
0000f0 8f 7b 8b 3d 00 00 8a bd 14 8e bb 3c 64 ef 0d bd
       0.06810676 -0.06738281 0.022894897 -0.03465213
000100 f8 54 c6 bd c8 83 40 be cf 12 66 bd e4 df d7 3d
       -0.09684175 -0.1880027 -0.05617028 0.105407506
000110 9d ea e5 bd 48 18 d4 3a 66 14 e4 3d 02 3d 51 bd
       -0.112263896 0.0016181553 0.11136703 -0.051083572
000120 67 ef 23 bd 6c 37 28 bd 99 76 0d bd d6 49 0d 3e
       -0.040023234 -0.04106848 -0.03453693 0.13797697
000130 33 51 a9 3d 3a 0d 97 ba 5c c8 db 3c 30 bd 13 bd
       0.08267441 -0.0011524328 0.026828937 -0.036069095
000140 e7 0f 5b be 1e 57 e9 bd 7c 14 6c bd 4b dc 51 bd
       -0.21392785 -0.113935694 -0.057636723 -0.05123548
000150 0d a1 90 bd e8 d2 1b bd 36 33 ba bb 5f 28 38 bd
       -0.07061968 -0.038042933 -0.0056823744 -0.044960376
000160 87 b6 53 be 83 5b b6 bd c8 23 e0 bd 05 10 90 3c
       -0.20675097 -0.08904173 -0.10944325 0.017585764
000170 dc 66 57 be ca ea ff bc 5e 13 c1 3d d3 ac 32 be
       -0.21035331 -0.031239886 0.09427522 -0.1744874
000180 1c ec 95 3d 22 ac 7c be 54 f8 d8 bd b4 1d a9 bd
       0.07320425 -0.24675038 -0.1059424 -0.082576185
000190 84 c4 0d 3d a6 e1 eb bd 39 e4 25 bc 1f 6d f2 3b
       0.03461124 -0.115176484 -0.010125213 0.007398262
0001a0 39 c7 c3 bd da c1 b7 bd f4 8a 4a bd 54 9d f5 3c
       -0.09559483 -0.08972521 -0.049448922 0.029982246
0001b0 6c 27 91 3c ed 92 86 be 17 de 9f 3c 40 11 8b 3c
       0.017718993 -0.2628397 0.01951508 0.016975999
0001c0 fe 1b 3a bd 01 e0 55 bd 2b 3b 8a bd c7 54 8c bd
       -0.04543685 -0.05221558 -0.06749567 -0.068521075
0001d0 3c 06 0a be d7 1b 9f 3d 98 d5 37 be db 03 36 bd
       -0.1347894 0.07768982 -0.17952573 -0.04443727
0001e0 b6 04 ab 3d c9 ce 17 bd 7a 4a b5 3c 00 93 c7 bd
       0.08350508 -0.03706244 0.02213024 -0.09744835
0001f0 5b 64 5d 3d b1 39 91 3d 6a ef b1 3c e7 a0 33 be
       0.054050785 0.07091082 0.021720607 -0.17541848
000200 d2 e7 01 3c fe d6 ad 3c 7c 3d d7 3b ec 03 92 3d
       0.007928805 0.02122068 0.006568609 0.07129654
000210 2a e8 ea bb 8a da a8 bb 6a e8 0b bd 93 1d 1a 3d
       -0.0071687894 -0.005153005 -0.034157194 0.03762586
000220 56 2d 7c bc 73 e0 28 be 2d 22 e5 3c ab 8c 70 3d
       -0.015391668 -0.1649187 0.027970398 0.0587279
000230 10 a9 03 be b9 d5 c9 3d 60 fa 0a be 0c e8 07 b9
       -0.12857461 0.098552175 -0.13572073 -0.00012961047
000240 dd 79 a8 bd 12 49 13 be 5d bf 97 3d b5 bf 85 3d
       -0.082263686 -0.14383343 0.074095465 0.06530706
000250 3a 9d 24 be 1e d1 12 3d 7d 0f b3 bd a7 a5 f0 3d
       -0.16075602 0.03584396 -0.087431885 0.11750346
000260 f2 7b 64 be 90 37 84 bd 3b 55 cc 3d 62 65 f6 bd
       -0.22312906 -0.0645591 0.09977194 -0.12031056
000270 e7 fa 30 bd 66 74 8a bd a3 1a 9a bd a1 23 70 bd
       -0.04320803 -0.067604825 -0.07524612 -0.05862773
000280 51 a5 c7 bd c2 b3 db 3d 81 e3 01 be 40 60 df bd
       -0.097483285 0.107276455 -0.12684442 -0.1090703
000290 13 d5 90 3c fa c2 5e 3b a1 57 55 be 8d 7e b1 bd
       0.017679727 0.0033990727 -0.20834209 -0.08666716
0002a0 e8 d8 1f 3e 9a 40 22 be d5 42 a1 bd d7 0b 40 3c
       0.15610087 -0.15844956 -0.07874075 0.011721573
0002b0 71 7f 60 bc 63 a0 67 be 16 15 2d be 61 27 70 bd
       -0.013702259 -0.22619776 -0.16902575 -0.058631305
0002c0 fb 54 cf bd 9b 78 11 be bb 2a ad 3b 20 f5 2b 3d
       -0.101236306 -0.14206164 0.005284635 0.041981816
0002d0 01 3b 0b be f3 f0 f0 bd e3 09 23 be e2 54 4c bd
       -0.13596727 -0.117647074 -0.1592174 -0.049885638
0002e0 64 02 09 3d f6 45 6e 39 e8 23 24 3d d5 44 39 bd
       0.033449546 0.00022723511 0.040073305 -0.04523166
0002f0 a2 fd 74 bc a1 3e b8 bc 0f 5d 44 be fe a1 ba 3c
       -0.014953049 -0.022490801 -0.19176124 0.022782322
000300 7e ff e5 bd 1e f0 10 bd 3c cb b5 bc 17 e9 57 3d
       -0.11230372 -0.035385244 -0.022191636 0.052712526
000310 80 6a 30 3d 09 de 56 3d d2 af a9 bd d4 03 9b bd
       0.043070316 0.052457843 -0.08285488 -0.075690895
000320 a2 18 2c be 78 e2 ec bb 72 61 48 be b5 b8 33 bd
       -0.16806272 -0.0072291456 -0.19568422 -0.043877322
000330 82 35 f3 3d bf 21 4b 3d 68 c6 24 be e8 3f 12 be
       0.1187544 0.04959273 -0.16091311 -0.14282191
000340 f2 b8 c7 3c a2 1d 60 3b dc a1 a3 3d c2 b9 80 3d
       0.024380181 0.003419735 0.079898566 0.062854305
000350 d8 41 87 bd 98 0a ca 3c 5f 51 e7 bc fb 33 fe 3a
       -0.066043556 0.024663255 -0.028237043 0.0019394153
000360 1f 1d ab bd 52 d3 e9 bb 0f 43 2d 3e 90 27 09 be
       -0.08355164 -0.007135787 0.16920112 -0.13393998
000370 c9 9b bb 3d 1e c3 82 3d 43 79 09 3c 90 0b 4a 3c
       0.09160573 0.06384872 0.008390727 0.012331858
000380 70 12 84 be ec 36 54 3d ba 81 4d be c4 34 58 3c
       -0.25795317 0.05181019 -0.20069018 0.013196174
000390 c2 29 d5 bd a7 42 3e 3b be a8 9a bd 68 cf db bd
       -0.10408355 0.0029031427 -0.07551716 -0.10732919
0003a0 cf 54 9d bd ad 2c 94 3d 9a 7a 67 bb e0 85 78 bd
       -0.076821916 0.07235084 -0.003532088 -0.06067455
0003b0 f4 96 de bc d6 d6 0e be d8 28 90 bd bb a5 b0 bd
       -0.02717159 -0.13949141 -0.0703904 -0.086253606
0003c0 94 83 0f 3d ee 12 e2 bd 31 3b 23 bc 64 26 f8 bd
       0.035037592 -0.11038767 -0.009962843 -0.121166974
0003d0 ed 49 2d bc 7b be 89 3b eb 8f cf 3b 18 e5 1d 3d
       -0.010576707 0.0042036152 0.006334295 0.03854856
0003e0 97 39 9f bd ba eb 16 be cf 93 8b bd e9 05 ac 3d
       -0.07774656 -0.1473836 -0.068153016 0.08399565
0003f0 d2 c0 14 3d e7 91 d6 bb 1e 50 ec 3a 79 77 a3 bc
       0.0363167 -0.0065481546 0.0018029248 -0.01995443

encoder.1.running_mean f4 [256]
000000 cf 08 03 3f 8a b5 77 3e d3 79 14 bd a8 e5 b3 3e
       0.51185316 0.24190345 -0.036248993 0.3513615
000010 18 b1 83 be 41 c5 ee bc 8e 11 95 be 47 c3 5c 3f
       -0.2572105 -0.029146792 -0.29114956 0.8623547
000020 4f 6e a1 3d 36 e1 16 be d8 2c 1e be 05 de a1 3d
       0.07882368 -0.14734349 -0.15446794 0.07903675
000030 91 0f 99 3e 90 86 19 be d6 c9 da bd 41 de d0 bd
       0.2989469 -0.14992738 -0.106830284 -0.101986416
000040 38 06 5d 3e c4 7c e3 be 51 d7 89 be 0e 9f 1f bf
       0.21584404 -0.44431126 -0.26922086 -0.62352073
000050 4a e2 28 3f d3 f9 3e be ac 65 1f bf 4e 65 be 3e
       0.6597029 -0.18649988 -0.62264514 0.37186664
000060 86 58 e4 be ec f5 89 bd 12 08 58 be 1d c5 68 be
       -0.44598788 -0.06736359 -0.21096829 -0.22731443
000070 e6 ef a3 3b c0 6f 0b 3e 32 fc d5 3d 6b 3d 79 3e
       0.0050029634 0.13616848 0.10448493 0.24339835
000080 42 b1 2f 3f 4f 9e 0f 3e 31 db ac 3e c0 64 a3 3d
       0.6862985 0.14025234 0.3376098 0.07978201
000090 81 74 fc 3e 4c 53 b8 3e 90 53 48 3e ed d5 be 3d
       0.49307635 0.3600105 0.19563127 0.09318147
0000a0 c9 41 32 bf 72 f6 61 3e 24 00 15 3d 88 a3 84 3c
       -0.6963163 0.22066668 0.036377087 0.016191259
0000b0 b6 78 29 3e 04 dd 05 bf c3 33 70 3e 95 11 0e bf
       0.16549954 -0.5229037 0.23457246 -0.5549558
0000c0 30 70 da 3e 7f 3d f8 bd a2 69 29 bf af 96 80 3c
       0.42663717 -0.121211044 -0.6617681 0.015696852
0000d0 3b 9a 52 3f 23 d8 75 be 54 0a c6 3d 40 66 44 3e
       0.82266587 -0.24008231 0.09669939 0.1917963
0000e0 b5 97 a1 bd 92 8f af be 5f 9a 88 3d c3 b5 87 3c
       -0.07890264 -0.34289223 0.06670069 0.016566163
0000f0 7e 19 b8 be af b5 0c be 4b 70 01 3e 2f f6 ad 3e
       -0.3595695 -0.13741182 0.12640493 0.33976886
000100 4c 70 6d be d6 a1 56 3d 28 c8 8e 3e df 3a 65 bf
       -0.23187369 0.052400433 0.27887082 -0.89542955
000110 3c 41 c4 3e df 1e 51 3e d9 9e b2 be 3d 4d 22 3f
       0.3833102 0.20421933 -0.34886816 0.63399106
000120 d3 87 d4 bd 51 fc e4 3e 01 d8 09 3e 17 dc eb be
       -0.10377469 0.44723752 0.13461305 -0.46066353
000130 b1 dd dd 3d 1d 84 75 3e 16 93 ae bd 56 76 25 3e
       0.108333 0.23976178 -0.08524148 0.16158423
000140 10 2a b9 be 0d 94 6a 3e 22 21 4f 3e b8 a5 5e bb
       -0.36164904 0.2290804 0.20227483 -0.0033973288
000150 1f 5c 36 be 57 71 1d bf c8 24 89 be 8d 03 9f be
       -0.17808579 -0.6150107 -0.26785874 -0.31057397
000160 0f 3c 59 3d e9 c4 46 3c 9b 27 fc bd e1 37 80 3e
       0.053035792 0.012131908 -0.12312242 0.25042632
000170 70 9a a2 3e 65 e2 ca 3d 95 e1 23 be bd bc 8d be
       0.3175845 0.099064626 -0.16004021 -0.27683058
000180 f2 6e d5 3d fa 2d cc be f1 05 8b bc 60 f3 54 3d
       0.10421552 -0.39878827 -0.016970607 0.051989913
000190 5d 77 fc bd 6d e3 f9 3d 56 50 ba bd 5f 76 e9 3c
       -0.12327454 0.12201581 -0.09097354 0.028498827
0001a0 86 13 10 bf 34 b1 dc 3e e9 d1 a6 bc 14 32 5b 3e
       -0.5627979 0.43103945 -0.020363765 0.21405822
0001b0 1b 64 1c bd 29 07 74 be 28 6f 52 3f 67 de f8 3c
       -0.038181406 -0.23830856 0.8220086 0.030379487
0001c0 2f 28 f0 3e 0c 8e db bd c9 7d 5b be e8 29 d0 be
       0.46905658 -0.10720453 -0.21434702 -0.40656972
0001d0 47 35 7e be dd 8f 7f be ff 50 ae 3e a3 56 ae 3e
       -0.24825011 -0.24957223 0.3404617 0.34050474
0001e0 88 78 70 be 47 11 ac be 01 0f 9a be 79 55 9c 3e
       -0.23483479 -0.33606932 -0.30089572 0.3053396
0001f0 9d 63 98 be ce 99 fc 3b f8 79 ce 3d 14 00 f9 3e
       -0.297635 0.0077087646 0.100818574 0.48632872
000200 40 f8 e8 3c dd fe b3 be 48 90 cc 3e 07 52 e6 bd
       0.028438687 -0.35155383 0.39953828 -0.11246114
000210 90 b0 18 3e ba 26 26 3e e8 f3 3f bd 37 ba 0c bf
       0.14911103 0.1622571 -0.046863467 -0.5497164
000220 78 2b f4 3e 26 a7 ae 3e e1 fb a7 3e 17 c0 5c 3e
       0.47689414 0.341119 0.32809356 0.21557651
000230 6e 33 c1 3e 5d 9a 89 3e 9f f4 d8 3d 9e c1 8e be
       0.3773455 0.26875582 0.10593533 -0.27882093
000240 bf 89 95 3e 3e eb a5 3e aa ab a2 3d c7 29 de 3e
       0.29206654 0.32406038 0.079428986 0.4339125
000250 14 22 9b 3d f9 f7 21 bd 4c 23 1f be 75 38 4e 3e
       0.07574859 -0.039543126 -0.15540808 0.20138724
000260 08 8b 52 bf 0e 22 45 bc ed a1 01 3e dc 02 0e 3e
       -0.82243395 -0.012032045 0.12659426 0.13868278
000270 87 1e 21 3e 79 d2 83 3e e2 3d a0 be 4a f3 b0 bd
       0.15734302 0.25746515 -0.31297213 -0.08640154
000280 d7 18 a7 3d a2 61 e2 3e 7e 7f 12 3f fb 75 ad bc
       0.08159035 0.44215113 0.5722579 -0.021174422
000290 f9 d2 8c be 16 ce 21 3e 53 d8 66 bd 6a 6c bf 3e
       -0.2750471 0.15801272 -0.056358647 0.373874
0002a0 98 8f 7b be 6c 2f 37 3e e4 3a b1 3b 8f 42 2d 3f
       -0.24566495 0.17889184 0.0054086316 0.67679685
0002b0 9b 51 99 be 1e 08 ca 3d bb 2d 3a 3e 74 66 5d be
       -0.29945073 0.098648295 0.18181507 -0.21621114
0002c0 55 65 fc 3e 6f 39 e1 3e 90 58 51 bd a7 cf 13 bf
       0.4929606 0.4398913 -0.05110985 -0.5773873
0002d0 61 a2 dc 3e 75 70 63 3f be be 4f 3e 90 08 66 be
       0.43092635 0.8884347 0.20287606 -0.22464204
0002e0 c3 a6 db be 62 c3 59 be 8a cd ef 3e 8d 25 c9 3e
       -0.42900667 -0.21265939 0.468365 0.3928646
0002f0 a0 aa 80 3e 49 11 e8 3e 62 bf 26 3e 3d d6 11 bf
       0.25130177 0.45325688 0.16283944 -0.56967527
000300 6b 80 4a be 6b 47 7a 3e 7d 32 5c 3d b1 88 80 3b
       -0.1977555 0.24441306 0.053759087 0.003922545
000310 14 26 c6 bd 05 87 34 bf 86 f9 e6 be fc 52 c5 3e
       -0.096752316 -0.70518523 -0.45112246 0.38539875
000320 d2 d6 92 3e 06 97 17 3e a2 b1 c8 3d d3 bf 9c 3d
       0.2867952 0.14803705 0.09799506 0.07653775
000330 24 b1 fb be 41 ee 3e 3f d5 1a 0c 3f 2b af 22 be
       -0.49158585 0.74582297 0.5472844 -0.15887134
000340 26 12 03 bf ef ef 88 3e 32 63 5f be 0c 2b 3c be
       -0.5119957 0.26745555 -0.21815184 -0.18375796
000350 4c 7a 23 3f 4a 1b 83 3e ee aa be 3d 41 5c 25 bd
       0.63858485 0.25606757 0.09309946 -0.040371183
000360 e0 e8 23 3f 8a b5 e0 bd da fe f8 3d fe a2 d4 3e
       0.64027214 -0.10972126 0.12157984 0.41530603
000370 c4 ff 1e bd 02 80 67 be 01 f2 84 be 04 ec 8a 3d
       -0.038818136 -0.22607425 -0.25965884 0.06783298
000380 c6 dc 38 3e 14 d3 08 bf e3 4f 9d bd 1e a5 fe 3e
       0.18052968 -0.5344708 -0.07681253 0.4973535
000390 91 bd c8 3e 8a 78 99 3d d5 c0 9d bc 14 c5 95 3e
       0.39207128 0.07493694 -0.019256989 0.2925192
0003a0 0d c0 24 3e ce 25 9d bd 82 61 07 3e 3b e2 d3 be
       0.16088887 -0.07673226 0.1322079 -0.41383538
0003b0 c1 c4 8e 3d 4c b6 1e 3e 0a bd 3e be f1 dd 40 3f
       0.069711216 0.15499228 -0.186268 0.75338656
0003c0 5e f0 db 3e 54 3c 3d bf 99 21 c0 bd f4 6f cc 3e
       0.42956823 -0.7392018 -0.09381408 0.39929163
0003d0 73 d7 ec 3e 51 a7 1a 3e 05 1e 4e bd 44 00 1a be
       0.46258125 0.15102889 -0.050321598 -0.15039164
0003e0 53 f2 83 be 7b 9a 27 3c 33 4f b2 be 97 73 23 bf
       -0.25770816 0.010229702 -0.3482605 -0.6384825
0003f0 70 c7 7a be ea 4d 4c 3d a5 83 1e 3e fa 22 16 be
       -0.24490142 0.049878992 0.15479906 -0.1466178

encoder.1.running_var f4 [256]
000000 d9 6c 08 3e 5e 7d a4 3d 00 52 f2 3d 40 6f b5 3e
       0.13322772 0.080317244 0.118320465 0.3543644
000010 9e d4 d0 3d 5b b8 b5 3e 15 a3 16 3d 3d a7 c6 3c
       0.101968035 0.35492215 0.03677662 0.024249667
000020 bb 8f 11 3d f1 4e 17 3c 77 92 7d 3c b0 0e cb 3d
       0.035537463 0.00923513 0.0154768145 0.09914911
000030 0b 01 10 3e 1c c9 84 3c 01 91 d9 3b 87 ca a8 3c
       0.14062898 0.016209178 0.0066396003 0.020604385
000040 fe c9 85 3d cf 11 14 3d fe f6 8c 3e df 58 a2 3c
       0.065326676 0.036149796 0.2753219 0.019817768
000050 45 eb 78 3d b2 44 38 3c 72 f1 92 3c f5 97 64 3d
       0.060771246 0.011246847 0.017937396 0.05580898
000060 37 18 d7 3d 13 cb 21 3e cb e0 5e 3d 72 4d a2 3d
       0.105026655 0.15800123 0.054413598 0.07924928
000070 5a 0b d6 3d 8c fd 9e 3d 7a 5e 65 3d 29 7c 88 3d
       0.10451384 0.07763204 0.055998303 0.06664307
000080 86 ff 87 3d 7d 02 91 3d 99 36 d3 3c 6a 5a 0b 3d
       0.06640534 0.07080553 0.02578287 0.034021772
000090 a6 a7 e4 3c d1 0d cf 3d 6d 3e 96 3b 0c 20 77 3c
       0.027911972 0.10110057 0.0045850785 0.015083324
0000a0 0c 15 3c 3e 34 98 71 3e cc a2 29 3d 6c f2 89 3e
       0.18367404 0.23593217 0.04141502 0.26942766
0000b0 ba 37 0c 3e 4d 1e e1 3d f4 eb fc 3d e2 df 9c 3d
       0.13693133 0.109921075 0.12349692 0.0765989
0000c0 28 c4 07 3d 7b 1b 55 3c db c7 88 3d 1d e0 14 3f
       0.033146054 0.01300704 0.066787444 0.5815447
0000d0 4a 6d 82 3d 1d 03 26 3f 83 92 12 3d 10 c4 1a 3c
       0.063685015 0.648485 0.035784256 0.009446159
0000e0 5b 34 25 3f 8e 27 79 3d 39 ef 84 3d a5 09 b6 3d
       0.64533013 0.060828738 0.064909406 0.08888558
0000f0 d4 d3 11 3e 84 5a b9 3e d6 0a 9a 3d 32 6e 57 3d
       0.14240962 0.3620187 0.07521598 0.052595325
000100 2f 3f 67 3d cf 99 4a 3e f9 90 64 3d 0a fa b1 3b
       0.05645674 0.19785236 0.05580232 0.0054314183
000110 ab 73 c3 3c 85 68 be 3d a8 a0 c2 3c e8 b3 09 3c
       0.023858866 0.09297279 0.023758247 0.008404709
000120 3d 03 b5 3b 7e 06 bf 3c 33 fd 74 3e f3 fb 2c 3e
       0.0055240677 0.023318525 0.23924713 0.16892986
000130 55 76 a9 3d 3e b0 c0 3e 4c 5a 2c 3e 63 7f ae 3d
       0.08274523 0.37634462 0.1683132 0.08520391
000140 ac 66 d9 3c a2 00 92 3c c8 a7 05 3c e7 fc 69 3e
       0.026538216 0.017822567 0.008157678 0.22850381
000150 a5 4f cc 3b d9 6b e0 3d 04 8c 46 3f c4 27 56 3e
       0.0062350803 0.1095807 0.77557397 0.20913607
000160 c0 f0 2c 3d 78 de 7a 3c b6 e3 aa 3c f0 ad 56 3d
       0.042221785 0.01531183 0.020860534 0.052411973
000170 92 6b a7 3e f9 18 0a 3f 2a 7f f3 3b 02 08 02 3d
       0.32699257 0.53944355 0.0074309306 0.031745918
000180 18 92 85 3c ed ce f9 3b 6c bc 08 3d a7 98 1d 3f
       0.016305014 0.0076235444 0.033382818 0.61561054
000190 58 b2 13 3f f8 e9 7e 3c 1e 7a 92 3b 13 ef 77 3d
       0.57694006 0.015558712 0.004470124 0.060530733
0001a0 00 8f 4c 3e 89 f7 86 3d 20 1a 7a 3d b5 c5 a9 3e
       0.19976425 0.06590182 0.06106007 0.3315865
0001b0 f6 17 6e 3c 1d aa 08 3e 93 c9 40 3b a1 ed 08 3e
       0.01453208 0.13346143 0.0029417023 0.13371898
0001c0 a1 22 70 3e 9d d8 a9 3d e0 8e d6 3c 77 c1 11 3d
       0.2345071 0.08293269 0.026191175 0.035584893
0001d0 0c b7 57 3d 67 a1 87 3e 3c 15 42 3d ce d6 18 3b
       0.0526648 0.26490328 0.047383532 0.0023321393
0001e0 7b 7f 81 3e ea d8 af 3c 8e 87 8f 3d d2 1c 6c 3d
       0.25292572 0.021465737 0.07008277 0.057644673
0001f0 91 78 7a 3d 30 a5 29 3e 8a 4c 85 3c 51 47 9d 3c
       0.061150137 0.1656692 0.016271848 0.019199045
000200 d0 cd 35 3d e2 6d a1 3c 2a 04 c2 3b a6 7d 87 3e
       0.04438573 0.019705717 0.0059209066 0.2646305
000210 27 12 05 3b a2 f9 49 3e af 55 04 3d 61 12 54 3d
       0.002030501 0.19724134 0.032308277 0.05177534
000220 49 e4 25 3d 3a 74 56 3e 43 da 11 3e aa 1c 9a 3e
       0.040500913 0.20942774 0.14243416 0.30099994
000230 48 77 40 3c bc 9b 11 3e d1 f4 81 3c 24 08 fa 3c
       0.011747189 0.14219564 0.015863808 0.03052146
000240 0b 40 e8 3c 09 59 2c 3c f2 cf 27 3c b0 ab 3b 3d
       0.02835085 0.0105192745 0.010242449 0.04581803
000250 34 99 10 3d 43 0f 07 3e 4b f3 05 3e 7e 81 1c 3d
       0.035302356 0.13189416 0.1308109 0.03820943
000260 05 27 cb 3b 95 8c cc 3c 4e 88 19 3e 33 09 9f 3d
       0.00619972 0.024969378 0.14993402 0.077654265
000270 63 4e cd 3c 8c 33 11 3b 83 5e 9c 3e 58 cf 4a 3b
       0.025061792 0.0022155968 0.30540857 0.003094634
000280 61 4a 2a 3f f8 8d 19 3e 33 78 33 3c f0 22 5b 3d
       0.66519743 0.14995563 0.010953951 0.053500116
000290 f6 86 01 3f 47 1f da 3d 0a 38 d9 3d b6 27 ca 3b
       0.5059656 0.10650497 0.10606392 0.0061692847
0002a0 19 5b d2 3c a3 e4 24 3c 29 d2 90 3d bc 2a cf 3d
       0.025678204 0.010064277 0.07071335 0.10115573
0002b0 f3 d9 02 3f 74 eb 8f 3d 8a e8 f8 3d 6d 18 1f 3e
       0.51113814 0.07027331 0.12153728 0.15536661
0002c0 90 a2 b5 3b 79 97 6c 3d 62 45 2a 3e bf 29 13 3d
       0.0055430606 0.057761643 0.1662803 0.035928484
0002d0 50 93 64 3d 7d 89 76 3b 28 c8 10 3f 09 e2 88 3c
       0.05580455 0.003761857 0.56555414 0.016709344
0002e0 41 53 a9 3e 7e 97 4c 3d e2 3b f1 3d f0 ad e5 3c
       0.3307133 0.04994916 0.11779 0.028037041
0002f0 c3 fd b3 3d c6 5b 4c 3c f0 e7 88 3c e9 98 52 3e
       0.087886356 0.012473052 0.016712159 0.20566143
000300 33 c0 af 3c ca 20 b1 3b 74 50 68 3f c4 f1 60 3e
       0.021453952 0.00540552 0.9074776 0.21967226
000310 1c fe 66 3d a2 50 ba 3e 1f 68 d1 3d 86 5c 5b 3c
       0.05639468 0.36389643 0.10224938 0.0133887585
000320 7a af 61 3c 3f 66 1c 3f 96 33 3b 3c 97 23 6f 3f
       0.013774747 0.61093515 0.011425873 0.9341368
000330 8c e0 8d 3e 14 49 d5 3d 70 93 48 3c 72 e0 ee 3d
       0.27710378 0.10414329 0.012242183 0.11663903
000340 22 53 36 3d 72 e0 14 3c d0 94 86 3e 15 32 af 3b
       0.044512875 0.009086715 0.2628541 0.0053465464
000350 e4 0d 9e 3d de b6 0d 3c c2 2d 15 3d 4c e2 4a 3e
       0.07717493 0.008649556 0.03642059 0.19812888
000360 5d 60 55 3c eb ec 54 3e 8a 6e cf 3d 75 0b bb 3c
       0.013023463 0.20793502 0.101285055 0.022832612
000370 44 d9 3a 3d 4d f3 c9 3c 6f fa 88 3d a3 d5 a9 3e
       0.045617357 0.024652148 0.066883914 0.33170804
000380 6f 1f bf 3e 46 ee ef 3d 05 e1 90 3c f1 5f 7c 3d
       0.3732867 0.11715369 0.017685423 0.061614934
000390 25 05 1c 3e 67 68 a3 3e 5f c4 85 3d c3 6f 82 3d
       0.15236337 0.3191559 0.065315954 0.06368973
0003a0 8a 13 9e 3c 5f 9d fb 3e 07 90 a9 3d 33 cd b4 3d
       0.019296426 0.49143502 0.08279424 0.08828201
0003b0 77 b0 96 3d 78 71 be 3e 28 82 81 3d 8e 90 f2 3d
       0.07357877 0.37195945 0.063236535 0.11843978
0003c0 4c ec 77 3c dd d6 f0 3c 7b 01 b4 3b 10 f1 6b 3e
       0.015132021 0.02939933 0.0054933405 0.23041177
0003d0 f4 d7 6a 3b 69 41 ab 3d 02 32 a8 3d 5a 3d 05 3e
       0.0035834284 0.08362085 0.08212663 0.13011685
0003e0 43 db cd 3d fd 97 c5 3b 1b b4 66 3c a8 c8 29 3e
       0.100515865 0.0060300813 0.014081026 0.1658045
0003f0 48 e6 0f 3d 70 ec 84 3e cd ed 95 3d 88 b2 29 3e
       0.035131723 0.25961637 0.073207475 0.1657201

encoder.4.weight f4 [128, 256]
000000 77 fc 53 3d 70 e6 0f bd dd 1f 92 3d 8b d4 e7 bc
       0.05175444 -0.03513187 0.07134984 -0.02829959
000010 07 c5 9f 3c 52 b2 19 ba 4b 09 d0 bd b9 f0 34 bd
       0.01950313 -0.00058630586 -0.101580225 -0.044174884
000020 58 45 92 bd ac 41 9f 3d 5b 61 9b bd 2c c9 79 bc
       -0.071421325 0.07776198 -0.075869285 -0.015245717
000030 e3 48 02 3e 80 d2 dd bd 42 90 fa bc fd ee ad 3c
       0.12723117 -0.10831165 -0.030586366 0.021232123
000040 c1 41 49 bd b4 f0 1c 3d d3 08 34 3b 61 78 cf bd
       -0.049134973 0.03831549 0.002747108 -0.10130382
000050 4d 6a c7 3d c6 48 54 3d e8 1e 97 bc 20 f2 6c bc
       0.09737072 0.051827215 -0.018447354 -0.014462024
000060 d2 e7 e4 bd 79 74 69 3c 2f d4 c8 3d ab 26 a9 3d
       -0.11177029 0.014248961 0.09806096 0.082593285
000070 f1 67 49 3d bb b8 18 3d 3b 69 71 3d ed ab 5d 3c
       0.049171392 0.037285548 0.058938246 0.01352976
000080 36 5e f7 3a 94 d8 01 bc bb 57 c2 bc e8 05 a2 bd
       0.0018872682 -0.007925171 -0.023723474 -0.07911283
000090 fb 49 49 bd 30 64 81 3d 31 72 ca 3c de 8d cb 3c
       -0.04914282 0.063179374 0.024712654 0.024847921
0000a0 4a 59 70 bc 30 40 e7 3d 2f 54 40 3c 87 cb 98 3d
       -0.014669726 0.1129154 0.011738821 0.07460695
0000b0 22 1c c5 bc f0 84 30 be 91 66 40 3d d3 41 aa 3d
       -0.024061266 -0.17238212 0.046972815 0.08313336
0000c0 18 1b 67 3d f4 80 c9 bd 4f 92 7e bd dc 4c 6e bc
       0.056422323 -0.09839049 -0.06215125 -0.014544692
0000d0 2a c3 3b 3d 31 d8 c5 3c 29 3e 51 3d d6 ad 70 3c
       0.04584042 0.02415094 0.05108467 0.014689883
0000e0 b8 b8 35 3d 31 2d 50 bd 70 86 ba bc b8 27 3d bd
       0.044365615 -0.050824348 -0.022769183 -0.046180457
0000f0 e2 16 48 3b ee cf 12 bd 0d 20 ac bd 7b 74 c6 bd
       0.0030531217 -0.03584283 -0.08404551 -0.09690186
000100 b8 6f 4e bc ad 67 f3 3d f6 b4 c6 bd 86 a8 13 be
       -0.012599878 0.11885009 -0.09702484 -0.14419755
000110 1e 62 d3 bd 87 20 61 3d 99 d5 18 be 72 8a 5d bc
       -0.10321449 0.05496266 -0.14925231 -0.0135217775
000120 56 89 b1 3d 35 d9 9f 3d e8 29 d5 3c 28 d3 10 3d
       0.08668773 0.07805101 0.026020959 0.035357624
000130 cc c1 70 bd b0 71 b3 3c 2b e0 91 3b 97 ee de 3c
       -0.05877857 0.021904796 0.0044517717 0.027213378
000140 6f 58 4d 3d 7c 1f 6a bc 3e 53 f4 3c ec 2b 16 bd
       0.050133165 -0.014289733 0.02982485 -0.03666298
000150 f7 2b 0c bd 6d bc 95 3c a8 49 76 bd ec ea 5f 3c
       -0.034221616 0.018278325 -0.060128838 0.01366685
000160 dc 9f 52 bc 2c bf 38 3d 57 b2 36 bd 95 55 d9 3d
       -0.012855496 0.04510419 -0.044603672 0.106120266
000170 82 81 03 3d 2a 8a 64 bc e1 97 27 bd fb e2 21 bd
       0.03210593 -0.0139489565 -0.040916327 -0.039523106
000180 5b 28 d6 3d d0 3a f7 3b 09 a3 53 bd 1f 34 03 3d
       0.10456916 0.007544853 -0.051669154 0.03203213
000190 16 05 9f bc 8f f1 f8 bc 43 dc f7 bd 85 6c df bd
       -0.019411605 -0.030388622 -0.121025585 -0.1090937
0001a0 a2 f5 d0 bb 8a 42 04 bd f7 91 8f bd fa 7c 99 3d
       -0.006376938 -0.03229002 -0.070102625 0.074945405
0001b0 68 42 30 be 4e e2 01 3d 6a 46 74 3d 87 f8 88 bc
       -0.17212832 0.03170996 0.059637465 -0.01672007
0001c0 7b 03 89 3d cf c3 d8 bc 59 63 05 bd a5 74 0d 3d
       0.06690117 -0.026460556 -0.03256545 0.03453507
0001d0 02 38 7a bd 03 c7 28 be 6a 32 28 bd fd 77 6d bd
       -0.06108857 -0.16482167 -0.041063704 -0.057975758
0001e0 f0 94 32 3b 97 70 0c bd e2 7a 18 be 3f 59 c8 3d
       0.0027249418 -0.03428706 -0.14890626 0.09782647
0001f0 31 14 75 3d e7 b9 1c bd f6 a5 00 3c f9 3c b2 3c
       0.05983371 -0.038263228 0.007852068 0.02175759
000200 61 62 22 be 37 48 86 3a 2c 5e a2 bd b1 40 5e 3c
       -0.15857841 0.001024491 -0.07928118 0.013565228
000210 42 48 c1 bc 5d 24 5d bb 0a 99 25 be 7e 1d fc bd
       -0.023594026 -0.0033743598 -0.16171661 -0.12310313
000220 29 77 9e 3d d1 4b 37 bc 8f ee 0d 3d e2 10 d2 bd
       0.07737572 -0.01118751 0.034651335 -0.102571264
000230 84 d0 47 3c c7 45 e9 3b 76 26 a0 3c 61 46 dc bc
       0.01219571 0.007118914 0.01954959 -0.026889028
000240 3d 50 02 be 7a 47 d2 bb 82 d9 00 3d 19 e1 1f 3d
       -0.12725921 -0.006417212 0.03145743 0.03903303
000250 75 c5 59 bd 0a 7a 8b 3d a1 74 91 3d bc 94 a6 3d
       -0.053166825 0.068103865 0.07102323 0.081338376
000260 38 4a d2 bd c4 6c da 3a fa 25 9d 3c eb 2b 18 3d
       -0.10268062 0.0016664495 0.019183148 0.03715126
000270 a9 6c 0d be 98 b9 4a bd fc 2b ac bc 3e 3c ca 3c
       -0.13810982 -0.049493402 -0.021017067 0.024686929
000280 47 09 21 bd 91 1b 06 3d 07 82 d0 3c 78 5f 7b 3d
       -0.03931549 0.032741133 0.025452627 0.061370343
000290 90 b0 d5 3c a6 b6 2e bd 10 f2 05 be 11 26 6c bd
       0.026085168 -0.042654656 -0.13080621 -0.05765349
0002a0 c0 c4 26 bd 51 4d e2 bd 34 6a 83 3c e6 6b 09 bd
       -0.04071498 -0.11049903 0.016041853 -0.033550166
0002b0 28 d9 21 3d ee 9d 0f be 98 07 99 3d 05 97 a3 3d
       0.039513737 -0.14025089 0.074721515 0.07987789
0002c0 95 24 10 bc 33 e1 7b bc b3 81 87 bc 3e 62 85 3c
       -0.008797784 -0.015373516 -0.016541338 0.016282197
0002d0 00 e5 50 bd 60 a8 53 3c ab 8a 4c bd 7b e4 b3 bc
       -0.05099964 0.012918562 -0.04993693 -0.021959534
0002e0 15 3b 28 3d de f8 00 bd 36 0e c8 bc b5 1c 7d 3c
       0.04107197 -0.03148734 -0.024420839 0.015448739
0002f0 c3 04 bc bb 13 d6 9e bd e8 11 dc 3c 80 19 55 bd
       -0.0057378723 -0.07755675 0.026864007 -0.05202627
000300 65 bc 1f 3d 97 39 a1 3c be 90 56 3d ed 2d 90 3d
       0.038998026 0.019680781 0.05238413 0.0704001
000310 9f c7 9b bd 99 07 76 3c f9 3d 88 3d 6a 61 2e bd
       -0.07606434 0.01501646 0.06652445 -0.04257337
000320 a3 1e 6e 3d ae 91 d9 3c 2a 57 35 3c ca 89 d1 3d
       0.058134686 0.026558723 0.011068145 0.10231359
000330 6e fc e6 3d 33 db 08 3e c3 2f a9 bd 98 f0 9c bd
       0.11278616 0.13364868 -0.08261063 -0.07663077
000340 d6 a6 8a 3d 7c 6f 38 be c9 58 61 3c aa e7 55 bd
       0.06770103 -0.18011278 0.013754078 -0.052222885
000350 97 b6 83 3d 00 d1 da 3d c8 88 c8 3c e5 e8 52 3d
       0.064313106 0.10684395 0.024479285 0.051491637
000360 3a 17 4e bc 7b 07 63 bd 7e e2 96 3c 24 65 de bd
       -0.01257878 -0.055427056 0.018418547 -0.10859135
000370 92 6c e2 bc f6 58 be bb ca fe 50 bd f8 46 d2 bd
       -0.027639661 -0.005808945 -0.051024236 -0.102674425
000380 14 49 c9 bc 39 62 5f bc f4 f4 7b 3d 5b 8e d8 bc
       -0.02457098 -0.013634258 0.061512902 -0.026435068
000390 77 42 a7 bd 44 de 3a bd 3f 12 df bd 96 1e 9f bd
       -0.08166974 -0.045622125 -0.10892152 -0.07769506
0003a0 85 42 18 3d 70 22 91 bc 8f c9 4d 3c 36 34 5b bc
       0.037172813 -0.017716616 0.012560262 -0.013379147
0003b0 aa 4d 7a bd 2a 8e 2a bd 7e d1 15 3e 0c 85 be 3c
       -0.061109222 -0.041639484 0.14630696 0.023256801
0003c0 a6 b0 7f 3d 15 85 5b bd b2 7d 13 bd e8 dd 4b 3d
       0.062424324 -0.053593714 -0.036008544 0.049772173
0003d0 02 84 b2 3d 0b f4 0f 3d dd fc 46 3c 5d fb bc bd
       0.08716585 0.035144847 0.012145248 -0.09227631
0003e0 82 bf 60 bd 60 c5 84 bb 34 73 a0 bd 7d dd 46 bd
       -0.054870136 -0.0040518492 -0.07834473 -0.04855107
0003f0 29 08 65 bd f9 bb 37 bd 23 da d4 3c 2b bf 31 b9
       -0.055915985 -0.044857 0.025982922 -0.00016951251
