outputs_intermediate/models/pretrained_simclr.pth (torch, 296522 bytes, 18 tensors)

encoder.0.weight f4 [256, 50]
0	0xbc865f8f	-0.016402988
1	0x3d1c68c1	0.03818584
2	0xbd69e59f	-0.05710375
3	0x3ddbfc22	0.1074145
4	0x3e1faa81	0.15592386
5	0x3ac3467e	0.0014898328
6	0x3e0a1f19	0.13488425
7	0xbe7f896e	-0.24954769
8	0x3dca4683	0.0987673
9	0x3e8b6873	0.27228126
10	0x3d8da460	0.06916118
11	0x3d2bc521	0.041936044
12	0xbceb36d1	-0.028712662
13	0x3d257667	0.04039612
14	0xbe42c1f2	-0.19019297
15	0x3da5440b	0.08069619
16	0x3d7dc263	0.06195296
17	0xbe1e85d9	-0.15480746
18	0x3dbe7655	0.09299914
19	0x3d861181	0.06546307
20	0xbe49910f	-0.19684242
21	0xbe15c5fa	-0.14626303
22	0x3c266bf0	0.01015757
23	0x3d8d24eb	0.06891807
24	0xbdfa6bd7	-0.122276
25	0xbc44d4a7	-0.012013591
26	0xbc6db7de	-0.014509169
27	0xbe8957fb	-0.26824936
28	0xbd8374f1	-0.06418789
29	0x3dd67ca9	0.10472996
30	0x3d8b7883	0.06810095
31	0x3da23776	0.079207346
32	0x3e0cabb0	0.13737369
33	0x3c73b3ed	0.014874441
34	0x3d150d10	0.03638941
35	0xbd99ddeb	-0.075130306
36	0x3dca28de	0.09871076
37	0x3dc803bc	0.09766337
38	0x3e22f236	0.15912709
39	0xbd501ea3	-0.050810467
40	0xbc42ec3e	-0.011897145
41	0xbbd2fdc6	-0.0064389436
42	0x3cffc29c	0.031220727
43	0x3dc84ff2	0.09780873
44	0xbcc87d51	-0.024473818
45	0x3d173f26	0.036925457
46	0x3d75d244	0.060014978
47	0xbd19c6e1	-0.03754318
48	0xbdf133c6	-0.11777453
49	0x3dffd307	0.12491422
50	0x3c3bec00	0.011469841
51	0xbde045b5	-0.109507956
52	0x3dc90bf8	0.09816736
53	0x3e04ef8c	0.12982005
54	0x3d5fed7a	0.054669835
55	0x3ddb62f2	0.10712232
56	0x3d85db4a	0.06535967
57	0x3e25b248	0.1618129
58	0xbd6de179	-0.058076356
59	0xbc84b91e	-0.016201552
60	0x3d850dc4	0.06496766
61	0x3cf6193f	0.030041335
62	0x3d431334	0.047625735
63	0x3dca156e	0.09867369
64	0x3e100968	0.14066088
65	0xbe5f497f	-0.2180538
66	0x3d85d211	0.065342076
67	0xbd13d116	-0.03608807
68	0x3ce5f386	0.028070223
69	0x3cef1d1f	0.02918869
70	0xbde0b614	-0.10972229
71	0xbc91d839	-0.017803298
72	0xbe8b57d8	-0.27215457
73	0x3d18bfaf	0.03729218
74	0xbcf5c0e8	-0.029999211
75	0x3e12ce20	0.14336443
76	0xbdbf6f51	-0.09347404
77	0x3d8f221c	0.06988928
78	0x3defc9f9	0.11708445
79	0x3ca7c03b	0.020477405
80	0xbdde0e56	-0.10842578
81	0xbd9945bd	-0.07484005
82	0xbdea7dc3	-0.114497684
83	0xbc68ddfe	-0.014213083
84	0xbe762ca3	-0.24040465
85	0x3dfd4f1e	0.12368606
86	0xbda2e9b9	-0.07954735
87	0x3d47207a	0.048614956
88	0x3e097719	0.13424338
89	0xbdc5a3a3	-0.09650352
90	0xbdd37642	-0.1032529
91	0xbdcd18b1	-0.10014475
92	0xbb8a3d5b	-0.00421874
93	0x3e3a63da	0.18202153
94	0x3e837a85	0.25679412
95	0x3de8fe0f	0.11376583
96	0x3d7440e3	0.059632193
97	0x3e226fbb	0.15862934
98	0xbc95f08d	-0.01830318
99	0x3d8e74bc	0.06955859
100	0x3ea0af8d	0.31383935
101	0x3d497b9c	0.04919015
102	0x3d8fa94a	0.07014711
103	0x3d15f3c8	0.03660944
104	0x3d46ae49	0.048506055
105	0xbc716aff	-0.0147349825
106	0xbe1457f8	-0.14486682
107	0x3d90757c	0.07053658
108	0xbc0c4179	-0.008560532
109	0x3df905ee	0.12159334
110	0x3d9cbf8f	0.076537244
111	0xbdc51d40	-0.096247196
112	0x3c7d4aa1	0.015459687
113	0x3d9d8b1e	0.0769255
114	0x3b32c036	0.0027275211
115	0xbdffeac9	-0.124959536
116	0xbe09c961	-0.13455726
117	0xbde7a92c	-0.11311564
118	0x3d04c848	0.032417566
119	0xbd7519ff	-0.059839245
120	0x3d49a48d	0.049229193
121	0x3d1698a5	0.036766667
122	0xbd6d9a24	-0.058008328
123	0x3d3b19b0	0.045678794
124	0xbcc3a8a7	-0.02388413
125	0xbdfbf6d9	-0.12302942
126	0x3e142cb6	0.14470181
127	0x3ca5a861	0.02022189
128	0xbd71b039	-0.05900595
129	0x3bd6ca97	0.0065549123
130	0x3b959d30	0.0045658574
131	0x3ddee72a	0.10883935
132	0x3cae0f18	0.021247432
133	0x3d84cffc	0.06484982
134	0xbd140a27	-0.036142495
135	0x3bfd73e3	0.007734762
136	0xbdc6b348	-0.09702164
137	0xbdb0ca48	-0.08632332
138	0xbd98454b	-0.074350916
139	0xbe03b007	-0.12860118
140	0x3d56516b	0.05232374
141	0x3db68ade	0.089132056
142	0xbc52654c	-0.012841534
143	0x3d079b60	0.03310716
144	0x3d5f0b7b	0.054454308
145	0x3da235a9	0.07920391
146	0x3dbbddb3	0.09173145
147	0x3bdcf210	0.0067427233
148	0x3df9e88e	0.122025594
149	0xbc384ae8	-0.011248328
150	0x3bd442bd	0.0064776824
151	0xbbbde9ae	-0.005795679
152	0x3c91ad11	0.01778272
153	0x3e09d14e	0.1345875
154	0x3e0a73ea	0.1352078
155	0x3cdeba36	0.027188402
156	0xbe185b90	-0.14878678
157	0x3d4cb389	0.049975906
158	0xbd85b7ce	-0.065291986
159	0x3e5b7d13	0.21434431
160	0x3ebb2d0b	0.36557803
161	0xbd0529e2	-0.032510646
162	0xbd7ad6e6	-0.0612401
163	0x3e158d63	0.14604716
164	0xbdccdc2c	-0.10002932
165	0x3d4afce0	0.049557567
166	0xbdb46152	-0.08807625
167	0x3d255dca	0.040372647
168	0xbe1f760a	-0.15572372
169	0x3cc0eeae	0.023551311
170	0x3dbd826a	0.0925339
171	0xbdbc9f95	-0.09210125
172	0x3e26912a	0.16266313
173	0x3e1b6022	0.1517339
174	0x3dc4b098	0.09603995
175	0x3d147a2f	0.036249336
176	0xbccb5b17	-0.024823708
177	0x3d460e07	0.04835322
178	0x3dcacb87	0.09902101
179	0x3ca6e492	0.020372663
180	0x3d7ce4ec	0.061741754
181	0x3dbd11a6	0.09231882
182	0xbd7df37e	-0.06199979
183	0xbd5fe0f4	-0.05465789
184	0x3cfbe3de	0.030748304
185	0x3d0c362c	0.03423135
186	0xbdad424b	-0.0845991
187	0xbc659211	-0.014011876
188	0xbbda423a	-0.006660727
189	0x3b68f3ea	0.0035545775
190	0x3cf9b382	0.030481104
191	0xbd813e26	-0.06310682
192	0x3da0e471	0.07856072
193	0xbe603c53	-0.21898012
194	0xbd162f60	-0.036666274
195	0xbd0385fd	-0.032110203
196	0xbdbc32e5	-0.09189395
197	0x3e08e11b	0.13367121
198	0x3e096f74	0.13421422
199	0xbdf5da0c	-0.1200448
200	0xbd563400	-0.052295685
201	0x3de70e64	0.11282042
202	0x3d93198a	0.071826056
203	0xbe18623f	-0.14881228
204	0x3c8d024f	0.017213015
205	0x3c85238d	0.016252303
206	0xbe737341	-0.23774435
207	0x3d82b3d0	0.06381953
208	0x3d0f7a9f	0.03502905
209	0xbe89e246	-0.26930445
210	0x3df26a35	0.11836664
211	0x3dbc7701	0.09202386
212	0xbe33f9a3	-0.17575698
213	0xbe5175ba	-0.20455065
214	0x3d06d6c8	0.032919675
215	0xbde5981d	-0.11210654
216	0x3e14c89c	0.14529651
217	0xbeb44792	-0.35210854
218	0x3a755c73	0.00093597843
219	0xbb0f4965	-0.0021863815
220	0xbd06b655	-0.03288873
221	0xbd44f0fe	-0.04808139
222	0xbc4f50d8	-0.012653552
223	0x3e1b537f	0.1516857
224	0xbd1c4b2e	-0.038157634
225	0x3db814b5	0.089883246
226	0x3dec137e	0.11527155
227	0xbe2a733f	-0.16645525
228	0x3c055628	0.008138217
229	0xbba36798	-0.0049867146
230	0x3cd4c88a	0.02597453
231	0x3dde3e4a	0.108517244
232	0x3b7e561d	0.0038808652
233	0xbcfd573d	-0.030925388
234	0xbd4b3952	-0.04961521
235	0x3d5c1d2a	0.05373875
236	0x3d1e55e8	0.038656145
237	0x3dcab15c	0.0989711
238	0x3e46de57	0.19420753
239	0xbc9a467a	-0.018832434
240	0xbd333414	-0.043750837
241	0xbdde0af8	-0.10841936
242	0x3ca81be2	0.020521108
243	0xbd30d2e3	-0.043169867
244	0x3c8a3981	0.016873123
245	0xbdb873b2	-0.09006442
246	0x3c3e886b	0.011629204
247	0x3d451055	0.04811128
248	0x3e0db606	0.13838968
249	0xbdd9a781	-0.10627652
250	0xbaa1484b	-0.001230487
251	0xbe0b0f5e	-0.13580081
252	0xbe0cee67	-0.13762818
253	0xbce4e832	-0.02794275
254	0x3c7d9f94	0.015479941
255	0xbdb8b69b	-0.09019204

encoder.0.bias f4 [256]
0	0x3b919c0e	0.004443652
1	0xbd9f2b9c	-0.0777199
2	0x3ddf0ec3	0.108914874
3	0xbdd9013d	-0.10595939
4	0x3cf7b11d	0.030235821
5	0x3dc604cf	0.09668886
6	0x3dddd7bc	0.10832164
7	0xbd5a050a	-0.053227462
8	0x3c59a5f0	0.0132841915
9	0xbdcf46b9	-0.10120911
10	0x3dd318b2	0.10307445
11	0xbde54de8	-0.111965
12	0x3d6f58d4	0.058434322
13	0xbd8b6b24	-0.06807545
14	0xbdbf6b70	-0.09346664
15	0xbd53fbc6	-0.05175378
16	0x3dc569a5	0.09639291
17	0x3ddb8a55	0.10719744
18	0xbe05168a	-0.12996879
19	0xbdfa1ce2	-0.1221254
20	0x3d86d133	0.0658287
21	0x3da3928c	0.07986936
22	0xbdf4124e	-0.11917554
23	0xbc23e481	-0.01000321
24	0xbdbf20a8	-0.093324006
25	0x3b6b8698	0.0035938378
26	0xbda067f4	-0.078323275
27	0x3dd0ef31	0.10201872
28	0xbcedd26e	-0.029031005
29	0x3e06f147	0.13177978
30	0x3ddfcbe3	0.1092756
31	0x3da17975	0.07884494
32	0xbde84025	-0.113403596
33	0x3d736206	0.059419654
34	0x3d9ec093	0.07751574
35	0x3db437a5	0.08799676
36	0x3d805757	0.06266659
37	0x3da7616d	0.08172879
38	0x3da03887	0.07823282
39	0x3de08e66	0.1096466
40	0x3dc14ccd	0.09438477
41	0x3dba806c	0.09106526
42	0xbbef6cd3	-0.007306674
43	0x3e0fa38d	0.14027233
44	0x3d887956	0.06663768
45	0xbe03da09	-0.12876143
46	0x3dae1b25	0.08501271
47	0x3e05ba8a	0.1305944
48	0xbdb5c03b	-0.08874556
49	0xbd81b4da	-0.06333323
50	0x3d5b35f1	0.05351824
51	0x3d830e67	0.063992314
52	0x3dcb9d86	0.099421546
53	0x3d9dd5ad	0.07706771
54	0xbd6193bc	-0.05507253
55	0x3da100cf	0.07861482
56	0xbe10366d	-0.14083262
57	0xbe04dee4	-0.12975651
58	0xbdfdf085	-0.12399391
59	0xbdf3e7cb	-0.119094454
60	0xbcc20849	-0.023685591
61	0xbd99aad2	-0.075032845
62	0x3df10b72	0.11769761
63	0xbe025516	-0.1272777
64	0xbd208c09	-0.039196048
65	0xbbba9e90	-0.0056951717
66	0x3ba44e8e	0.0050142473
67	0xbc907b96	-0.017637055
68	0xbdb783ff	-0.08960723
69	0xbd162afc	-0.036662087
70	0xbdd756c8	-0.10514599
71	0x3d741fa6	0.059600495
72	0x3d631401	0.055439
73	0x3d277317	0.040881243
74	0xbd1ae56b	-0.037816446
75	0xbd91a135	-0.07110826
76	0x3d1dffa4	0.038573876
77	0xbc703c58	-0.014662825
78	0xba9a0348	-0.0011750245
79	0x3d8a4b42	0.067526355
80	0xbd84b4a9	-0.06479771
81	0xbd85bf43	-0.06530621
82	0x3dfc4ad8	0.12318963
83	0x3e0efc2c	0.13963383
84	0x3d9526f7	0.072828226
85	0x3d7135d6	0.058889233
86	0x3c19f5fb	0.009397025
87	0x3d513e01	0.051084522
88	0xbd72707f	-0.059189316
89	0x3df50790	0.11964333
90	0xbdf590f3	-0.119905375
91	0xbcce266c	-0.025164805
92	0xbdf57487	-0.119851165
93	0x3ca09cfc	0.019606106
94	0x3de1d93d	0.11027763
95	0xbdba73aa	-0.091040924
96	0xbb692b47	-0.0035578774
97	0xbd20c596	-0.039250933
98	0x3c3a68b0	0.0113774985
99	0x3dd81456	0.10550754
100	0x3d0861d1	0.03329641
101	0xbd58ae82	-0.0529008
102	0xbd00d3b7	-0.031451907
103	0x3df91a84	0.121632606
104	0xbdc23818	-0.09483355
105	0xbcce2ab3	-0.025166845
106	0xbd484ecf	-0.048903283
107	0xbd792599	-0.06082687
108	0x3da70c8e	0.081566915
109	0x3cb4742b	0.02202805
110	0x3d9406d0	0.07227862
111	0xbda92ddb	-0.08260699
112	0xbd28141b	-0.0410348
113	0x3d9fcfaf	0.078032844
114	0x3de020e3	0.10943773
115	0x3c190e28	0.009341754
116	0x3d7ced7e	0.061749928
117	0x3e0e5253	0.13898592
118	0xbbf7f99d	-0.007567598
119	0xbd40b85f	-0.04705083
120	0xbdbb493b	-0.09144827
121	0x3ddf5a13	0.10905852
122	0x3d0d8232	0.034547992
123	0x3d87926e	0.06619726
124	0x3b0c3984	0.0021396587
125	0xbde50e83	-0.111844085
126	0xbdf6cdb8	-0.120509565
127	0x3b330a35	0.0027319316
128	0xbe017dee	-0.12645695
129	0x3ce5a430	0.028032392
130	0xbc4e9ab6	-0.012610128
131	0x3df7f732	0.12107696
132	0xbda9d548	-0.08292633
133	0xbe0e4747	-0.13894378
134	0xbdf27db7	-0.118403845
135	0x3de28b03	0.11061671
136	0xbdd40efa	-0.10354419
137	0x3d62728d	0.055285025
138	0x3d6fb8a7	0.058525708
139	0x3d6e0506	0.05811026
140	0x3bb741a6	0.0055925427
141	0x3ccac733	0.024753189
142	0x3cf7fffa	0.030273426
143	0xbc20d188	-0.009815581
144	0xbdeb8037	-0.114990644
145	0x3defd2f4	0.11710158
146	0xbc3b26d5	-0.0114228325
147	0xbdd31075	-0.10305873
148	0x3dab065e	0.08350824
149	0x3dab42e7	0.0836237
150	0x3d408242	0.046999224
151	0x3b7907ab	0.0037998955
152	0x3ddbd804	0.10734561
153	0xbc1ae72d	-0.009454531
154	0x3de8192a	0.11332925
155	0xbc46f768	-0.012143947
156	0xbdd67cae	-0.104729995
157	0x3cab69d4	0.020924486
158	0x3d45c622	0.048284657
159	0x3baa330f	0.005194075
160	0xbbe0af32	-0.0068568224
161	0x3df40383	0.11914732
162	0x3e11a737	0.14223944
163	0x3dc4daac	0.09612021
164	0xbd59bf48	-0.053160936
165	0x3c92c405	0.017915735
166	0xbda7e898	-0.081986606
167	0xbdc7214f	-0.0972315
168	0x3dc857dd	0.097823836
169	0x3bfc93cb	0.007708048
170	0x3c3abb49	0.011397191
171	0xbc1e046b	-0.009644608
172	0xbd7b8ad6	-0.0614117
173	0xbe013ea0	-0.12621546
174	0x3df0ec44	0.11763814
175	0xbd270032	-0.04077167
176	0x3e0e3060	0.13885641
177	0x3d960ee3	0.07327058
178	0xbdb2ad6d	-0.087244846
179	0x3dc979c3	0.09837677
180	0xbddeefb0	-0.108855605
181	0x3cb4b4a2	0.022058789
182	0x3d9da9b3	0.07698383
183	0xbddc84a2	-0.10767485
184	0xbdac77f4	-0.08421317
185	0x3cb0f4ec	0.021601163
186	0xbdead6f8	-0.11466783
187	0x3d10d3d9	0.035358284
188	0x3dbf6019	0.09344501
189	0xbd035d52	-0.03207142
190	0x3d85cd0a	0.06533249
191	0xbcefc89a	-0.029270459
192	0xbd502f51	-0.050826374
193	0xbd3e34b2	-0.046436973
194	0xbda31c83	-0.079644226
195	0x3d8e972f	0.0696243
196	0x3d3381e5	0.04382505
197	0xbd96b027	-0.07357817
198	0x3da359ff	0.0797615
199	0x3cce84c3	0.02520979
200	0x3d810e52	0.063015595
201	0x3d4d82f4	0.050173715
202	0x3be1053c	0.006867079
203	0x3dc8632b	0.0978454
204	0x3d823399	0.06357498
205	0x3d97dde5	0.0741537
206	0xbd846b3d	-0.064657666
207	0xbd9b0d89	-0.07570941
208	0x3d439416	0.047748648
209	0xbde91649	-0.11381204
210	0x3c99bd70	0.018767089
211	0x3e0692e5	0.13141973
212	0xbe048d10	-0.12944436
213	0x3dc42c68	0.09578782
214	0xbe0ae167	-0.13562547
215	0x3dd080ff	0.10180854
216	0x3cec146e	0.028818335
217	0x3d8e292d	0.069414474
218	0x3b028355	0.0019914706
219	0x3d9af388	0.07565981
220	0xbe0bb291	-0.13642336
221	0xbdfcccfc	-0.12343785
222	0xbd1fffc4	-0.039062276
223	0xbd9e294b	-0.0772272
224	0x3deb3007	0.1148377
225	0xbd9c9271	-0.07645119
226	0xbd37558d	-0.044759322
227	0x3d2f285f	0.04276311
228	0xbddaa78f	-0.106764905
229	0xbd49cf21	-0.0492698
230	0x3d93c439	0.07215161
231	0x3d59064d	0.052984525
232	0x3d837e67	0.06420594
233	0x3d0e098a	0.034677066
234	0xbc242502	-0.010018589
235	0xbc980965	-0.018559167
236	0x3e0d9750	0.13827252
237	0xbddc216d	-0.10748563
238	0x3ce8b561	0.0284068
239	0xbd16848c	-0.0367475
240	0x3e0e82e4	0.13917118
241	0x3ca13427	0.019678188
242	0x3db0993e	0.08622979
243	0xbe03c881	-0.12869455
244	0x3cf34958	0.029698059
245	0xbc617d34	-0.013762761
246	0x3cb67e73	0.022277093
247	0xbb64e593	-0.0034926876
248	0x3c999360	0.018747032
249	0xbd3514a5	-0.04420914
250	0xbe007958	-0.12546289
251	0x3dbe6a33	0.092976
252	0x3ca9b376	0.020715456
253	0xbd6f1e6e	-0.05837863
254	0x3ce9f2b5	0.028558115
255	0xbc111eef	-0.008857473

encoder.1.weight f4 [256]
0	0x3f73bca6	0.9520973
1	0x3f7431f0	0.953887
2	0x3f80c187	1.005906
3	0x3f81ac98	1.0130796
4	0x3f7ae510	0.9800577
5	0x3f883322	1.0640604
6	0x3f82f60d	1.0231339
7	0x3f7d7617	0.99008316
8	0x3f855474	1.0416398
9	0x3f7b70ac	0.982188
10	0x3f77335c	0.96562743
11	0x3f74ee53	0.95676154
12	0x3f8d72f6	1.1050708
13	0x3f87fd15	1.062411
14	0x3f81c6e0	1.0138817
15	0x3f830577	1.0236043
16	0x3f817129	1.0112659
17	0x3f810fa7	1.0082902
18	0x3f759f6f	0.959464
19	0x3f771fc5	0.9653285
20	0x3f80060a	1.0001843
21	0x3f724741	0.94639975
22	0x3f7dc72b	0.9913203
23	0x3f6f10de	0.9338511
24	0x3f83483a	1.0256417
25	0x3f807669	1.0036136
26	0x3f86371e	1.048557
27	0x3f8a443e	1.0802076
28	0x3f78560d	0.97006303
29	0x3f8381d2	1.0273993
30	0x3f6cc215	0.92483646
31	0x3f83317e	1.0249479
32	0x3f92b07b	1.1460108
33	0x3f837c19	1.0272247
34	0x3f8e430d	1.1114212
35	0x3f7d5748	0.98961306
36	0x3f74176c	0.9534824
37	0x3f6ca8e8	0.9244523
38	0x3f816426	1.0108688
39	0x3f7d2169	0.98879105
40	0x3f86a026	1.0517623
41	0x3f7ea60f	0.99472135
42	0x3f86c5ec	1.0529151
43	0x3f769aba	0.96329844
44	0x3f7e7861	0.99402434
45	0x3f88970e	1.0671098
46	0x3f85e23f	1.045967
47	0x3f848478	1.0352926
48	0x3f779d33	0.9672424
49	0x3f81653f	1.0109023
50	0x3f633f1e	0.88768184
51	0x3f8b996c	1.0906196
52	0x3f6ac561	0.91707426
53	0x3f780c4c	0.96893764
54	0x3f68ddd3	0.90963477
55	0x3f8086df	1.0041159
56	0x3f805e85	1.0028845
57	0x3f6d5803	0.9271242
58	0x3f78ebfc	0.97235084
59	0x3f7ec527	0.9951958
60	0x3f60e275	0.87845546
61	0x3f8a00ce	1.0781496
62	0x3f85b58d	1.044603
63	0x3f673e7a	0.90329707
64	0x3f80d870	1.0066051
65	0x3f821d3d	1.0165173
66	0x3f7778bd	0.96668607
67	0x3f799aa1	0.9750157
68	0x3f7f9903	0.9984285
69	0x3f8b05b9	1.0861121
70	0x3f799611	0.9749461
71	0x3f6a9484	0.91632867
72	0x3f719bf3	0.94378585
73	0x3f6c2829	0.9224878
74	0x3f72e34b	0.9487807
75	0x3f87dba8	1.0613909
76	0x3f72ab30	0.9479246
77	0x3f74165d	0.95346624
78	0x3f8399e6	1.0281341
79	0x3f7bba46	0.98331106
80	0x3f75ade6	0.9596847
81	0x3f763028	0.9616723
82	0x3f75febe	0.9609183
83	0x3f809693	1.0045952
84	0x3f81b18a	1.0132306
85	0x3f84db02	1.0379336
86	0x3f805162	1.0024836
87	0x3f7eec05	0.9957889
88	0x3f7ee7c6	0.9957241
89	0x3f86f326	1.0542953
90	0x3f8f200f	1.1181659
91	0x3f88f016	1.0698268
92	0x3f81fbbd	1.015495
93	0x3f818de4	1.0121427
94	0x3f78f3c9	0.97246987
95	0x3f8334cb	1.0250486
96	0x3f6d8950	0.9278765
97	0x3f747ac2	0.95499814
98	0x3f6e32f7	0.93046516
99	0x3f81ab0a	1.0130322
100	0x3f83d580	1.029953
101	0x3f73f9e5	0.95303184
102	0x3f7f5aa3	0.99747676
103	0x3f6dcac3	0.92887515
104	0x3f7cda5e	0.987707
105	0x3f7c78c0	0.9862175
106	0x3f71238e	0.9419488
107	0x3f802d2d	1.0013787
108	0x3f8498f7	1.0359181
109	0x3f82c20d	1.021547
110	0x3f87a3ad	1.0596825
111	0x3f73385e	0.95007885
112	0x3f8160a0	1.0107613
113	0x3f788ee0	0.9709301
114	0x3f7f6bf6	0.9977411
115	0x3f847e73	1.0351089
116	0x3f7d6d2c	0.9899471
117	0x3f7329e0	0.9498577
118	0x3f81152e	1.0084589
119	0x3f7b3be9	0.9813829
120	0x3f7c8898	0.98645926
121	0x3f6f45e8	0.93466043
122	0x3f8452b7	1.0337743
123	0x3f816b85	1.0110937
124	0x3f60f026	0.8786644
125	0x3f883ad9	1.0642959
126	0x3f6f2152	0.9341022
127	0x3f7ecd44	0.9953196
128	0x3f76f1e8	0.9646287
129	0x3f694f85	0.9113696
130	0x3f7731ff	0.96560663
131	0x3f8b6b15	1.0892054
132	0x3f812430	1.0089169
133	0x3f7f0ccf	0.9962892
134	0x3f809799	1.0046264
135	0x3f7249f7	0.9464411
136	0x3f83f44c	1.0308928
137	0x3f6b23b9	0.91851383
138	0x3f70923b	0.9397313
139	0x3f81da04	1.0144658
140	0x3f69d12b	0.9133479
141	0x3f86068d	1.0470749
142	0x3f821453	1.0162452
143	0x3f6c2b26	0.9225334
144	0x3f8cebd4	1.1009469
145	0x3f7f757a	0.9978863
146	0x3f8748ce	1.0569093
147	0x3f862fe0	1.048336
148	0x3f78bc29	0.9716211
149	0x3f7df667	0.99204105
150	0x3f81c2ab	1.0137533
151	0x3f836ca4	1.026753
152	0x3f61af30	0.8815794
153	0x3f8494c6	1.0357902
154	0x3f7ddcc3	0.9916498
155	0x3f731218	0.94949484
156	0x3f84dfca	1.0380795
157	0x3f72c841	0.94836813
158	0x3f76778a	0.9627615
159	0x3f6cb6ea	0.92466605
160	0x3f72febd	0.9491995
161	0x3f846e77	1.0346211
162	0x3f7a708e	0.97827995
163	0x3f7569cc	0.9586456
164	0x3f871029	1.0551807
165	0x3f866b50	1.0501499
166	0x3f8e3d5c	1.1112475
167	0x3f72ef09	0.9489599
168	0x3f8166af	1.0109462
169	0x3f846a13	1.0344871
170	0x3f90bb0d	1.1307083
171	0x3f81e8ec	1.0149207
172	0x3f76e620	0.9644489
173	0x3f80e926	1.0071151
174	0x3f854b57	1.0413617
175	0x3f83ac0b	1.0286878
176	0x3f80ed04	1.0072331
177	0x3f8c2c8c	1.0951095
178	0x3f846e65	1.034619
179	0x3f6d2960	0.9264126
180	0x3f829aa7	1.0203446
181	0x3f858dea	1.0433934
182	0x3f847e89	1.0351115
183	0x3f766238	0.9624362
184	0x3f6e45fe	0.9307555
185	0x3f7d42bd	0.9892996
186	0x3f7b0700	0.98057556
187	0x3f87b0da	1.0600846
188	0x3f791597	0.9729857
189	0x3f80acc6	1.0052726
190	0x3f8844c6	1.0645988
191	0x3f6d5f66	0.9272369
192	0x3f674e76	0.90354097
193	0x3f7f3680	0.99692535
194	0x3f857dab	1.0428976
195	0x3f823e3e	1.0175245
196	0x3f680a49	0.90640694
197	0x3f8c2081	1.094742
198	0x3f73e7e3	0.95275706
199	0x3f786201	0.9702454
200	0x3f75d364	0.9602568
201	0x3f7a53a9	0.97783905
202	0x3f812160	1.008831
203	0x3f7ebbb5	0.9950517
204	0x3f86982d	1.051519
205	0x3f7a8d60	0.9787197
206	0x3f862b73	1.048201
207	0x3f7fbdaa	0.9989878
208	0x3f808bab	1.0042623
209	0x3f851492	1.0396903
210	0x3f820ea0	1.0160713
211	0x3f787340	0.9705086
212	0x3f7d143b	0.98858994
213	0x3f7e8207	0.99417156
214	0x3f7337b1	0.95006853
215	0x3f89cdfa	1.0765984
216	0x3f7c2055	0.98486835
217	0x3f7550a7	0.9582619
218	0x3f827106	1.0190742
219	0x3f868174	1.0508256
220	0x3f7ecf91	0.9953547
221	0x3f823fb8	1.0175695
222	0x3f866cb7	1.0501927
223	0x3f85c646	1.0451133
224	0x3f6a5a7e	0.9154433
225	0x3f8253d0	1.0181828
226	0x3f834051	1.0254003
227	0x3f754ca5	0.95820075
228	0x3f8577e1	1.0427209
229	0x3f85b8f7	1.0447072
230	0x3f6e967d	0.93198377
231	0x3f80ba9d	1.005695
232	0x3f80d230	1.0064144
233	0x3f82d317	1.022067
234	0x3f834062	1.0254023
235	0x3f78ea4e	0.9723252
236	0x3f82ee26	1.0228927
237	0x3f85de3e	1.0458448
238	0x3f75b954	0.95985913
239	0x3f7d1b86	0.9887012
240	0x3f8a72c9	1.081628
241	0x3f71a1e2	0.9438764
242	0x3f7d0c54	0.98846936
243	0x3f728a14	0.9474194
244	0x3f83c57e	1.0294645
245	0x3f71623b	0.9429051
246	0x3f773249	0.96561104
247	0x3f71789c	0.9432466
248	0x3f7fa885	0.99866515
249	0x3f86b997	1.0525388
250	0x3f815dc4	1.010674
251	0x3f71fa22	0.945223
252	0x3f83e60a	1.0304577
253	0x3f80e182	1.006882
254	0x3f756981	0.9586411
255	0x3f74af14	0.9557965

encoder.1.bias f4 [256]
0	0xbe8a46b1	-0.27007058
1	0xbcc10f9f	-0.023567019
2	0xbd4b039b	-0.049563985
3	0x3d06b32d	0.03288572
4	0xbd89136c	-0.066931576
5	0xbda2e578	-0.07953924
6	0xbdb69bd7	-0.08916443
7	0x3c4dab74	0.012553085
8	0xbe5fd247	-0.21857558
9	0xbd71da3a	-0.059046008
10	0xbde2a3bb	-0.11066385
11	0xbda95f38	-0.08270115
12	0x3d66bf86	0.056334995
13	0xbdf2af8f	-0.118498914
14	0xbcdccaec	-0.02695223
15	0x3bcee7aa	0.0063142376
16	0x3d117765	0.035514254
17	0xbe173096	-0.14764628
18	0x3cec57ba	0.028850425
19	0xbc092572	-0.008370744
20	0x3d25f36d	0.040515352
21	0xbdc9e5a2	-0.09858252
22	0xbdfe09bc	-0.124042004
23	0xbe112a26	-0.14176235
24	0xbe2203a9	-0.15821709
25	0xbde83b3c	-0.11339423
26	0xbe0704be	-0.13185403
27	0xbd3127e4	-0.043250933
28	0xbc739f6d	-0.014869553
29	0x3dc43abb	0.095815144
30	0x3c71a7de	0.014749495
31	0xbe70d191	-0.23517443
32	0xbc358198	-0.011078261
33	0x3d95dfad	0.073180534
34	0x3d5ede8a	0.05441145
35	0xbb882252	-0.004154482
36	0x3cc091ab	0.02350696
37	0xbdac61be	-0.0841708
38	0x3e0ddac8	0.1385299
39	0xbd0343c8	-0.032047063
40	0x3e03f662	0.12886956
41	0xbbf5d4a3	-0.007502155
42	0xbe041715	-0.1289943
43	0xbd160557	-0.036626186
44	0x3d48356b	0.04887907
45	0x3da4e543	0.08051541
46	0xbd39110b	-0.04518227
47	0xbe4b0dbe	-0.19829461
48	0xbdbe1aac	-0.09282431
49	0xbdb48163	-0.08813741
50	0xbe3e3f1f	-0.18578766
51	0xbdbb6fd8	-0.09152192
52	0xbe2073be	-0.15669152
53	0xbc4fc669	-0.012681582
54	0xbc5cea2c	-0.013483565
55	0x3aec2bc6	0.0018018417
56	0x3d2ebe5d	0.042662013
57	0xbd74ea06	-0.059793495
58	0x3d3ea17d	0.046540726
59	0x3d30bd3b	0.043149214
60	0xbda98049	-0.082764216
61	0xbd003c9b	-0.031307798
62	0x3cf0e807	0.029407514
63	0xbdef848e	-0.11695205
64	0xbd43bd59	-0.047787998
65	0xbd8d74c4	-0.06907037
66	0x3d8368ec	0.06416497
67	0xbd93a79c	-0.07209703
68	0xbd2b49a3	-0.041818272
69	0xbe04b7a5	-0.1296068
70	0xbc979ae0	-0.018506467
71	0xbcd6531a	-0.026162673
72	0x3dc40e83	0.095730804
73	0xbd85bcfa	-0.06530185
74	0xbdecef42	-0.11569072
75	0x3df21622	0.11820628
76	0x3bc9859a	0.0061499598
77	0x3c2af94d	0.0104354145
78	0xbe12db7b	-0.14341538
79	0xbe58d462	-0.21174768
80	0xbd3b5ded	-0.04574387
81	0xbd4c6dee	-0.049909525
82	0xbe5a49e4	-0.2131725
83	0xbbef5b9c	-0.007304622
84	0xbdd32026	-0.10308866
85	0x3db6969c	0.08915445
86	0xbd65da8b	-0.056116622
87	0xbdb2dc09	-0.087333746
88	0x3de8a1c4	0.11358979
89	0x3d927824	0.07151821
90	0xbdc78d1a	-0.0974371
91	0xbbb5d835	-0.0055494555
92	0xbe4b8d0b	-0.19878022
93	0xbdff0819	-0.124527164
94	0xbe067433	-0.13130264
95	0x3e05d633	0.13069992
96	0xbb99cade	-0.004693373
97	0x3cda23e5	0.026628444
98	0xbc183a55	-0.009291251
99	0xbc7b1148	-0.015323944
100	0xbd5faa46	-0.054605745
101	0xbe34906e	-0.1763322
102	0x3d131d04	0.035916343
103	0xbdc9a646	-0.09846167
104	0xbc6f74cd	-0.01461525
105	0xbd2b9540	-0.041890383
106	0xbce2a036	-0.027664285
107	0xbc8786c0	-0.016543746
108	0x3b8795c9	0.004137729
109	0xbe37a062	-0.17932275
110	0x3c6bc6c7	0.014390654
111	0xbd721a91	-0.059107367
112	0xbe609f8a	-0.2193586
113	0x3d1f5456	0.03889879
114	0x3d1ef090	0.038803637
115	0x3bc2c6ba	0.0059441
116	0x3d543ddf	0.051816817
117	0x3baaaf32	0.005208873
118	0x3d2943c8	0.041324407
119	0xbafa8d71	-0.0019115639
120	0xbdb8c4de	-0.090219244
121	0xbda7337d	-0.081641175
122	0xbe4f442f	-0.20240854
123	0xbb7de167	-0.0038739087
124	0x3c4d92ed	0.012547237
125	0x3d120005	0.03564455
126	0x3caad3cf	0.020852951
127	0x3c98987e	0.018627401
128	0x3d5ad68e	0.05342727
129	0x3e0aaf72	0.1354349
130	0xbc9f9049	-0.01947798
131	0x3d013c9d	0.031551946
132	0xbddca7eb	-0.10774215
133	0x3d545ee1	0.051848296
134	0xbe26fd94	-0.1630767
135	0xbe0f9774	-0.14022619
136	0xbde489fe	-0.111591324
137	0x3d5e4d5d	0.054272998
138	0xbd33fb80	-0.04394102
139	0xbd7d0bda	-0.06177888
140	0xbe07f2ec	-0.13276261
141	0x3d41e7d4	0.04734023
142	0xbc3682fb	-0.011139627
143	0x3ca2803e	0.019836541
144	0xbe3a11c2	-0.18170837
145	0xbe3a543b	-0.18196194
146	0x3dfa4594	0.12220302
147	0xbd15a849	-0.036537442
148	0xbe432790	-0.1905806
149	0x3c837bc7	0.016050233
150	0x3d437804	0.047721878
151	0xbd9dae1f	-0.076992266
152	0xbe0bd92d	-0.13657065
153	0x3c054954	0.008135159
154	0x3dc66d10	0.09688771
155	0xbddfdb3e	-0.10930489
156	0x3c0b9c03	0.008521083
157	0xbe2c5cb0	-0.16832232
158	0xbe205cfb	-0.15660469
159	0xbca890a1	-0.020576777
160	0xbb8ab7d0	-0.004233338
161	0x3cff6fac	0.031181179
162	0xbdb7e301	-0.089788444
163	0xbddb2c9f	-0.1070187
164	0xbd74d8c0	-0.05977702
165	0xbdafa389	-0.08576114
166	0xbd84b48c	-0.06479749
167	0xbdbbab8c	-0.09163579
168	0xbabcdbc0	-0.0014408752
169	0xbdc13fce	-0.09435998
170	0x3d152c07	0.03641894
171	0xbd5ba86b	-0.053627413
172	0xbd2c54d4	-0.042073086
173	0x3d62bc52	0.055355377
174	0xbbb64efd	-0.0055636154
175	0x3d14863f	0.03626084
176	0xbbe19c28	-0.0068850704
177	0xbbaddd6e	-0.0053059375
178	0xbc792f4f	-0.015209033
179	0xbe16c07f	-0.14721869
180	0x3dc7612f	0.09735333
181	0xbd9d61a5	-0.0768464
182	0x3d1d07e9	0.03833762
183	0xbe1b6304	-0.1517449
184	0xbda371a0	-0.079806566
185	0xbe1fd740	-0.15609455
186	0xbd1f4e44	-0.038893
187	0xbbd0890c	-0.0063639935
188	0x3d9ae9c6	0.0756412
189	0xbda25dca	-0.07928045
190	0xbc9c773c	-0.019099824
191	0xb8aff7b1	-8.3907864e-05
192	0xbd38eb2d	-0.045146156
193	0x3db74414	0.08948532
194	0x3c1c02f2	0.009522187
195	0xbe11e888	-0.1424886
196	0x3d40b9ef	0.04705232
197	0xbc7f18f1	-0.015569911
198	0xbd0f7e62	-0.035032637
199	0xbdd97877	-0.1061868
200	0xbd0bfdad	-0.03417747
201	0x3dfed120	0.12442231
202	0xbe28798a	-0.16452613
203	0xbcbbf437	-0.0229436
204	0xbd07e56c	-0.033177778
205	0x3c1eed63	0.009700152
206	0x3dcc44c0	0.099740505
207	0xbe3356bc	-0.17513555
208	0x3c880d6a	0.016607959
209	0x3bbed8bc	0.0058241766
210	0x3deab356	0.11459987
211	0xbd70177c	-0.058616146
212	0xbd59c449	-0.053165708
213	0xbe095abf	-0.13413523
214	0xbe238557	-0.15968834
215	0xbc920fd0	-0.017829806
216	0x3cc2ba85	0.02377058
217	0x3d2493f1	0.04018015
218	0xbe542148	-0.20715821
219	0x3d46bb34	0.048518375
220	0xbd0b6789	-0.034034286
221	0xbdf3e938	-0.11909717
222	0x3dba5ffd	0.091003396
223	0xbdbcd287	-0.092198424
224	0x3d786a95	0.06064852
225	0xbda982d3	-0.08276906
226	0x3c90db9b	0.017682841
227	0xbb00342c	-0.0019562347
228	0xbe0a834d	-0.1352665
229	0xbde469e9	-0.11153013
230	0xbcdb5c49	-0.026777403
231	0xbd8d22fa	-0.06891437
232	0x3ce23977	0.027615292
233	0xbcdf25b3	-0.027239656
234	0xbe1cb896	-0.15304789
235	0x3c7cd79d	0.015432266
236	0xbe12e6a0	-0.14345789
237	0xbc2ac488	-0.010422833
238	0x3c8d2dbe	0.017233726
239	0x3d91d9b4	0.07121602
240	0xbdfdc967	-0.1239193
241	0x3d71966e	0.05898135
242	0xbe12603b	-0.14294522
243	0xbe46e865	-0.19424589
244	0x3da9f83b	0.08299299
245	0xbd47f3ef	-0.048816618
246	0x3db087b6	0.08619635
247	0x3cf3ebf5	0.029775599
248	0xbc69d5b9	-0.014272147
249	0x3d89734e	0.06711446
250	0xbe438ff2	-0.1909788
251	0xbe796e3c	-0.24358457
252	0xbd7ae3b3	-0.061252307
253	0x3d21231e	0.03934013
254	0xbe3d5a19	-0.18491401
255	0xbcd10f85	-0.025520096

encoder.1.running_mean f4 [256]
0	0xbdca4204	-0.09875873
1	0xbc2882cf	-0.010285093
2	0x401f04f9	2.4846785
3	0xbd480e20	-0.048841596
4	0xbeea9723	-0.45818433
5	0x3d1caa2a	0.03824822
6	0x3dd5a44f	0.1043173
7	0x3e00f7ba	0.125945
8	0x3e28348d	0.16426297
9	0x40176f5e	2.3661723
10	0xbd257cca	-0.04040221
11	0xbdfb3720	-0.12266374
12	0x3e4d191e	0.20029113
13	0x3c9e750d	0.019342924
14	0xbd0fd155	-0.035111744
15	0x3d247ace	0.04015618
16	0x3e26ade0	0.16277266
17	0xbe3712a6	-0.17878208
18	0x3e760953	0.24026994
19	0xbd5e3a9f	-0.054255124
20	0xbe6e97ef	-0.23300146
21	0x3eca300d	0.39489785
22	0x3d37ef6b	0.04490606
23	0x3e12f99f	0.14353035
24	0xbe35cc73	-0.17753772
25	0xbd63be18	-0.05560121
26	0x3d9e3f9c	0.07726976
27	0x3b41f322	0.0029594381
28	0x3d89a891	0.067216046
29	0x3eb234a0	0.34805775
30	0x3d9f6013	0.077819966
31	0x3d875218	0.06607455
32	0x3bca53da	0.0061745467
33	0x3e1ea926	0.15494213
34	0x3de0bc27	0.10973387
35	0x3be873dc	0.0070938896
36	0x3dc98fb6	0.09841864
37	0x3c5a4182	0.013321282
38	0x3ddc60f3	0.10760679
39	0xbe3dde5c	-0.18541855
40	0x3e4c1b19	0.19932212
41	0x3e74726e	0.23871776
42	0x3e5a6cc3	0.21330552
43	0x3ed8f4c9	0.42374256
44	0xbe96e6d1	-0.29472974
45	0xbea3181b	-0.3185433
46	0x3db195ce	0.08671151
47	0x3c65ca3e	0.014025269
48	0xbcb0fd21	-0.021605076
49	0x3daa202c	0.083069175
50	0x3ed78a24	0.4209758
51	0xbd7c9268	-0.06166306
52	0x3db761a1	0.08954168
53	0xbd4062b1	-0.04696912
54	0xbefad609	-0.4899142
55	0x3dfe0e53	0.12405076
56	0x3de83029	0.11337311
57	0xbd0875f4	-0.033315614
58	0x3db015a0	0.08597875
59	0x3b3e434d	0.0029031814
60	0x3ea2359b	0.31681523
61	0xbe154c8d	-0.14579983
62	0x3e3de8f2	0.18545893
63	0x3e0d64aa	0.13807932
64	0xbe642287	-0.22278796
65	0x3ebfbe53	0.37449893
66	0x3e89d660	0.26921368
67	0x3e3f9d7b	0.18712418
68	0xbd9184a2	-0.07105376
69	0x3d4b6c04	0.04966356
70	0xbecfd6b3	-0.4059349
71	0x3d129b88	0.035792857
72	0x3d9a3c8e	0.07531081
73	0xbde4bd88	-0.11168963
74	0x3e01e0b5	0.12683375
75	0xbe84b653	-0.25920352
76	0x3dd7dc9c	0.10540125
77	0xbe82b0bb	-0.2552546
78	0xbe03aa62	-0.12857965
79	0x3cdfb9e1	0.027310314
80	0xbe1f9d93	-0.15587454
81	0x3c3d6ab3	0.011561084
82	0x3e4be675	0.19912131
83	0x3e40810b	0.18799226
84	0xbd000d40	-0.031262636
85	0x3e289a8f	0.1646521
86	0xbcc1d28d	-0.023659969
87	0x3e4c925f	0.19977711
88	0x3d0486a2	0.03235496
89	0x3e918081	0.28418353
90	0x39aabe2e	0.00032566622
91	0x3da48ac2	0.080342785
92	0xbe07904d	-0.1323864
93	0x3d353b59	0.04424605
94	0x3d4ccc29	0.04999939
95	0xbe8cc61f	-0.27494904
96	0xbdf5505a	-0.119782165
97	0xbee711e7	-0.45130846
98	0xbeda2b29	-0.42611054
99	0x3df0a34a	0.11749895
100	0x3c9f594c	0.01945176
101	0x3db7e866	0.08979873
102	0x3bcc0f16	0.0062273843
103	0x3e80212e	0.25025314
104	0xbd4a1cb0	-0.049343765
105	0x3d8721cb	0.06598242
106	0x3e64b8f4	0.22336179
107	0xbd90ea3d	-0.070759274
108	0xbd8628c5	-0.06550745
109	0x3cce55fe	0.025187489
110	0x3e232851	0.15933348
111	0x3dc06f96	0.09396283
112	0x3e745790	0.23861527
113	0x3e8b6a1a	0.27229387
114	0x3de7aa63	0.113117956
115	0x3e1b0fd1	0.15142752
116	0x3e70b11a	0.23505059
117	0xbf1b8f9c	-0.60766006
118	0xbd3235ae	-0.043508224
119	0xbee2115d	-0.44153872
120	0xbc784267	-0.01515255
121	0x3ebd8b6f	0.37020442
122	0xbf7c1157	-0.9846396
123	0x3e540852	0.20706299
124	0xbdd1e127	-0.102480225
125	0xbe7414e3	-0.23836093
126	0x3dc3e583	0.0956526
127	0x3d0a6a84	0.033792987
128	0xbd5cf1a0	-0.05394137
129	0xbe5f0955	-0.21780904
130	0xbe8a0027	-0.2695324
131	0x3e05fde1	0.13085128
132	0x3d9501cf	0.072757356
133	0xbde804ec	-0.11329064
134	0xbe0826b5	-0.13296016
135	0xbe801bdd	-0.25021258
136	0x3bd85f2d	0.0066031427
137	0x3e117977	0.14206491
138	0x3ea86d37	0.32895824
139	0x3dce601b	0.100769244
140	0x3e0f5a90	0.1399939
141	0xbd9b8b0c	-0.075948805
142	0xbeac4e65	-0.3365356
143	0x3d9a45fb	0.07532879
144	0xbf5a58ba	-0.85291636
145	0x3cfd99ad	0.030957067
146	0x3d914a5f	0.07094263
147	0xbd53d41e	-0.051715963
148	0xbf6a9c7d	-0.9164503
149	0x3e587571	0.2113855
150	0x3dc99cb7	0.09844344
151	0x3de53949	0.11192567
152	0x3e18eadf	0.14933346
153	0x3e1aae77	0.15105616
154	0x3e34a448	0.17640793
155	0xbde7f40f	-0.11325847
156	0xbda2480a	-0.079238966
157	0xbf0168d1	-0.5055056
158	0xbd433f28	-0.047667652
159	0x3f10409c	0.56348586
160	0xbdf15199	-0.11783142
161	0x3c8d2078	0.017227396
162	0x3e634900	0.22195816
163	0xbc84c2a8	-0.0162061
164	0xbdbf84d3	-0.09351506
165	0x3e461f80	0.19347954
166	0xbd9bcbc8	-0.076072276
167	0x3e5f05be	0.21779534
168	0x3d549cbb	0.051907282
169	0x3d3c7160	0.04600656
170	0x3e26b799	0.16280974
171	0x3ed76fdf	0.42077538
172	0xbdaedbd6	-0.08538024
173	0xbf23762b	-0.63852185
174	0x3e30c482	0.17262462
175	0x3ab4adb4	0.0013784678
176	0x3e6ccdc8	0.23125374
177	0x3dafc8fa	0.08583255
178	0xbdd2c6b5	-0.102918066
179	0x3e6f0381	0.2334118
180	0xbdecaee5	-0.11556796
181	0x3f0d6a3b	0.5524022
182	0x3dea67b4	0.11445561
183	0xbeccbe88	-0.39989114
184	0x3e4f5f1f	0.2025113
185	0xbbcf3886	-0.006323877
186	0xbe216b7e	-0.15763661
187	0x3deff6a2	0.11716963
188	0x3dd5fe80	0.10448933
189	0x3e6e9a13	0.23300962
190	0x3e8e133a	0.27749044
191	0x3fa0abbe	1.2552412
192	0x3d75a3cd	0.059970666
193	0xbe9cdf6a	-0.306392
194	0x3c8b0bd1	0.016973408
195	0xbb31db95	-0.0027138938
196	0x3e7b4cce	0.24541017
197	0xbdb1877c	-0.0866842
198	0xbe919ef8	-0.28441596
199	0x3e40c06f	0.18823408
200	0x3da36fbf	0.07980298
201	0xbe53d4bb	-0.20686619
202	0x3d803274	0.06259623
203	0x3e4a227b	0.19739716
204	0xbd875adb	-0.06609126
205	0x3e243876	0.16037163
206	0x3f02efa3	0.51146907
207	0xbd6ea120	-0.05825913
208	0xbe296251	-0.16541411
209	0xbddfb040	-0.10922289
210	0x3d724827	0.05915084
211	0x3f75deb7	0.9604296
212	0xbddc622b	-0.107609116
213	0xbed1721e	-0.40907377
214	0xbdbb0d8d	-0.09133444
215	0x3ea96746	0.33086604
216	0xbccf827f	-0.02533078
217	0x3e3c8620	0.1841054
218	0xbdeeb572	-0.11655702
219	0xbe408d31	-0.1880386
220	0x3db11fa7	0.08648615
221	0xbd084f76	-0.033278905
222	0xbeb82dd3	-0.3597246
223	0x3e42a10c	0.19006747
224	0x3ec156cc	0.37761533
225	0x3c09b317	0.008404515
226	0xbe125fbe	-0.14294335
227	0x3dd2489d	0.10267756
228	0x3e74a37a	0.23890486
229	0x3aa098f1	0.0012252611
230	0x3e1d8b38	0.15385139
231	0x3e444602	0.19167331
232	0x3e4e820c	0.20166796
233	0x3e95358f	0.29142424
234	0x3d98d951	0.07463325
235	0x3e255421	0.16145374
236	0x3e0412ca	0.12897792
237	0xbd16b55e	-0.03679406
238	0xbec4e4b4	-0.38455737
239	0x3d57fcc4	0.05273129
240	0x3e967196	0.29383534
241	0x3cc35652	0.023844872
242	0x3e38e695	0.1805671
243	0x3d64d87c	0.055870518
244	0x3d18fe1d	0.037351716
245	0xbe94a3b3	-0.29031143
246	0xbebf6642	-0.37382704
247	0x3e004d69	0.1252953
248	0xbe418c6a	-0.1890122
249	0x3c21a5a2	0.00986615
250	0xbf124531	-0.5713683
251	0x3e6be746	0.23037443
252	0x3dbde349	0.09271867
253	0x3d11aea6	0.03556695
254	0x3dce6077	0.10076993
255	0x3ceb671e	0.028735694

encoder.1.running_var f4 [256]
0	0x40a6261f	5.1921535
1	0x4088d4d3	4.2759795
2	0x4353a7c8	211.6554
3	0x405a6109	3.4121726
4	0x41250290	10.313126
5	0x4083bf32	4.1170893
6	0x406ed7df	3.7319257
7	0x4101475a	8.07992
8	0x40a31e8c	5.097479
9	0x4360a22c	224.63348
10	0x40ae457a	5.445981
11	0x4077dd08	3.8728657
12	0x40bd4e7f	5.915832
13	0x4083797f	4.108581
14	0x40bd213c	5.910307
15	0x408e964b	4.4558463
16	0x408d8763	4.4227767
17	0x40953d00	4.6636963
18	0x41271e24	10.444859
19	0x404435dc	3.0657873
20	0x417109ec	15.064922
21	0x40c537c8	6.163059
22	0x40860836	4.1885023
23	0x40d07f53	6.5155425
24	0x4039e313	2.9044845
25	0x4039b8a4	2.9018946
26	0x4050984e	3.259296
27	0x40a0966e	5.018363
28	0x40901f7f	4.5038447
29	0x40a87b8d	5.265082
30	0x40a1a433	5.051294
31	0x40c38cbf	6.110931
32	0x4126244a	10.38386
33	0x405e70f2	3.4756436
34	0x40a5b94c	5.1788692
35	0x40854499	4.1646237
36	0x406e968b	3.7279384
37	0x40343e28	2.8162937
38	0x41154ee5	9.331761
39	0x406ef11f	3.7334669
40	0x40fe9c03	7.9565444
41	0x41098628	8.595253
42	0x40ca33d6	6.3188276
43	0x4133755b	11.216151
44	0x40d010c6	6.5020475
45	0x40ba2cb4	5.817957
46	0x40a08859	5.016644
47	0x4092d9e2	4.589097
48	0x40594579	3.3948653
49	0x402d4841	2.707535
50	0x412eb6f1	10.919663
51	0x40685bd5	3.630605
52	0x408eea13	4.4660735
53	0x40825677	4.073055
54	0x41493cdd	12.577359
55	0x4044fb41	3.0778353
56	0x41189c4d	9.538159
57	0x40582524	3.377267
58	0x40c5bffc	6.1796856
59	0x40b25917	5.573375
60	0x40f50b99	7.6576657
61	0x4085e76e	4.1845007
62	0x40a62526	5.1920347
63	0x40a72981	5.2238164
64	0x4050f53a	3.2649674
65	0x4106ccfa	8.425043
66	0x40ed143a	7.408719
67	0x40750a86	3.8287673
68	0x40443b14	3.0661058
69	0x40a8d09e	5.275466
70	0x4120ca64	10.049412
71	0x40bfefdb	5.998029
72	0x4115a137	9.351859
73	0x402ea3cd	2.7287476
74	0x4076e8cf	3.8579595
75	0x40aec5e7	5.461658
76	0x40a3d001	5.119141
77	0x409a59cc	4.8234615
78	0x403fe82a	2.9985452
79	0x40b18619	5.5476193
80	0x400b9f30	2.181591
81	0x40ab6018	5.35548
82	0x40d5ce6a	6.681447
83	0x40893e25	4.288836
84	0x4073bcee	3.8084064
85	0x4087ec0f	4.2475657
86	0x40ee6ec9	7.4510236
87	0x408617e4	4.1904163
88	0x41043e23	8.26517
89	0x4107f855	8.498128
90	0x40e33bff	7.1010737
91	0x40817956	4.0460615
92	0x40636756	3.5531821
93	0x409e21c7	4.941623
94	0x4019c358	2.4025478
95	0x40fac9f1	7.837151
96	0x40dfe464	6.9966297
97	0x414e6c41	12.901429
98	0x413850a6	11.51969
99	0x40a5bb4e	5.1791143
100	0x4082dfe6	4.0898314
101	0x408545c3	4.164766
102	0x41236bb4	10.213795
103	0x405ca777	3.4477212
104	0x407f0d3c	3.9851828
105	0x40c5c16a	6.17986
106	0x40f26933	7.5753417
107	0x40924b31	4.5716786
108	0x40eca4a3	7.3950973
109	0x402c5497	2.692663
110	0x40942119	4.6290402
111	0x40b2f344	5.5921955
112	0x40ec492c	7.383932
113	0x40e4ea65	7.1536126
114	0x40bf4cb4	5.978113
115	0x40cc2bb2	6.380334
116	0x40e892e2	7.26793
117	0x41eaa232	29.329197
118	0x40ddadaa	6.927449
119	0x411baa94	9.729145
120	0x4081ad61	4.0524144
121	0x40ecfda8	7.405964
122	0x422940ba	42.31321
123	0x4112ee03	9.183108
124	0x40964716	4.6961775
125	0x40bb7582	5.858094
126	0x40afc952	5.493325
127	0x408959aa	4.2921953
128	0x40b05647	5.510532
129	0x40eedef7	7.4647174
130	0x41285e91	10.5230875
131	0x4095c646	4.6804533
132	0x403611be	2.844833
133	0x40861a57	4.1907153
134	0x4086aaec	4.2083645
135	0x411bbf81	9.734254
136	0x40a138d0	5.038185
137	0x40cab742	6.3348703
138	0x4117723f	9.465392
139	0x404959dd	3.1461098
140	0x40aee045	5.4648767
141	0x409c9684	4.8933735
142	0x4112f788	9.185432
143	0x4090da7d	4.526671
144	0x41df1c5e	27.888851
145	0x40924505	4.570925
146	0x408a5815	4.323252
147	0x40508442	3.2580724
148	0x42193ccd	38.309376
149	0x408a6267	4.324512
150	0x413fe3fc	11.99316
151	0x40b49f2e	5.644431
152	0x4060d60f	3.513065
153	0x410b19f7	8.693839
154	0x4089ce71	4.3064504
155	0x402117ff	2.5170896
156	0x40d84252	6.7580957
157	0x41871afd	16.888178
158	0x40a413f3	5.127435
159	0x418cfc95	17.623331
160	0x40b92dbd	5.7868333
161	0x40ab368f	5.35041
162	0x409cfdc9	4.9059796
163	0x409671d4	4.701395
164	0x408377cf	4.108375
165	0x40d64f8c	6.6972103
166	0x40f5b192	7.677926
167	0x41092fef	8.574203
168	0x40a233a0	5.068802
169	0x409a6397	4.824657
170	0x4077195a	3.8609223
171	0x41674ce1	14.456269
172	0x4073da7b	3.81021
173	0x41a30f55	20.382486
174	0x40ae0fb2	5.439416
175	0x4091386d	4.538138
176	0x408e7ce1	4.452744
177	0x4090cda5	4.525103
178	0x40cc0696	6.375804
179	0x409572da	4.67027
180	0x40b38d2b	5.6109824
181	0x41426bfe	12.151365
182	0x409fdae1	4.9954686
183	0x409f9d37	4.9879413
184	0x4113a591	9.2279215
185	0x4055c652	3.3402295
186	0x408c711b	4.388807
187	0x40c7e171	6.2462697
188	0x40a29524	5.0807056
189	0x40ee7126	7.451312
190	0x410824c2	8.508974
191	0x428b75ec	69.730316
192	0x4066d4b8	3.6067333
193	0x41881550	17.010406
194	0x40ac2536	5.3795424
195	0x407ffba3	3.9997337
196	0x40b9eb04	5.8099384
197	0x409738c2	4.7256784
198	0x415307d8	13.189415
199	0x40a3df67	5.121021
200	0x40cc20b5	6.3789926
201	0x410047e4	8.017551
202	0x407ee401	3.9826663
203	0x40d301c7	6.593967
204	0x407e68f3	3.9751556
205	0x4080c8cc	4.0245113
206	0x4170ca92	15.049456
207	0x40477d7d	3.1170342
208	0x40a6ac56	5.208537
209	0x4082ebef	4.0913005
210	0x40938d86	4.611026
211	0x41c78202	24.93848
212	0x40881c46	4.2534513
213	0x41634fa5	14.206944
214	0x407c5a20	3.9430008
215	0x40db2444	6.848177
216	0x40cfe22b	6.4963584
217	0x404c211a	3.1895204
218	0x40d4bb9a	6.6479006
219	0x40beeb0c	5.9661922
220	0x40ffd717	7.995006
221	0x40d14601	6.5397954
222	0x40cee6a7	6.465656
223	0x40f69336	7.70547
224	0x411be099	9.742333
225	0x4084af0f	4.1463695
226	0x4096a42f	4.707542
227	0x408f89fc	4.485594
228	0x411c7a6a	9.779886
229	0x40bd90ae	5.923911
230	0x4085028f	4.1565623
231	0x40975fa9	4.7304273
232	0x40b6afc1	5.7089543
233	0x410852ee	8.5202465
234	0x408c0ccd	4.3765626
235	0x40b7d484	5.744692
236	0x40be50e3	5.947374
237	0x40814ce8	4.040638
238	0x415b09fc	13.689938
239	0x40eff68d	7.4988465
240	0x40f1155b	7.533857
241	0x40f2f638	7.592556
242	0x403e8092	2.9765973
243	0x40fe6796	7.950145
244	0x40e79833	7.237329
245	0x4111f8c5	9.123235
246	0x4132d47c	11.176876
247	0x40a320c1	5.0977483
248	0x4065b305	3.5890515
249	0x409a15ea	4.815175
250	0x40faf17f	7.8419795
251	0x40972d17	4.724254
252	0x40a4910d	5.1427064
253	0x40b43ffc	5.6328106
254	0x408521d8	4.1603813
255	0x409d1c93	4.909738

encoder.4.weight f4 [128, 256]
0	0x3ca2242a	0.019792635
1	0xbb968462	-0.004593418
2	0x3c84c4b2	0.016207073
3	0xbd57e094	-0.05270441
4	0x3c1a6540	0.009423554
5	0xbd2234c7	-0.039601114
6	0xbb00d3de	-0.0019657533
7	0x3d60aae1	0.054850463
8	0x3c89b647	0.01681055
9	0x3b3b9eb8	0.002862854
10	0x3c86bbbd	0.016446942
11	0x3d37a802	0.04483796
12	0xbe1565da	-0.14589635
13	0x3d7849fc	0.060617432
14	0x3cfbb053	0.030723726
15	0x3dbce906	0.09224133
16	0x3d5d14dd	0.053974975
17	0xbb1d98f2	-0.0024047461
18	0x3d614e45	0.055006284
19	0xbd644bbc	-0.05573629
20	0xbd89ba43	-0.0672498
21	0x3c93d9c0	0.018048167
22	0xbdd17b05	-0.10228542
23	0x3d29b43f	0.04143166
24	0x3cb07dd2	0.02154437
25	0xbd37c2d2	-0.04486353
26	0x3d42fd92	0.047605105
27	0x3dbbedf6	0.09176247
28	0xbc7b1a35	-0.015326072
29	0xbd56c437	-0.05243322
30	0x3d7c5110	0.061600745
31	0xbc82b0d5	-0.01595346
32	0x3c2678bc	0.010160621
33	0xbd7e2f1b	-0.062056642
34	0xbd114522	-0.03546632
35	0xbd8e0b4a	-0.06935747
36	0x3d286c9b	0.0411192
37	0xbddb0cfd	-0.10695837
38	0x3d029294	0.03187807
39	0xbca95dab	-0.020674547
40	0xbd0ba7dc	-0.03409563
41	0xbd25e132	-0.040497966
42	0xbd6b6035	-0.057464797
43	0xbd8c3590	-0.06846154
44	0xbdf06b8d	-0.11739264
45	0xbcc6c85f	-0.024265466
46	0xbbe6e338	-0.0070461296
47	0x3cbe9c3b	0.023267856
48	0x3bc268a1	0.005932883
49	0x3d8239b8	0.06358665
50	0xbdf94d99	-0.12173004
51	0xbb794304	-0.003803433
52	0x3cfc06be	0.030764934
53	0x3d45dfaf	0.048309024
54	0xbcaeb859	-0.021328138
55	0x3c63e890	0.013910428
56	0x3ca7de08	0.020491615
57	0x3c0909df	0.00836417
58	0x3cd21cfd	0.025648588
59	0x3d20f6ed	0.039297987
60	0xbd16db44	-0.0368302
61	0xbd5c102e	-0.053726368
62	0xbdb6b74d	-0.089216806
63	0x3d94bab0	0.0726217
64	0xbb3d34f4	-0.0028870674
65	0xbdd1d0d3	-0.10244908
66	0xbd544500	-0.051823616
67	0x3c07b587	0.008283026
68	0xbd1c2258	-0.03811869
69	0xbe128a44	-0.14310557
70	0xba457c00	-0.0007533431
71	0xbdb2d2a3	-0.08731582
72	0xbdeaa788	-0.11457735
73	0xbafcf50a	-0.0019299102
74	0xbd5885df	-0.052862044
75	0x3b9e7582	0.0048357854
76	0x3cf5dbc7	0.030012025
77	0xbd8794a7	-0.0662015
78	0xbc82cbdd	-0.01596635
79	0xbd058d36	-0.032605372
80	0xbd82d310	-0.06387913
81	0x3a199581	0.00058587646
82	0x3d858244	0.06518987
83	0x3dc0dacd	0.09416733
84	0x3c8f3f15	0.017486135
85	0xbdb20272	-0.08691873
86	0xbb8d6a6c	-0.004315665
87	0xbdac9a0a	-0.08427818
88	0xbd06a5d1	-0.03287298
89	0xbd8f24d0	-0.06989443
90	0x3dbb3f4f	0.091429345
91	0xbc1d9fc0	-0.009620607
92	0x39292a0a	0.00016132757
93	0xbd6554cb	-0.055989068
94	0x3ca18aa7	0.019719435
95	0x3d95243a	0.072823
96	0xbcc0488a	-0.02347209
97	0xbdb1982c	-0.086716026
98	0xbd64f9b4	-0.055902198
99	0x3cdc774b	0.026912352
100	0x3c435075	0.011921038
101	0x3c5bae3a	0.013408238
102	0x3d8a56f8	0.06754869
103	0x3cd63917	0.02615027
104	0x3d96201e	0.073303446
105	0x3dac40bd	0.08410785
106	0x3cae1335	0.021249393
107	0xbdc81f98	-0.09771651
108	0x3c25193f	0.01007682
109	0x3d312e45	0.043257017
110	0x3d2c0742	0.04199911
111	0xbabf87f4	-0.0014612661
112	0xbc662d68	-0.014048912
113	0x3bfa053b	0.007630018
114	0x3c80778b	0.015682003
115	0xbcfd3809	-0.030910509
116	0xbe1f35ea	-0.1554791
117	0xbd652704	-0.05594541
118	0x3d11c6c4	0.03558995
119	0xbd1b8c7c	-0.037975773
120	0xbcf3ee9e	-0.029776867
121	0x3db883e1	0.09009529
122	0xbd2ef744	-0.04271628
123	0x3cb2a9d6	0.0218095
124	0x3c03b9f2	0.008039938
125	0xbd45eb56	-0.048320137
126	0x3d789f39	0.06069872
127	0x3c16aded	0.009196741
128	0xbd82abdc	-0.06380436
129	0xbc53a292	-0.012917178
130	0xbdc002b5	-0.09375516
131	0xbd82818b	-0.063723646
132	0xbe02c13f	-0.1276903
133	0xbd31213e	-0.043244593
134	0xbcc89b8e	-0.024488237
135	0xbd896a88	-0.06709772
136	0xbb8d90e7	-0.004320252
137	0x3c610be0	0.013735741
138	0x3d410a62	0.047129042
139	0x3d2aa606	0.04166224
140	0xbd09d6d0	-0.033652127
141	0x3c8bc3d6	0.017061155
142	0xbcb06150	-0.021530777
143	0xba871a0c	-0.0010307445
144	0x3d321496	0.043476664
145	0xbd67e6ab	-0.056616466
146	0xbd3384ad	-0.0438277
147	0xbda901c4	-0.0825229
148	0x3beedb15	0.0072893
149	0xbd89a484	-0.06720832
150	0x3d7ad881	0.06124163
151	0x3d24152a	0.040059246
152	0x3d249967	0.04018536
153	0x3da1eff6	0.07907097
154	0x3d6b1169	0.05738965
155	0xbc113327	-0.008862293
156	0xbd2ab811	-0.041679446
157	0x3b82c62f	0.0039909105
158	0xbd47816c	-0.04870741
159	0x3d2e95eb	0.04262344
160	0x3c998b76	0.018743258
161	0xbc69b418	-0.014264129
162	0x3c89cc0d	0.016820932
163	0xbb9ffb07	-0.0048822197
164	0xbcf1cf2d	-0.029517734
165	0xbe13470a	-0.14382568
166	0x3dde4e55	0.108547844
167	0x3d982100	0.07428169
168	0xbd12c7b4	-0.035834983
169	0x3b6a8529	0.0035784936
170	0x3d74b11c	0.059739217
171	0x3bc3084f	0.005951918
172	0xbba5224f	-0.0050394903
173	0xbdb6e0ec	-0.08929619
174	0x3d2ef500	0.04271412
175	0x3c9f1fdb	0.01942437
176	0x3d35e24a	0.04440526
177	0xbdfcb3f1	-0.123390086
178	0x3d0c27d4	0.03421767
179	0xbc4114f8	-0.0117847845
180	0x3a86a255	0.0010271767
181	0xbd4214df	-0.047383185
182	0xbda840ff	-0.08215522
183	0xbdb85b6d	-0.09001813
184	0x3c9ad896	0.018902104
185	0xbde5aaef	-0.112142436
186	0xbbb279b0	-0.005446635
187	0xbda2a169	-0.07940943
188	0xbd68cff0	-0.05683893
189	0xbd9374c7	-0.07200008
190	0xbc0ca2f4	-0.008583773
191	0x3cc341b1	0.023835035
192	0x3cf3663c	0.029711835
193	0xbe0a67b1	-0.13516118
194	0x3dc1a875	0.09455959
195	0xbd2fd126	-0.04292407
196	0x3d204807	0.03913119
197	0x3ca3a5cc	0.019976519
198	0xbdb36d1b	-0.087610446
199	0xbc8ee0f8	-0.017441258
200	0xbdce5419	-0.10074634
201	0x3d6903ab	0.056888264
202	0xbdb19212	-0.08670439
203	0x3d0cb96b	0.034356516
204	0x3bd3c9c0	0.0064632595
205	0xbc3ceddb	-0.011531319
206	0xbdb85e89	-0.09002406
207	0xbddfd203	-0.109287284
208	0xbe212693	-0.15737371
209	0x3dca3670	0.098736644
210	0xbd4f6e81	-0.050642494
211	0xbd6456c2	-0.0557468
212	0x3d5ee256	0.05441507
213	0xbc2d7da7	-0.01058904
214	0xbd8c816d	-0.068606235
215	0xbcc61965	-0.02418203
216	0x3c9ec561	0.019381227
217	0x39e6c369	0.0004401461
218	0xbcc13cf2	-0.023588631
219	0xbd0c7a98	-0.034296602
220	0x3d4a424f	0.049379643
221	0xbba97b10	-0.005172141
222	0x3c81f4af	0.015863745
223	0x3ae34408	0.0017339
224	0x3cd9f836	0.026607614
225	0xbc13b129	-0.009014406
226	0x3dccfc7d	0.10009096
227	0xbda1c82b	-0.07899507
228	0xbd2975e5	-0.0413722
229	0xbdc7c8ac	-0.09755072
230	0x3d2b9355	0.041888554
231	0xbd7866e6	-0.060645007
232	0xbde17900	-0.11009407
233	0x3c1f87ab	0.009736936
234	0x3dd685a4	0.10474709
235	0x3c389772	0.011266576
236	0xbc350b10	-0.011050001
237	0x3c486980	0.012232184
238	0xbe276930	-0.1634872
239	0x3ccdfbca	0.025144476
240	0x3d35122a	0.044206776
241	0x3d903fdc	0.0704343
242	0x3cebaabf	0.028767942
243	0xbc95d0a8	-0.018287972
244	0xbd5a95ca	-0.053365506
245	0x3cca5246	0.024697434
246	0xbdd449b4	-0.1036562
247	0x3cf38da2	0.029730622
248	0xbde9e57a	-0.11420722
249	0xbc5580a4	-0.013031159
250	0xbdbd2d2b	-0.09237131
251	0x3b4f8acc	0.0031668423
252	0x3c73f01b	0.014888789
253	0xbd60bbf9	-0.054866765
254	0xbd7c7c88	-0.0616422
255	0xbdb48e9e	-0.088162646

encoder.4.bias f4 [128]
0	0x3d00a712	0.03140933
1	0xbc881a1b	-0.01661401
2	0x3c787031	0.015163467
3	0x3d78d5cd	0.06075077
4	0xbafe4fbe	-0.0019402427
5	0x3c8d3a53	0.017239725
6	0xbd3564a9	-0.04428545
7	0x3cb766d0	0.022387892
8	0x3d352983	0.04422904
9	0xbb8fbb80	-0.0043863654
10	0xbd585564	-0.05281581
11	0xbc675caf	-0.014121219
12	0x3d57901e	0.052627675
13	0xbd0409d7	-0.032235947
14	0xba4d1dfc	-0.00078245974
15	0xbd081a9b	-0.033228498
16	0x3cf69fbf	0.03010547
17	0x3d6a8d90	0.05726391
18	0xbca29942	-0.01984847
19	0xbd78e969	-0.060769472
20	0xbcd6a4c1	-0.026201608
21	0xbd62db8b	-0.055385154
22	0x3d6feae3	0.058573615
23	0x3d18d00f	0.037307795
24	0xbcd6ea30	-0.026234716
25	0x3d597b47	0.053096082
26	0xbd1829db	-0.03714929
27	0xbd4051ce	-0.046953015
28	0xbbc60885	-0.006043496
29	0x3d64cbef	0.05585855
30	0x3d51ccc6	0.051220678
31	0x3d56bb9b	0.05242501
32	0x3d3efa1b	0.046625238
33	0x3d82cb8e	0.06386481
34	0xbc3d0641	-0.011537136
35	0xbcb8537a	-0.022500742
36	0x3bb0cd97	0.005395602
37	0x3d72c424	0.059269086
38	0xbd5887eb	-0.052863996
39	0x3b33d9d0	0.0027443059
40	0x3d714e61	0.05891264
41	0xb89b7f0d	-7.414641e-05
42	0xbd8033bd	-0.06259868
43	0xbd512ada	-0.051066257
44	0xbc307b47	-0.010771579
45	0xbd4e12b4	-0.050310805
46	0x3d4ce2f2	0.05002112
47	0x3d35046a	0.044193663
48	0x3c35b2da	0.011090005
49	0x3c30da2b	0.010794203
50	0xbc9fcd41	-0.019507052
51	0xbd5db4be	-0.054127447
52	0x3d3c2bfd	0.045940388
53	0x3cec0bec	0.028814279
54	0xbd57ca22	-0.052683003
55	0x3c8fb61f	0.017542897
56	0x3c4d3d51	0.012526826
57	0xbd12e034	-0.035858348
58	0xbc91a8d1	-0.017780693
59	0x3d35feb6	0.044432364
60	0xbc43e8c9	-0.011957356
61	0xbd35b506	-0.04436209
62	0xbd423ff3	-0.047424268
63	0x3d206553	0.03915913
64	0xbc410eca	-0.011783311
65	0x3d4957f0	0.04915613
66	0xbca61c28	-0.020277098
67	0x3cffeae7	0.03123994
68	0xbd710381	-0.058841232
69	0xbcba6f16	-0.022758048
70	0xbcd7ab0b	-0.026326677
71	0x3d1fff6e	0.039061956
72	0x3d374ca5	0.04475083
73	0x3d5ce13c	0.053925738
74	0x3d443e30	0.04791087
75	0xbc0fce0d	-0.008777154
76	0xbd230ee6	-0.03980913
77	0x3cf435d0	0.029810816
78	0x3c18971e	0.009313373
79	0xbd655236	-0.055986606
80	0x3d4c6e1c	0.049909696
81	0x3c1e70f2	0.009670483
82	0xbd0b8b4a	-0.034068383
83	0x3c0db3dd	0.00864884
84	0xbc4d70c1	-0.01253909
85	0x3cf35f14	0.029708423
86	0x3d75fd02	0.06005574
87	0x3d6404c3	0.055668604
88	0xbd2348bd	-0.03986429
89	0xbd40df13	-0.04708774
90	0xbd34bb7f	-0.044124123
91	0xbbba5d88	-0.0056874193
92	0xbd38f922	-0.045159467
93	0x3d0c88af	0.03431004
94	0x3bd5587e	0.006510793
95	0x3b7f3122	0.0038939198
96	0x3ba03d42	0.004890115
97	0xbd0b66f0	-0.034033716
98	0xbd339a4e	-0.04384833
99	0x3b15f067	0.0022878887
100	0xbbf258d4	-0.007395843
101	0x3d3a1f49	0.045439992
102	0xbd31bef0	-0.043394983
103	0x3c765013	0.01503374
104	0xbd336830	-0.043800533
105	0xbba6a20b	-0.005085235
106	0x3d250ef2	0.040297456
107	0xbcf929e0	-0.030415475
108	0x3ba76b5b	0.0051092333
109	0xbba293a6	-0.0049614487
110	0x3d1065e3	0.035253417
111	0x3bbda20e	0.0057871407
112	0xbd23c729	-0.039984856
113	0x3d4bbffe	0.049743645
114	0x3d3676df	0.044546958
115	0x3d159fd7	0.03652939
116	0xbabf577f	-0.001459822
117	0xbc8d5b3e	-0.017255422
118	0xba9749ae	-0.0011542344
119	0x3d1785fe	0.03699302
120	0x3d2b1f8e	0.04177814
121	0xbceb390a	-0.028713722
122	0x3d1d0e97	0.038343992
123	0xbbf0b969	-0.0073463214
124	0x3a0d79fa	0.0005396899
125	0x3d185909	0.037194286
126	0xbce7e1ed	-0.028305972
127	0x3d177b29	0.03698269
