outputs_intermediate/models/pretrained_simclr.pth (torch, 296522 bytes, 18 tensors)

encoder.0.weight f4 [256, 50]
0.052883554 -0.18446212 -0.13164695 0.13144223 -0.17817782 -0.034382418 -0.023536718 -0.044497456
0.16982263 0.31646508 0.23138948 -0.07383723 0.0072946358 0.010324641 0.08595461 0.025933357
0.08793077 -0.012334221 0.116871126 -0.09228387 0.03150833 0.07110845 0.03546488 -0.18430789
0.21230592 0.10470207 0.06242889 -0.016649581 -0.048750628 -0.09071639 0.008608136 0.15076081
0.101357 0.103098296 0.14915258 -0.048239335 0.109636776 0.08750383 0.022609215 0.07305757
-0.0060156225 0.24081406 0.06127775 -0.027229782 -0.0413214 0.13281728 0.06782517 -0.040020302
0.26404056 -0.013434618 0.013227629 -0.14101547 -0.03774583 -0.00035238866 -0.27418676 0.21812513
-0.026797954 0.16032799 0.13490047 -0.096475124 -0.14521569 -0.1733753 0.07240251 0.16737874
-0.11475261 -0.01564616 0.07004038 0.0703921 0.042058185 0.07723313 0.1471042 0.09058743
0.13532759 -0.17415473 -0.012180949 -0.099337935 -0.030306466 -0.11103169 -0.020172955 0.03382294
-0.11721321 -0.008505213 0.029753167 0.11009047 0.040712643 0.04849326 0.035954025 -0.0572331
0.06390501 -0.05237084 0.104263924 0.016860545 0.09575778 -0.054631125 0.014811264 0.006186649
-0.04701392 -0.061538026 0.067257166 -0.098035075 -0.0020071224 -0.009428149 0.012140097 0.0567056
0.00779552 -0.058692325 0.032506008 0.06895637 -0.12008327 -0.057287335 -0.10566154 -0.087594196
-0.13362926 -0.068388306 -0.34147334 0.29475707 -0.14786685 -0.014969197 0.18448232 0.086854756
-0.07797067 0.07131577 0.051806893 -0.052745827 -0.22409086 0.09654154 0.24225602 0.080564134
-0.01987665 0.04662662 -0.16957597 -0.13559487 0.19820917 -0.115179636 -0.14652686 0.06958864
0.02640853 -0.022808783 0.03404619 0.11712941 -0.080043614 0.10660406 -0.022633286 0.0029871524
-0.060636546 -0.01011688 -0.07801559 -0.16645612 -0.23518611 0.090669625 0.0027059638 -0.105927736
-0.10265684 0.19341895 -0.24382159 0.2733505 -0.184797 0.14007822 0.17451012 0.056544594
-0.21239138 -0.0075867586 0.11020738 -0.15934989 -0.12138856 0.071463235 0.108771816 0.1213413
-0.06821161 -0.005147537 -0.026724305 -0.046860293 -0.055635322 -0.10928346 -0.030131869 -0.040663637
-0.04834003 -0.007767395 -0.017259749 -0.09056349 0.04206398 0.12579334 -0.019164577 0.12667651
-0.06849113 -0.001920687 0.049001846 -0.013737132 -0.08073188 -0.0985024 -0.123126976 0.030146785
0.17675102 0.040740147 -0.15211642 -0.121931516 0.018598614 -0.036477152 -0.064589605 0.0037727938
-0.0051148375 -0.07271959 -0.023962487 0.07003717 -0.029693173 0.00505864 0.16056904 -0.031193672
0.24992043 0.000859856 0.05513191 0.0008204046 -0.0010837036 -0.12894085 0.04462558 -0.17301017
-0.011478929 0.056114007 -0.020362247 0.029098758 -0.110421665 -0.07786529 0.092414 0.05605226
0.19977349 0.0848044 0.1326282 0.12642103 -0.037743676 0.012552272 0.15083055 0.15902936
-0.049652413 -0.07115217 0.049116056 0.17407297 -0.12995178 -0.09318255 -0.17733005 -0.14711134
-0.10745763 -0.08225825 0.11831559 -0.035686 -0.1069465 0.14478101 -0.06482183 -0.24698168
-0.068087175 -0.017604692 -0.011911682 0.036669374 -0.018916236 -0.04366795 -0.05347501 0.016260663
00000000: 6d9c 583d a3e3 3cbe 75ce 06be cb98 063e
00000010: 3f74 36be 94d4 0cbd 13d0 c0bc f742 36bd
00000020: fce5 2d3e b607 a23e 5df1 6c3e f937 97bd
00000030: d707 ef3b af28 293c f808 b03d 3172 d43c
00000040: 0c15 b43d 7915 4abc 215a ef3d 53ff bcbd
00000050: e10e 013d 4fa1 913d 9f43 113d 35bb 3cbe
00000060: b966 593e 0a6e d63d 70b5 7f3d b464 88bc
00000070: bdae 47bd 84c9 b9bd 2409 0d3c 0b61 1a3e
00000080: 4294 cf3d 3325 d33d 74bb 183e 9c96 45bd
00000090: 3f89 e03d 3535 b33d f636 b93c 359f 953d
000000a0: b31e c5bb f697 763e 61fe 7a3d fe10 dfbc
000000b0: a140 29bd 4101 083e ece7 8a3d 54ec 23bd
000000c0: 5330 873e df1c 5cbc b2b8 583c 5c66 10be
000000d0: 5f9b 1abd cec0 b8b9 3562 8cbe 325c 5f3e
000000e0: 6287 dbbc 052d 243e 5923 0a3e c094 c5bd
000000f0: 6cb3 14be 4b89 31be c447 943d 5565 2b3e
00000100: 6b03 ebbd 602c 80bc 5571 8f3d bc29 903d
00000110: 3445 2c3d 672c 9e3d 7ca2 163e e785 b93d
00000120: 5193 0a3e 9e55 32be 9a92 47bc b071 cbbd
00000130: 4445 f8bc 9564 e3bd c141 a5bc ec89 0a3d
00000140: 7b0d f0bd 7359 0bbc eabc f33c 1d77 e13d
00000150: 4dc2 263d dea0 463d 8744 133d 416d 6abd
00000160: a1e0 823d ce82 56bd 5388 d53d 201f 8a3c
00000170: a81c c43d e3c4 5fbd f2aa 723c 60b9 ca3b
00000180: ab91 40bd 4c0f 7cbd 20be 893d 9dc6 c8bd
00000190: ed89 03bb 8678 1abc 42e7 463c 2244 683d
000001a0: 9071 ff3b 5d67 70bd 0525 053d ff38 8d3d
000001b0: 38ee f5bd 20a6 6abd 1465 d8bd 9664 b3bd
000001c0: 1cd6 08be 2b0f 8cbd 98d5 aebe 66ea 963e
000001d0: 686a 17be 5d41 75bc efe8 3c3e e8e0 b13d
000001e0: 16af 9fbd 010e 923d 7733 543d 020c 58bd
000001f0: 1378 65be 92b7 c53d f611 783e cffe a43d
00000200: 5bd4 a2bc 8efb 3e3d 53a5 2dbe 62d9 0abe
00000210: 58f7 4a3e 4de3 ebbd 230b 16be 7d84 8e3d
00000220: b456 d83c 7cd9 babc 0574 0b3d 8be1 ef3d
00000230: e8ed a3bd 3b53 da3d 7169 b9bc 1ac4 433b
00000240: 075e 78bd 45c1 25bc a3c6 9fbd 7973 2abe
00000250: a1d4 70be ffb0 b93d 8a56 313b a4f0 d8bd
00000260: c03d d2bd 9e0f 463e 5eac 79be 99f4 8b3e
00000270: 6d3b 3dbe aa70 0f3e c8b2 323e 4e9b 673d
00000280: 207d 59be 589a f8bb 68b4 e13d 9e2c 23be
00000290: 919a f8bd 515b 923d c2c3 de3d ca81 f83d
000002a0: 87b2 8bbd acac a8bb eeec dabc 94f0 3fbd
000002b0: dde1 63bd 02d0 dfbd 1cd7 f6bc ea8e 26bd
000002c0: 3200 46bd a285 febb 5164 8dbc 5a79 b9bd
000002d0: 484b 2c3d f8cf 003e 08ff 9cbc 7db7 013e
000002e0: 1445 8cbd 90bf fbba 29b6 483d b511 61bc
000002f0: c256 a5bd a0bb c9bd ff29 fcbd 64f6 f63c
00000300: 38fe 343e 24df 263d 68c4 1bbe 3bb7 f9bd
00000310: 1f5c 983c 1169 15bd 8e47 84bd fa40 773b
00000320: 5e9a a7bb 02ee 94bd fa4c c4bc a66f 8f3d
00000330: 193f f3bc f3c2 a53b 366c 243e df89 ffbc
00000340: 24eb 7f3e f667 613a ffd1 613d 6c10 573a
00000350: 0f0b 8eba 1209 04be 50c9 363d 9429 31be
00000360: 1e12 3cbc cdd7 653d bace a6bc 8560 ee3c
00000370: c124 e2bd d677 9fbd 8d43 bd3d 0e97 653d
00000380: 6c91 4c3e eead ad3d b0cf 073e 8474 013e
00000390: 1d99 1abd 0ba8 4d3c 5373 1a3e 98d8 223e
000003a0: 5460 4bbd 3bb8 91bd eb2d 493d 2f40 323e
000003b0: 1412 05be 7ed6 bebd 0296 35be 5ba4 16be
000003c0: bf12 dcbd 0377 a8bd 724f f23d 7c2b 12bd
000003d0: c406 dbbd 7941 143e 4fc1 84bd c4e8 7cbe
000003e0: 4a71 8bbd b737 90bc 3729 43bc a032 163d
000003f0: 39f6 9abc 2add 32bd 9d08 5bbd 1535 853c

encoder.0.bias f4 [256]
-0.018799253 0.08061789 -0.13824177 -0.06832142 0.111868754 0.08396757 -0.10688698 -0.08415751
0.060636915 0.040742837 -0.1190123 -0.032442003 -0.006576616 0.13505383 -0.04413664 -0.02691809
0.032314528 -0.032089856 -0.07414871 0.061194673 0.037578546 -0.06968917 -0.0465348 -0.10724415
0.017644625 0.034576137 -0.0050758417 -0.1068089 -0.08680303 0.078316845 0.0069004023 0.025304567
-0.100360155 -0.1359932 -0.04955078 0.036856685 -0.013631876 -0.03743854 -0.03643013 -0.0017684464
0.09714689 0.0742566 0.046244696 -0.03143684 0.107310206 0.123890676 -0.055888165 0.083560996
0.11853408 0.037409946 0.06410841 0.06459862 -0.07747456 -0.11255068 0.068729736 -0.0796175
-0.13553363 0.06162546 -0.13973026 -0.08806835 -0.13831614 -0.020585263 -0.09208033 -0.0028617505
0.0055341083 0.115990296 0.08636126 0.13843568 -0.1092754 -0.12769866 0.09599579 -0.018666608
-0.0032875559 -0.062027384 -0.034521867 0.10538176 0.08085157 0.06375333 -0.108468406 0.13149428
-0.099985056 -0.0066979984 0.07069428 -0.082642734 -0.06222965 0.081755474 0.13741507 -0.10879955
-0.13407372 -0.12329201 -0.0693763 -0.0024838466 0.109109774 -0.09870935 -0.13507183 -0.14025855
0.0014476852 0.12337624 0.027466351 0.014474085 -0.027078534 0.044976164 -0.019526673 0.08813351
0.08446667 0.13846916 -0.12688099 -0.052738186 -0.0946562 0.12774156 -0.04355587 0.0063185436
-0.118762024 -0.050834756 0.12134803 -0.124115944 -0.0966286 -0.04485494 -0.07952979 0.11561786
0.06658376 -0.014829779 0.09972265 -0.003265094 -0.11724375 -0.078748375 -0.13071965 -0.077141374
0.03566575 -0.124873884 0.105647095 -0.078352086 -0.016132237 0.02487057 0.12391029 0.100444555
0.016411163 0.0017371291 0.0705386 -0.07801984 -0.0027944231 0.04506938 0.042594336 0.12998782
-0.12652473 0.12603596 -0.085086346 -0.08827738 -0.013494491 -0.12667511 0.11282194 -0.025095405
-0.07606459 -0.02238267 -0.039361775 -0.099930644 0.13908269 0.13127899 -0.13054831 -0.09524208
-0.13018966 -0.14125092 -0.010369788 0.035220247 -0.0784656 0.13361357 -0.10985038 -0.08223712
0.05790604 -0.13271335 0.015705999 -0.09563318 -0.04711571 -0.08454796 -0.0600713 -0.11537417
-0.106638946 0.07479431 0.06726377 -0.09915999 -0.13029745 0.123583704 -0.03433257 0.017817497
0.045704186 0.008092464 0.083655156 0.075187065 -0.13503563 -0.12448593 -0.07680994 -0.12039014
0.00777521 -0.09166849 -0.0007488072 0.0652765 -0.05784237 0.12904367 0.13112594 -0.13245262
0.036638252 0.10468878 -0.019966066 -0.01729949 0.060927063 -0.114621565 0.13998641 0.09441714
0.018811442 -0.07448636 -0.048792195 0.027770584 -0.050885875 -0.10101727 -0.051170845 -0.11482626
-0.1376979 -0.02763447 0.052428108 0.03684076 0.10836592 -0.03878532 -0.14128982 -0.05390486
-0.08233303 0.12706271 -0.1005652 0.033129778 0.0600146 -0.04780816 0.048335195 -0.018337466
-0.11001174 0.12966424 -0.07897316 -0.04263447 0.04540961 -0.019217735 -0.10115908 -0.0018926542
-0.034979038 0.11224596 -0.085519455 0.0054077143 -0.11364738 -0.028904974 0.082290106 -0.03249792
0.02528031 0.075706035 -0.08849607 -0.021484246 0.060282473 0.09676518 -0.09329723 0.015129332
00000000: e400 9abc fe1a a53d 408f 0dbe 1aec 8bbd
00000010: 721b e53d 30f7 ab3d 90e7 dabd c65a acbd
00000020: 6a5e 783d f6e1 263d b9bc f3bd e8e1 04bd
00000030: a780 d7bb 8d4b 0a3e 9fc8 34bd 5483 dcbc
00000040: 3d5c 043d a770 03bd 47db 97bd 44a7 7a3d
00000050: f6eb 193d 32b9 8ebd 469b 3ebd d2a2 dbbd
00000060: 768b 903c b59f 0d3d 3f53 a6bb a0be dabd
00000070: c9c5 b1bd 9564 a03d c51c e23b 864b cf3c
00000080: a089 cdbd cd41 0bbe c2f5 4abd 09f7 163d
00000090: 3b58 5fbc 2859 19bd c337 15bd 37cb e7ba
000000a0: f3f4 c63d d813 983d 146b 3d3d eac3 00bd
000000b0: 74c5 db3d 65ba fd3d fdea 64bd 0722 ab3d
000000c0: ffc1 f23d 2c3b 193d 454b 833d 484c 843d
000000d0: fbaa 9ebd f980 e6bd 2dc2 8c3d 800e a3bd
000000e0: 54c9 0abe fa6a 7c3d 7315 0fbe 2e5d b4bd
000000f0: bfa2 0dbe 6da2 a8bc 9d94 bcbd 358c 3bbb
00000100: 7757 b53b 528c ed3d 2cde b03d 15c2 0d3e
00000110: c8cb dfbd 70c3 02be 7199 c43d b7ea 98bc
00000120: 0974 57bb 6d10 7ebd cd66 0dbd 64d2 d73d
00000130: 8295 a53d 1b91 823d af24 debd 70a6 063e
00000140: f7c4 ccbd e27a dbbb 2ac8 903d 9840 a9bd
00000150: 84e4 7ebd 6a6f a73d 89b6 0c3e 4cd2 debd
00000160: 9f4a 09be 8580 fcbd 2915 8ebd 08c8 22bb
00000170: f274 df3d 2128 cabd 4550 0abe f09f 0fbe
00000180: 41c0 bd3a afac fc3d 1d01 e13c b624 6d3c
00000190: cdd3 ddbc ed38 383d 67f6 9fbc 577f b43d
000001a0: ddfc ac3d dcca 0d3e 17ed 01be ff03 58bd
000001b0: 1cdb c1bd afce 023e a467 32bd c90b cf3b
000001c0: 8139 f3bd 1b38 50bd 5185 f83d 8030 febd
000001d0: 37e5 c5bd d0b9 37bd 84e0 a2bd 0ec9 ec3d
000001e0: 115d 883d 9af8 72bc 643b cc3d 30fb 55bb
000001f0: 7e1d f0bd d446 a1bd 5fdb 05be 4cfc 9dbd
00000200: 4016 123d e1bd ffbd 815d d83d 0f77 a0bd
00000210: c127 84bc 5ebd cb3c aec4 fd3d e0b5 cd3d
00000220: b470 863c 61b0 e33a 8b76 903d dec8 9fbd
00000230: a422 37bb ac9a 383d 6677 2e3d 871b 053e
00000240: b38f 01be 920f 013e c041 aebd c5ca b4bd
00000250: ff17 5dbc 1fb7 01be 300f e73d e194 cdbc
00000260: c0c7 9bbd dc5b b7bc d039 21bd 70a8 ccbd
00000270: b16b 0e3e 006e 063e 75ae 05be 480e c3bd
00000280: 7050 05be 15a4 10be 0be6 29bc 1b43 103d
00000290: 93b2 a0bd ffd1 083e 3cf9 e0bd ef6b a8bd
000002a0: e22e 6d3d 02e6 07be dea9 803c 54db c3bd
000002b0: 67fc 40bd 7b27 adbd 530d 76bd 4b49 ecbd
000002c0: 8565 dabd c22d 993d 96c1 893d 6514 cbbd
000002d0: b26c 05be 7419 fd3d 4fa0 0cbd 00f6 913c
000002e0: 5034 3b3d 4196 043c 6553 ab3d adfb 993d
000002f0: c846 0abe 7bf2 febd 884e 9dbd 1b8f f6bd
00000300: 30c7 fe3b b0bc bbbd 9a4b 44ba b0af 853d
00000310: 1fec 6cbd 0624 043e e145 063e a9a1 07be
00000320: fe11 163d 1267 d63d e08f a3bc a9b7 8dbc
00000330: a88e 793d b6be eabd 9958 0f3e c65d c13d
00000340: 741a 9a3c 4e8c 98bd 53da 47bd 237f e33c
00000350: b56d 50bd 24e2 cebd 8598 51bd 082a ebbd
00000360: ae00 0dbe af61 e2bc dbbe 563d 56e6 163d
00000370: f4ee dd3d 5bdd 1ebd 47ae 10be 58cb 5cbd
00000380: 389e a8bd ba1c 023e 21f5 cdbd 17b3 073d
00000390: dfd1 753d 7dd2 43bd 20fb 453d 7438 96bc
000003a0: d64d e1bd b4c6 043e aebc a1bd 7ba1 2ebd
000003b0: 6dff 393d 836e 9dbc 7e2c cfbd f012 f8ba
000003c0: 2e46 0fbd 36e1 e53d d324 afbd 3233 b13b
000003d0: f5bf e8bd 20ca ecbc b787 a83d 8a1c 05bd
000003e0: a718 cf3c c40b 9b3d 6d3d b5bd bbff afbc
000003f0: c1ea 763d d32c c63d 9e12 bfbd 05e1 773c

encoder.1.weight f4 [256]
0.8953909 1.0306866 1.0248054 1.0135319 0.97817975 1.0031754 1.0364001 0.9860626
0.89093614 1.0077118 0.99279237 1.0489306 0.99636877 1.0229151 1.0304046 0.976056
1.0018669 1.0164486 0.9287027 1.0013291 0.95447165 0.9557605 1.0205803 0.9453197
1.0826215 0.99234885 0.93753815 1.0161498 1.0081373 0.95771366 0.95716095 1.0415187
1.0433589 1.0866959 1.0176588 0.987948 0.9743919 0.99613976 0.9699384 0.9316515
0.95559484 1.06526 1.0778189 0.959286 0.9727108 0.94869244 0.91652673 1.0513885
0.9992001 0.9587643 1.0613889 0.95921254 1.1255934 0.95855474 0.9078275 0.9406372
0.9681522 0.89002544 0.9633402 1.0535234 1.1232036 0.9484088 0.9652002 0.9455415
0.96375394 1.0357529 0.9981456 0.9625904 0.9878449 1.033932 0.98589087 0.9806314
0.9787599 0.95649886 1.0845201 0.99757224 0.9446501 0.97815573 0.99149036 0.9777892
1.0332483 1.0082145 1.050876 1.049911 1.0322498 0.96778333 1.0236758 1.066033
1.0540123 0.9865028 0.96518433 1.0644213 1.0487787 1.0483749 0.99959373 0.96206975
0.9879814 1.0193247 0.94486797 0.9844311 0.98154926 1.0384152 1.0429063 1.014262
1.022765 0.93110704 0.9371273 0.9268249 0.998198 0.9861422 0.93927187 0.98543566
0.9856583 0.97010404 0.94571173 0.9252782 0.9923554 1.0537469 0.9737032 1.0470688
1.1050351 0.97453487 0.971258 1.048775 1.0496267 0.99328196 0.9990247 0.9261912
1.0039994 1.1240308 0.9465031 1.0549637 1.0230123 1.050116 0.99695504 1.0657723
0.95119655 0.9957647 0.95541096 0.90246534 1.057645 1.0415164 1.0502439 0.987905
0.96987456 0.98161566 1.1263554 1.0098035 0.99653816 1.0597643 1.0026399 0.9656175
1.0559385 0.93915033 0.8916881 0.983881 1.0642892 0.98465246 1.0123535 0.9673458
1.025868 1.0085113 0.9866702 0.9524289 1.0103116 1.0009701 0.98682755 1.0393982
0.96956724 1.0020136 1.0535424 0.9078582 1.0104169 0.9062095 0.9373581 1.0415648
0.9777769 1.0216644 1.0430931 1.0521265 0.99341434 0.945764 0.97835845 1.0073432
0.9951113 0.97205836 1.1164104 0.8907628 1.0300121 0.9659302 0.9940478 0.9683423
1.0442923 0.98868704 1.0176256 0.98432356 1.0271616 1.065767 0.9757566 1.0020643
1.0368485 1.0477433 0.959348 0.9611158 1.0445403 1.0219778 1.002327 1.1028185
0.98341775 0.9406544 0.95726794 1.0323571 0.98983806 0.9869765 0.9260132 1.0732964
1.0836644 0.9496688 1.0168647 0.9737654 1.026162 0.9617559 0.94316226 1.0113198
0.8995177 1.0098625 0.93959206 0.9970143 0.98577476 0.9096884 0.9233069 1.0090073
1.076367 0.94310963 0.9266863 0.9686117 1.0285916 0.9784589 1.0104744 1.0031729
1.0474387 1.0501813 1.1282398 0.96223414 1.0665991 1.0234404 1.0518652 0.93257815
1.0319247 1.0261415 1.0236137 0.992362 0.9382809 0.9714807 1.1139469 0.9465333
00000000: 5738 653f 8aed 833f d32c 833f 6abb 813f
00000010: fd69 7a3f 0d68 803f c2a8 843f 996e 7c3f
00000020: 6414 643f b3fc 803f a427 7e3f 5c43 863f
00000030: 0612 7f3f e2ee 823f 4ce4 833f cede 793f
00000040: 2d3d 803f fd1a 823f 76bf 6d3f 8d2b 803f
00000050: 4158 743f b8ac 743f 60a2 823f 7900 723f
00000060: 5793 8a3f 930a 7e3f 8002 703f 3211 823f
00000070: a50a 813f b92c 753f 8008 753f 7c50 853f
00000080: c98c 853f da18 8b3f a542 823f 29ea 7c3f
00000090: bf71 793f 0403 7f3f e24d 783f b680 6e3f
000000a0: dda1 743f 715a 883f f8f5 893f c493 753f
000000b0: 9303 793f 82dd 723f 7fa1 6a3f e693 863f
000000c0: 94cb 7f3f 9471 753f 97db 873f f48e 753f
000000d0: 7213 903f d863 753f 6267 683f 99cd 703f
000000e0: d3d8 773f b5d8 633f 779d 763f dbd9 863f
000000f0: 23c5 8f3f ebca 723f 5c17 773f 020f 723f
00000100: 94b8 763f 8d93 843f 7886 7f3f 536c 763f
00000110: 67e3 7c3f e257 843f 5863 7c3f a90a 7b3f
00000120: 0290 7a3f 1cdd 743f 8ed1 8a3f e560 7f3f
00000130: 97d4 713f 6a68 7a3f 50d2 7d3f 6550 7a3f
00000140: 7b41 843f 2c0d 813f 1b83 863f 7c63 863f
00000150: c320 843f a6c0 773f cf07 833f c573 883f
00000160: e0e9 863f 738b 7c3f 5216 773f f53e 883f
00000170: 613e 863f 2631 863f 60e5 7f3f 344a 763f
00000180: 59ec 7c3f 3b79 823f dee2 713f ad03 7c3f
00000190: d046 7b3f caea 843f f47d 853f 56d3 813f
000001a0: f7e9 823f 085d 6e3f 93e7 6f3f 6644 6d3f
000001b0: e789 7f3f d173 7c3f 1f74 703f 8345 7c3f
000001c0: 1a54 7c3f bd58 783f 2a1a 723f 08df 6c3f
000001d0: 010b 7e3f 2ee1 863f 9d44 793f 5a06 863f
000001e0: ca71 8d3f 1e7b 793f 5da4 783f 423e 863f
000001f0: 2b5a 863f ba47 7e3f 15c0 7f3f de1a 6d3f
00000200: 0d83 803f 3ee0 8f3f 074e 723f 0d09 873f
00000210: 11f2 823f 336a 863f 7238 7f3f 3a6b 883f
00000220: 9e81 733f 6fea 7e3f d095 743f f807 673f
00000230: e960 873f 6950 853f 646e 863f 58e7 7c3f
00000240: b349 783f 2a4b 7b3f 6a2c 903f 3e41 813f
00000250: 201d 7f3f 5ba6 873f 8156 803f b532 773f
00000260: fe28 873f 286c 703f ac45 643f a0df 7b3f
00000270: a13a 883f 2f12 7c3f cd94 813f f9a3 773f
00000280: a54f 833f e616 813f 6b96 7c3f 61d2 733f
00000290: e451 813f ca1f 803f bba0 7c3f 000b 853f
000002a0: 8f35 783f fb41 803f 7ada 863f 6569 683f
000002b0: 5755 813f 59fd 673f b3f6 6f3f ff51 853f
000002c0: 964f 7a3f e6c5 823f 1384 853f 15ac 863f
000002d0: 6750 7e3f 971d 723f b375 7a3f 9ff0 803f
000002e0: 9dbf 7e3f d1d8 783f 89e6 8e3f 0809 643f
000002f0: 70d7 833f 3447 773f eb79 7e3f 48e5 773f
00000300: 5fab 853f 981a 7d3f 8e41 823f a1fc 7b3f
00000310: 087a 833f 0e6b 883f 2fcb 793f a543 803f
00000320: 74b7 843f 741c 863f d597 753f af0b 763f
00000330: 7fb3 853f 2bd0 823f 404c 803f 2829 8d3f
00000340: 44c1 7b3f bace 703f 830f 753f 4724 843f
00000350: 0766 7d3f 7eaa 7c3f 330f 6d3f c761 893f
00000360: 84b5 8a3f 7f1d 733f 9f28 823f b048 793f
00000370: 4759 833f a235 763f 1573 713f ed72 813f
00000380: cb46 663f 2d43 813f 1b89 703f 543c 7f3f
00000390: bc5b 7c3f 57e1 683f d75d 6c3f 2727 813f
000003a0: 65c6 893f a26f 713f 503b 6d3f f0f6 773f
000003b0: e4a8 833f 487c 7a3f 3a57 813f f867 803f
000003c0: 7912 863f 576c 863f 296a 903f fa54 763f
000003d0: 5286 883f 1800 833f 85a3 863f 71bd 6e3f
000003e0: 1c16 843f 9b58 833f c605 833f 700b 7e3f
000003f0: 2d33 703f f6b2 783f d095 8e3f 0250 723f

encoder.1.bias f4 [256]
-0.04864197 -0.06201801 -0.020126142 -0.013143665 -0.04291803 -0.1648233 -0.112483785 -0.05359609
0.005886032 -0.15010817 -0.07533737 -0.09312848 -0.019978534 -0.13855568 -0.04480196 -0.118606955
-0.088819966 0.007531866 -0.029582713 0.008053352 -0.08510612 -0.29265577 -0.07620384 -0.044027284
-0.04091938 -0.059538975 0.009377257 0.02175337 -0.08261536 0.021024564 -0.007021992 0.004847571
-0.22226927 -0.0076492843 -0.11117812 -0.06621488 -0.022795318 -0.09288956 -0.1123309 0.15469038
-0.07325241 0.027053406 0.030395305 -0.25481302 -0.006296707 -0.055220775 -0.23604695 -0.09226937
0.012212158 0.065777056 -0.06607246 -0.19554165 -0.1459387 -0.029223712 0.029113535 -0.07028803
0.011454864 0.10617543 -0.08358536 -0.07824478 0.025836645 0.17343707 0.008483162 -0.017809708
0.06227315 -0.1938281 -0.013303962 -0.2557732 0.095783964 0.042044718 -0.0062571797 -0.024538102
0.08149505 -0.029495927 0.16691954 0.11509403 0.07108962 -0.0044844556 -0.026556171 0.014870439
-0.04974042 -0.066062294 -0.12697838 -0.13321139 -0.12675072 -0.038401417 0.12632194 -0.040035423
0.041591093 0.071864374 -0.08352301 0.02606747 0.020657763 0.057227246 0.039756574 -0.011819555
-0.10467403 0.050095204 -0.027635226 -0.049721476 -0.16021845 -0.020652218 0.09967271 -0.1056307
0.007874887 -0.10114199 -0.09388471 0.12982038 -0.10758661 -0.13328344 -0.12175958 -0.11539718
-0.031909354 -0.047425456 0.07028035 -0.11177915 0.13819733 0.002054654 0.057530228 -0.002301717
0.037138082 0.072696276 0.017514547 -0.00557307 -0.02360063 -0.06881512 0.061424017 0.08197218
-0.047725342 -0.04843735 -0.10576965 -0.04505011 -0.06903728 0.042036925 -0.17463331 0.12661032
-0.02399732 -0.026795916 0.05775369 -0.13850717 -0.014271364 -0.0099561345 -0.04958857 -0.09110623
-0.056369916 -0.10822617 -0.06782882 0.083620496 -0.0004974595 -0.014882486 -0.01450231 -0.08926584
-0.016463736 0.09954056 -0.077038825 -0.10228124 -0.008881176 -0.009057644 -0.05774772 -0.14086428
-0.08291928 -0.06196729 -0.30943826 -0.08296522 -0.050966747 0.053375807 0.027665656 0.078538686
0.12882008 -0.037255928 0.025582839 0.12144247 -0.033817288 -0.08795353 -0.15552823 -0.0008356511
0.12854894 0.08208354 -0.11035672 -0.063225426 -0.054100007 -0.073368214 -0.08982427 -0.10840182
0.00945971 -0.04789026 -0.1026867 0.18108407 0.04398854 0.13248597 -0.12304211 -0.014745499
-0.047944553 -0.03527564 -0.11323738 -0.009952171 -0.022159373 -0.15291059 0.07769221 -0.05337757
-0.0030535914 0.014392881 -0.033493124 0.006020692 -0.0641952 0.049446784 -0.076696485 0.05628011
-0.026470715 -0.016839232 -0.15094432 -0.016740939 -0.07498447 0.02113546 -0.030507836 -0.02819141
-0.017837198 -0.08797673 -0.12232083 -0.0038581935 0.098872006 -0.052450664 -0.0019849888 0.04406973
0.0069154343 0.055282813 -0.06768565 0.009359711 0.12853019 0.010878837 -0.095663846 -0.039987735
0.01918493 0.0485455 0.018496918 -0.12340376 -0.07197304 -0.032323 -0.000746047 0.013420345
-0.14597888 -0.10193613 0.033843648 0.02818254 0.013585151 -0.07731656 -0.084751315 0.065266244
-0.058242023 -0.039466966 -0.15988225 -0.023863275 -0.20661207 -0.1377472 0.022703875 0.11759088
00000000: cd3c 47bd 9906 7ebd 94df a4bc 8758 57bc
00000010: d1ca 2fbd 70c7 28be e65d e6bd 9387 5bbd
00000020: 9ddf c03b f5b5 19be 7b4a 9abd 25ba bebd
00000030: 06aa a3bc 8ae1 0dbe 4382 37bd 34e8 f2bd
00000040: 3ee7 b5bd dfcd f63b 7257 f2bc 35f2 033c
00000050: 1e4c aebd fad6 95be c210 9cbd f455 34bd
00000060: 149b 27bd 24df 73bd 11a3 193c 2034 b23c
00000070: 3e32 a9bd b53b ac3c bd18 e6bb 5fd8 9e3b
00000080: 8e9a 63be d9a6 fabb 5bb1 e3bd ab9b 87bd
00000090: 3fbd babc e23c bebd be0d e6bd 2867 1e3e
000000a0: 5c05 96bd 1b9f dd3c 93ff f83c da76 82be
000000b0: 9b54 cebb 2e2f 62bd 4bb6 71be b9f7 bcbd
000000c0: 8115 483c 1fb6 863d ff50 87bd 123c 48be
000000d0: f470 15be 9166 efbc 827f ee3c 2cf3 8fbd
000000e0: 2fad 3b3c 8172 d93d cd2e abbd cd3e a0bd
000000f0: 5fa7 d33c 7d99 313e f6fc 0a3c aae5 91bc
00000100: 2112 7f3d e07a 46be dcf8 59bc b4f4 82be
00000110: 622a c43d 1537 2c3d 0709 cdbb 2104 c9bc
00000120: e0e6 a63d 71a1 f1bc f5ec 2a3e 6bb6 eb3d
00000130: 6f97 913d 57f2 92bb 548c d9bc 24a3 733c
00000140: 9cbc 4bbd ab4b 87bd 9f06 02be 9168 08be
00000150: f1ca 01be ce4a 1dbd 8a5a 013e 2ffc 23bd
00000160: 6c5b 2a3d a12d 933d 1d0e abbd 728b d53c
00000170: 783a a93c 1e67 6a3d cad7 223d cfa6 41bc
00000180: 565f d6bd a130 4d3d 4563 e2bc bfa8 4bbd
00000190: 4e10 24be d72e a9bc 3521 cc3d e954 d8bd
000001a0: ac05 013c 8823 cfbd a046 c0bd a2ef 043e
000001b0: 5e56 dcbd 747b 08be 165d f9bd 5b55 ecbd
000001c0: 62b3 02bd 3241 42bd 25ef 8f3d 78ec e4bd
000001d0: 9a83 0d3e 60a7 063b d1a4 6b3d 67d8 16bb
000001e0: 1a1e 183d c9e1 943d ab7a 8f3c 4d9e b6bb
000001f0: 1c56 c1bc f1ee 8cbd c097 7b3d 08e1 a73d
00000200: a67b 43bd 3e66 46bd c29d d8bd 7786 38bd
00000210: 6b63 8dbd e92e 2c3d 13d3 32be 23a6 013e
00000220: 0796 c4bc 1c83 dbbc 228f 6c3d d3d4 0dbe
00000230: 70d2 69bc 0e1f 23bc 621d 4bbd e795 babd
00000240: 24e4 66bd afa5 ddbd d6e9 8abd 3941 ab3d
00000250: f167 02ba acd5 73bc 199b 6dbc 02d1 b6bd
00000260: f5de 86bc ecdb cb3d 88c6 9dbd d478 d1bd
00000270: 5a82 11bc 8366 14bc e088 6cbd ba3e 10be
00000280: 95d1 a9bd 6ad1 7dbd b16e 9ebe abe9 a9bd
00000290: 82c2 50bd 97a0 5a3d 16a3 e23c e4d8 a03d
000002a0: 69e9 033e ac99 18bd 1a93 d13c d4b6 f83d
000002b0: ff83 0abd fb20 b4bd cb42 1fbe 990f 5bba
000002c0: 55a2 033e 6a1b a83d b402 e2bd 557c 81bd
000002d0: f897 5dbd 1342 96bd c9f5 b7bd c601 debd
000002e0: e6fc 1a3c 9428 44bd 684d d2bd 1a6e 393e
000002f0: 542d 343d 67aa 073e 80fd fbbd 1b97 71bc
00000300: 8261 44bd 317d 10bd 00e9 e7bd 6e0e 23bc
00000310: 9387 b5bc 9894 1cbe 181d 9f3d 70a2 5abd
00000320: c31e 48bb 1ed0 6b3c 1630 09bd 3a49 c53b
00000330: c678 83bd b688 4a3d 0c13 9dbd f985 663d
00000340: 1dd9 d8bc 6ef2 89bc 2691 1abe 4b24 89bc
00000350: 7591 99bd 4624 ad3c 92eb f9bc acf1 e6bc
00000360: 511f 92bc 252d b4bd 5883 fabd bfd9 7cbb
00000370: 687d ca3d 82d6 56bd 9616 02bb 7682 343d
00000380: de9a e23b 3b70 623d c69e 8abd 7959 193c
00000390: 6b9d 033e 263d 323c 68eb c3bd 2eca 23bd
000003a0: b729 9d3c a5d7 463d d986 973c 1cbb fcbd
000003b0: 9a66 93bd 1f65 04bd 5e92 43ba 02e1 5b3c
000003c0: 7d7b 15be e4c3 d0bd a39f 0a3d 12df e63c
000003d0: 4194 5e3c 2558 9ebd 1992 adbd 4faa 853d
000003e0: 308f 6ebd 1da8 21bd 2cb8 23be ea7c c3bc
000003f0: 1d92 53be 9a0d 0dbe 7afd b93c 7dd3 f03d

encoder.1.running_mean f4 [256]
-0.099121496 0.01015028 0.002719213 -0.17681049 0.09058591 0.016987264 -0.111670375 0.0029918284
0.11444324 -0.097636685 -0.010417477 0.023764646 0.00574548 0.36642763 0.044843413 -0.039352614
-0.06563947 -0.0073245205 -0.25641143 0.2699162 0.37334958 0.17290525 0.10744465 0.04493006
-0.12583795 -0.056395218 -0.16622183 0.0061755623 -0.19328167 0.033868507 0.35410607 0.08068241
-0.067438826 -0.23983042 -0.0717056 0.12695032 -0.1098419 0.019769948 -0.10418563 -0.0743889
-0.039173163 0.077544495 -0.11096594 0.2382075 0.04138063 0.19600615 -0.15522178 0.0053121666
-0.04079829 -0.10143208 0.043146968 0.009924279 0.03670618 -0.24559173 0.07579093 -0.18993415
-0.07577512 0.08283054 -0.23110054 -0.19820464 -0.103701554 -0.15970933 -0.36166418 0.051162187
0.07459961 0.07708337 0.2857409 0.30736387 -0.1427904 -0.2991139 0.1630348 0.15226838
0.11207762 -0.030926064 -0.21580417 -0.022710806 -0.092830494 0.29047206 -0.0071815886 -0.102621
-0.3183789 -0.0044396203 0.19869381 0.011678268 -0.030112412 -0.036720753 0.07739666 -0.20511211
-0.23913546 -0.0114672445 0.08892033 0.036526307 0.27032745 -0.14115842 -0.28854522 -0.15722832
-0.08118021 0.27457348 0.06110666 -0.2028501 0.11008294 -0.041220117 -0.042238463 0.042833343
-0.024675248 0.076056 -0.2536359 -0.06082898 -0.14793831 0.28446478 -0.037320036 0.1760458
0.047705475 0.15505414 0.16355525 -0.05626452 0.12706204 0.09251741 -0.012702055 -0.006755246
-0.18077114 -0.007619281 0.17326932 0.09064723 -0.07668506 -0.0027172863 -0.3157261 0.17425023
0.08740226 -0.16739218 0.11085796 -0.23584548 -0.065629385 -0.15874386 0.0817755 0.15218756
0.10990934 -0.02914369 0.16512094 -0.26571837 -0.057490654 0.089688234 0.06019692 0.04808452
-0.00698763 -0.025302213 -0.17659621 -0.04608785 -0.05252239 -0.40073842 -0.008782393 0.11793342
0.024367128 -0.05273082 -0.234009 -0.021305742 0.18020827 0.14942987 -0.008547011 -0.05211928
-0.17325836 -0.15817395 0.16892882 0.1519265 -0.057159245 0.29082412 -0.34240597 -0.12702093
0.013382797 -0.09306388 -0.025974438 -0.07219707 -0.08504049 -0.3664439 -0.032205317 -0.29493114
-0.12914619 0.034956273 -0.077934355 -0.07672631 -0.29751715 0.25749186 -0.19469409 0.06675238
0.050582115 0.011460655 -0.043268368 -0.19423333 -0.08678063 0.009520864 0.03912054 -0.22225094
0.06487906 -0.10690095 -0.07741336 -0.1046961 -0.19738343 -0.040824678 -0.0027410928 -0.07663336
0.054152537 0.22270682 0.03708226 -0.0048782295 -0.0003685114 -0.16329914 0.21101594 0.11394095
-0.22873263 0.024757678 -0.02145686 -0.1302917 0.15950942 0.032449078 -0.1473145 -0.18600732
0.029552365 0.06730628 0.28599817 -0.14611095 0.09210589 0.04456768 0.33117482 -0.23468427
-0.13878278 0.12830938 -0.08211745 0.16486771 0.19251513 -0.23023051 0.008733691 0.08412746
-0.2333927 -0.037276182 -0.06511803 -0.01867282 0.43141925 0.055982415 -0.0590598 -0.24263695
0.0053948765 0.04410447 0.001236857 -0.018126128 -0.20509446 -0.11692623 0.19322608 -0.2519365
0.14674184 0.08339748 0.19367796 -0.03923007 0.26370355 -0.05837201 -0.072891295 0.082235985
00000000: 3600 cbbd 5c4d 263c d334 323b cf0d 35be
00000010: 1b85 b93d e028 8b3c 70b3 e4bd 8d12 443b
00000020: 3861 ea3d bef5 c7bd 11ae 2abc 13ae c23c
00000030: 9444 bc3b 679c bb3e baad 373d 3530 21bd
00000040: fd6d 86bd 8802 f0bb 5c48 83be 7532 8a3e
00000050: ad27 bf3e 130e 313e f10b dc3d 9508 383d
00000060: aadb 00be acfe 66bd 0e36 2abe 5f5c ca3b
00000070: a1eb 45be b4b9 0a3d 644d b53e d23c a53d
00000080: 5e1d 8abd 1b96 75be 63da 92bd 44ff 013e
00000090: caf4 e0bd 96f4 a13c 475f d5bd 3559 98bd
000000a0: 0a74 20bd a6cf 9e3d 1c42 e3bd abec 733e
000000b0: bc7e 293d d6b5 483e 75f2 1ebe af11 ae3b
000000c0: 1c1c 27bd 9fbb cfbd e0ba 303d 7199 223c
000000d0: 3859 163d 667c 7bbe 4638 9b3d 197e 42be
000000e0: fc2f 9bbd 0fa3 a93d 9fa5 6cbe 28f6 4abe
000000f0: 7b61 d4bd d88a 23be 0c2c b9be 718f 513d
00000100: aec7 983d e3dd 9d3d a24c 923e cc5e 9d3e
00000110: a637 12be 7525 99be 98f2 263e 3eec 1b3e
00000120: f488 e53d a858 fdbc c5fb 5cbe 030c babc
00000130: ea1d bebd c1b8 943e 8853 ebbb f52a d2bd
00000140: 8f02 a3be 3c7a 91bb 6476 4b3e 3556 3f3c
00000150: 4eae f6bc 8068 16bd 2482 9e3d e908 52be
00000160: eddf 74be 1ce1 3bbc dd1b b63d 9c9c 153d
00000170: 5c68 8a3e d58b 10be 33bc 93be 7600 21be
00000180: cf41 a6bd e594 8c3e fa4a 7a3d f0b7 4fbe
00000190: 2a73 e13d 6dd6 28bd 3d02 2dbd 0472 2f3d
000001a0: bf23 cabc 40c3 9b3d 91dc 81be cf27 79bd
000001b0: 247d 17be 5ea5 913e e5dc 18bd 5a45 343e
000001c0: d166 433d 83c6 1e3e 077b 273e a075 66bd
000001d0: 8d1c 023e c579 bd3d 481c 50bc 1c5b ddbb
000001e0: 121c 39be 29ab f9bb 836d 313e 41a5 b93d
000001f0: 0f0d 9dbd 8014 32bb daa6 a1be a76e 323e
00000200: f5ff b23d db68 2bbe 8009 e33d 7a81 71be
00000210: b368 86bd c08d 22be ea79 a73d 0ed7 1b3e
00000220: 2618 e13d bfbe eebc 7715 293e 3d0c 88be
00000230: 527b 6bbd 77ae b73d 0c91 763d 46f4 443d
00000240: 7df8 e4bb 9646 cfbc a3d5 34be 9dc6 3cbd
00000250: b821 57bd 962d cdbe 07e4 0fbc 1487 f13d
00000260: 929d c73c 46fc 57bd 0ea0 6fbe 6189 aebc
00000270: 8488 383e 2504 193e c308 0cbc 077b 55bd
00000280: a46a 31be 5af8 21be adfb 2c3e 9f92 1b3e
00000290: d01f 6abd e6e6 943e d64f afbe c611 02be
000002a0: 8543 5b3c 4798 bebd 58c8 d4bc 0fdc 93bd
000002b0: b529 aebd 899e bbbe b9e9 03bd 3701 97be
000002c0: e63e 04be 4f2e 0f3d 0c9c 9fbd af22 9dbd
000002d0: 2b54 98be f9d5 833e e35d 47be 79b5 883d
000002e0: 312f 4f3d 79c5 3b3c 2c3a 31bd 1ae5 46be
000002f0: 0bba b1bd 66fd 1b3c dc3c 203d c095 63be
00000300: 50df 843d e3ee dabd e58a 9ebd e96a d6bd
00000310: e21e 4abe c737 27bd e8a3 33bb f3f1 9cbd
00000320: 0dcf 5d3d 420d 643e 91e3 173d 8ed9 9fbb
00000330: c334 c1b9 e437 27be 9014 583e df59 e93d
00000340: e338 6abe 9dd0 ca3c 4cc6 afbc 306b 05be
00000350: 7056 233e 53e9 043d 9dd9 16be b478 3ebe
00000360: cd17 f23c e0d7 893d 5a6e 923e 1c9e 15be
00000370: 03a2 bc3d 9a8c 363d bf8f a93e 1351 70be
00000380: 131d 0ebe 8963 033e 322d a8bd 15d3 283e
00000390: b022 453e 8cc1 6bbe c117 0f3c 054b ac3d
000003a0: 7ffe 6ebe e9ae 18bd 9a5c 85bd bef7 98bc
000003b0: fce2 dc3e d14d 653d b0e8 71bd d275 78be
000003c0: 81c7 b03b e4a6 343d 091e a23a 3f7d 94bc
000003d0: 4804 52be 0577 efbd 0fdd 453e d2fd 80be
000003e0: 7e43 163e 4ccc aa3d 8453 463e b6af 20bd
000003f0: 2704 873e 7d17 6fbd 0848 95bd 576b a83d

encoder.1.running_var f4 [256]
10.637406 5.5124507 3.215107 6.0948977 3.380688 2.884139 4.38174 3.9545367
16.504744 4.1515436 5.152651 4.794129 4.2847786 4.171443 7.916163 8.02925
5.819958 10.689649 77.67651 5.130793 23.50698 25.944069 5.3230467 10.619022
7.5596504 4.3738256 5.894935 6.0493813 4.6420555 3.5042474 8.005879 4.810579
16.43684 7.059497 8.151394 4.6670065 5.416481 2.9317229 4.039848 4.1232867
3.7862556 5.7954993 4.6344094 51.23318 9.175398 3.1230478 28.894026 4.059214
5.038656 8.31592 5.206694 3.6449928 5.90834 13.290558 7.342096 5.6435804
15.45166 8.893453 3.3543751 5.7680364 4.3373685 13.739224 4.337704 4.4214525
5.5548778 3.541537 3.3779135 2.5017536 8.374911 7.151824 6.116467 4.7209663
6.3262734 6.5058575 8.07665 7.6130924 8.633766 8.817871 3.4152663 5.603956
4.8459735 3.719383 4.7570286 5.2678595 3.4449196 2.319523 12.157519 6.2672014
6.4079704 4.0143414 5.2486258 4.3874345 3.1181674 8.591873 3.4013402 3.2564983
3.024117 7.768689 10.854495 4.054161 3.4539561 4.0378942 4.6495113 3.9155724
8.37529 3.3068502 4.096744 10.151497 3.191654 5.1366496 3.1447122 6.0055895
8.315198 9.457531 13.544339 7.0097504 21.578878 2.9980264 12.428863 4.904511
9.807885 13.074466 7.294464 3.0772116 4.213238 5.1626678 7.4240327 3.956885
7.8526387 6.4846196 5.3305492 6.0927095 3.7784424 6.453961 6.48537 7.378835
5.1936464 3.8927875 15.083241 20.702896 6.4616313 5.9851646 6.9378767 4.602318
5.57574 5.2565327 4.6366777 4.216311 4.810522 8.406078 7.6035876 2.5547538
6.9834733 6.0591187 41.712975 3.9808369 9.059917 3.7945356 4.922597 3.8746903
3.189979 3.8728802 11.9950285 3.6275203 4.8796077 5.983382 5.383987 5.152993
4.0248427 4.614398 8.183105 11.217649 11.964971 107.730675 5.2557583 12.400432
7.1366043 4.444525 4.7020693 6.071884 3.4782119 3.887587 6.3050165 6.6289153
6.614149 3.5209582 6.316053 8.614307 2.6123877 8.92827 3.184306 5.8469872
7.3834286 7.740442 3.2201746 4.8243027 4.3822894 8.28923 4.731141 3.2947483
5.9076824 9.395584 5.136218 5.3963304 3.5008967 3.0694957 9.924605 7.048492
3.2723095 6.300082 5.615575 10.143731 6.958657 11.358716 4.4512253 4.619109
7.3455286 1.4364593 4.9381924 4.6657457 5.7613053 8.368382 68.05695 4.33625
6.572797 6.6515226 6.318667 3.645876 9.6723585 8.583616 4.117232 4.1447883
5.8429446 5.8550234 13.788608 3.7043045 13.38935 2.8467882 5.270382 6.5400157
3.5064864 5.840977 5.711799 6.0751796 3.8022609 3.8443372 12.156936 5.368649
4.344897 2.6720958 15.865359 4.143966 11.937421 3.2758374 7.8284745 7.073242
00000000: d132 2a41 ff65 b040 50c4 4d40 6709 c340
00000010: 315d 5840 bc95 3840 3737 8c40 2117 7d40
00000020: b709 8441 72d9 8440 84e2 a440 8169 9940
00000030: e81c 8940 767c 8540 3551 fd40 cf77 0041
00000040: 193d ba40 cd08 2b41 605a 9b42 752f a440
00000050: 4c0e bc41 748d cf41 6656 aa40 84e7 2941
00000060: a8e8 f140 61f6 8b40 4fa3 bc40 8894 c140
00000070: b88b 9440 9745 6040 1518 0041 43f0 9940
00000080: a67e 8341 66e7 e140 1c6c 0241 1e58 9540
00000090: d053 ad40 59a1 3b40 6f46 8140 f7f1 8340
000000a0: 0352 7240 bb74 b940 154d 9440 c7ee 4c42
000000b0: 6ece 1241 04e0 4740 f726 e741 15e5 8140
000000c0: ac3c a140 020e 0541 3d9d a640 9047 6940
000000d0: 1f11 bd40 20a6 5441 73f2 ea40 3698 b440
000000e0: 003a 7741 954b 0e41 15ae 5640 c193 b840
000000f0: b9cb 8a40 ddd3 5b41 79ce 8a40 8a7c 8d40
00000100: 8fc1 b140 8ba8 6240 bc2f 5840 bb1c 2040
00000110: a3ff 0541 bedb e440 19ba c340 2812 9740
00000120: d570 ca40 fc2f d040 f539 0141 749e f340
00000130: e823 0a41 0016 0d41 b993 5a40 9c53 b340
00000140: 3712 9b40 5f0a 6e40 9439 9840 4e92 a840
00000150: 9079 5c40 1173 1440 3385 4241 ea8c c840
00000160: 180e cd40 7c75 8040 bef4 a740 dd65 8c40
00000170: 0e90 4740 5078 0941 8faf 5940 786a 5040
00000180: 228b 4140 1a99 f840 03ac 2d41 b0bb 8140
00000190: 9e0d 5d40 6e36 8140 ccc8 9440 bd98 7a40
000001a0: 3001 0641 6fa3 5340 8718 8340 886c 2241
000001b0: 0f44 4c40 6f5f a440 f742 4940 ca2d c040
000001c0: 0d0b 0541 0c52 1741 9db5 5841 e04f e040
000001d0: 8ba1 ac41 aadf 3f40 9fdc 4641 c1f1 9c40
000001e0: 19ed 1c41 0331 5141 406c e940 09f1 4440
000001f0: d8d2 8640 9334 a540 ad91 ed40 9b3d 7d40
00000200: d148 fb40 0182 cf40 dc93 aa40 7af7 c240
00000210: 00d2 7140 d986 ce40 2788 cf40 6b1f ec40
00000220: 5a32 a640 6e23 7940 f554 7141 889f a541
00000230: afc5 ce40 7886 bf40 1603 de40 3046 9340
00000240: 766c b240 8435 a840 aa5f 9440 05ec 8640
00000250: ccef 9940 4c7f 0641 9750 f340 1681 2340
00000260: 9d78 df40 4de4 c140 16da 2642 08c6 7e40
00000270: 6cf5 1041 acd9 7240 ea85 9d40 edfa 7740
00000280: 9e28 4c40 45dd 7740 a3eb 3f41 4b29 6840
00000290: bf25 9c40 de77 bf40 9f49 ac40 52e5 a440
000002a0: 83cb 8040 26a9 9340 00ee 0241 7e7b 3341
000002b0: 8570 3f41 1b76 d742 2c2f a840 2b68 4641
000002c0: 105f e440 8c39 8e40 5a77 9640 e04c c240
000002d0: 069b 5e40 3ace 7840 b2c2 c940 1320 d440
000002e0: 1ca7 d340 6157 6140 1b1d ca40 34d4 0941
000002f0: 5c31 2740 32da 0e41 abcb 4b40 851a bb40
00000300: 0c45 ec40 b3b1 f740 5717 4e40 b060 9a40
00000310: b73b 8c40 b0a0 0441 8265 9740 28dd 5240
00000320: bc0b bd40 5054 1641 e65b a440 bdae ac40
00000330: b10e 6040 9e72 4440 2fcb 1e41 3f8d e140
00000340: 856d 5140 469a c940 cab2 b340 b94c 2241
00000350: 51ad de40 4dbd 3541 7070 8e40 becf 9340
00000360: 920e eb40 e6dd b73f ac05 9e40 ca4d 9540
00000370: 9d5c b840 e5e4 0541 291d 8842 8fc2 8a40
00000380: 5a54 d240 46d9 d440 8532 ca40 0856 6940
00000390: fbc1 1a41 7e56 0941 5dc0 8340 1ba2 8440
000003a0: 67f9 ba40 5a5c bb40 239e 5c41 5313 6d40
000003b0: c73a 5641 c731 3640 f8a6 a840 cf47 d140
000003c0: 466a 6040 49e9 ba40 0fc7 b640 df67 c240
000003d0: 3e58 7340 9f09 7640 cf82 4241 f9cb ab40
000003e0: 6509 8b40 9e03 2b40 83d8 7d41 5f9b 8440
000003f0: adff 3e41 52a7 5140 dd82 fa40 0058 e240

encoder.4.weight f4 [128, 256]
-0.056321364 -0.056599878 0.029228337 -0.026079124 -0.047353987 -0.012480032 -0.055779405 0.0156403
-0.114288285 0.054594625 0.07754741 -0.077218324 0.030055834 -0.01898642 -0.10582734 0.023731548
0.0240535 0.040186405 0.0037258046 -0.040258702 -0.00652675 0.029901117 -0.012116092 0.06881626
0.16934043 -0.10845178 0.010956428 -0.07347814 -0.03941364 0.047962047 -0.08594535 -0.21308136
0.030750562 0.06264551 -0.004266753 -0.10038118 -0.020033445 0.046714094 -0.0939597 0.03281542
-0.017534379 -0.06260898 0.08387441 0.0088200085 0.026526265 -0.1399062 -0.049359307 -0.04960783
-0.047478165 -0.05903726 -0.035662387 -0.055131633 -0.028900933 -0.038522217 -0.043181576 -0.05556328
0.047248997 0.05574421 -0.060766343 -0.12497973 0.019194197 0.10698106 0.008851466 -0.0015140667
-0.052029468 -0.003192107 -0.12670043 -0.040357593 0.13182837 -0.0025543375 -0.092654996 -0.01726404
-0.0299578 0.017451424 0.0066737663 -0.033036705 0.094118826 -0.015520926 -0.06525811 -0.013906334
0.019148322 -0.0005474989 -0.053497232 0.0036022696 0.082317114 -0.01511302 -0.015118436 -0.07978438
-0.020161474 -0.08658637 -0.04250712 0.0013523782 -0.065599576 0.013302209 -0.074245505 -0.08933394
0.0028833163 -0.035291053 0.050097514 0.013936151 0.0032949867 0.05454635 0.040661056 -0.043538924
0.09964243 0.06736994 0.018033953 -0.013947127 -0.09510014 -0.095439255 0.033563707 -0.020091629
-0.04149405 0.026964683 0.01887085 0.027282115 -0.012193482 0.028541444 0.03791458 -0.060674272
-0.06997846 0.034693267 -0.064843416 -0.095832676 0.060022507 -0.18865968 -0.016704082 -0.1575782
0.054523278 -0.004964233 -0.06964483 0.058877762 0.06387637 0.064806126 0.037474014 0.053010575
-0.08940634 0.054637995 -0.01043296 -0.009503156 0.0008152988 -0.060679857 0.02724629 -0.019549346
-0.18227713 -0.0029680294 0.06431022 0.02538367 -0.04780553 0.057913616 0.033521447 -0.024430458
-0.07668072 -0.12639323 0.00629059 -0.063540496 -0.023392707 -0.10293354 -0.000521742 -0.05243979
-0.07058674 -0.046166793 -0.08493718 0.034117803 0.01526586 -0.048701007 -0.0025504965 0.0040435735
-0.14408454 -0.01825077 -0.012034821 0.024039237 0.06644217 0.020288397 -0.030360812 0.02217601
0.012123173 -0.074535385 -0.1073996 0.05037759 0.06898347 -0.06240181 -0.010757063 0.042394962
-0.082751594 -0.13355349 -0.067388006 0.023749076 -0.070312686 -0.044839352 -0.111177854 -0.038719837
0.048515897 -0.023674086 0.03138269 -0.045926392 0.0962418 0.14378099 -0.07763906 -0.15947342
0.039371956 -0.013828173 -0.021617776 -0.015158382 -0.07063759 -0.04195376 -0.038368665 -0.12461761
0.074806124 0.07316579 0.03394543 0.07490056 -0.139498 0.03295553 0.032258525 0.0035052109
-0.022213815 -0.05713267 -0.09580233 0.06264196 -0.0038493115 -0.0038560163 0.0070754546 0.024606973
-0.0016719695 0.033608854 -0.00027554086 -0.015110125 -0.056389783 -0.041772272 0.050080676 -0.11168337
0.12809436 0.041947894 0.036209464 -0.07576937 -0.08984269 -0.060251772 -0.12447144 0.04116471
0.029147323 0.041329276 0.02429857 -0.01727056 -0.041471392 -0.10606541 0.051951163 0.052519657
-0.082841374 -0.059011582 0.0013866356 -0.005394557 0.043198843 -0.051111884 0.021267062 0.057623863
00000000: 3bb1 66bd 46d5 67bd 4470 ef3c e3a3 d5bc
00000010: 41f6 41bd 0c79 4cbc f278 64bd 1620 803c
00000020: fa0f eabd 9d9e 5f3d 2dd1 9e3d a424 9ebd
00000030: a737 f63c 6989 9bbc 01bc d8bd aa68 c23c
00000040: d80b c53c 809a 243d a12c 743b 4fe6 24bd
00000050: 59de d5bb 30f3 f43c 9382 46bc 8aef 8c3d
00000060: 9467 2d3e f81b debd 9782 333c b57b 96bd
00000070: 3270 21bd da73 443d 1e04 b0bd 0032 5abe
00000080: 9ae8 fb3c 4a4c 803d 1ed0 8bbb a694 cdbd
00000090: 2e1d a4bc 4757 3f3d f16d c0bd 7669 063d
000000a0: 42a4 8fbc 2339 80bd 59c6 ab3d cc81 103c
000000b0: 9c4d d93c 9243 0fbe fc2c 4abd 9431 4bbd
000000c0: 7778 42bd 0ed1 71bd b912 12bd b5d1 61bd
000000d0: a6c1 ecbc 79c9 1dbd 2adf 30bd 5296 63bd
000000e0: 2a88 413d 0a54 643d 21e6 78bd 5ff5 ffbd
000000f0: 263d 9d3c e318 db3d bd05 113c a673 c6ba
00000100: da1c 55bd ab32 51bb c2bd 01be 014e 25bd
00000110: 04fe 063e ac66 27bb e7c1 bdbd 516d 8dbc
00000120: 0f6a f5bc 4af6 8e3c 9caf da3b 7f51 07bd
00000130: 5fc1 c03d 7b4b 7ebc 0ba6 85bd 64d7 63bc
00000140: f1dc 9c3c 0786 0fba ea1f 5bbd 0e14 6c3b
00000150: e095 a83d 9a9c 77bc 51b3 77bc fe65 a3bd
00000160: ad29 a5bc 3254 b1bd f21b 2ebd 4842 b13a
00000170: 1259 86bd 82f1 593c 070e 98bd b6f4 b6bd
00000180: 05f6 3c3b 5a8d 10bd 0d33 4d3d 7454 643c
00000190: b4f0 573b fe6b 5f3d 358c 263d df55 32bd
000001a0: 5511 cc3d 40f9 893d f1bb 933c 7e82 64bc
000001b0: ddc3 c2bd a875 c3bd 197a 093d 3397 a4bc
000001c0: aaf5 29bd 0ae5 dc3c 0a97 9a3c be7e df3c
000001d0: 2cc7 47bc bfcf e93c 524c 1b3d 9685 78bd
000001e0: de50 8fbd 871a 0e3d a0cc 84bd ec43 c4bd
000001f0: 29da 753d 0130 41be 00d7 88bc 2e5c 21be
00000200: cd53 5f3d 01ab a2bb f3a1 8ebd cf29 713d
00000210: 9dd1 823d 13b9 843d 5a7e 193d 9e21 593d
00000220: ac1a b7bd 17cc 5f3d 02ef 2abc 20b3 1bbc
00000230: c7b9 553a 718b 78bd 9d33 df3c f325 a0bc
00000240: dba6 3abe 4583 42bb 14b5 833d 6af1 cf3c
00000250: bbcf 43bd d436 6d3d c94d 093d 6222 c8bc
00000260: c80a 9dbd 3a6d 01be 4b21 ce3b 8521 82bd
00000270: 10a2 bfbc d2ce d2bd 83c5 08ba 1bcb 56bd
00000280: c88f 90bd 6419 3dbd 8bf3 adbd 1cbf 0b3d
00000290: a81d 7a3c b57a 47bd 3b26 27bb f47f 843b
000002a0: e68a 13be a482 95bc b32d 45bc efed c43c
000002b0: d512 883d da33 a63c 3db7 f8bc 77aa b53c
000002c0: 46a0 463c 02a6 98bd 52f4 dbbd bb58 4e3d
000002d0: 3547 8d3d 0a99 7fbd 643e 30bc 57a6 2d3d
000002e0: ab79 a9bd 3fc2 08be b902 8abd 6c8d c23c
000002f0: 1900 90bd 78a9 37bd 37b1 e3bd b198 1ebd
00000300: 9bb8 463d 28f0 c1bc 238b 003d 501d 3cbd
00000310: 6c1a c53d 533b 133e 3a01 9fbd 004d 23be
00000320: 7d44 213d 908f 62bc c317 b1bc dd5a 78bc
00000330: 71aa 90bd b5d7 2bbd 7628 1dbd 8437 ffbd
00000340: f433 993d f2d7 953d 5d0a 0b3d 7765 993d
00000350: 90d8 0ebe 61fc 063d 8421 043d aeb7 653b
00000360: bff9 b5bc f203 6abd 0334 c4bd 6e4a 803d
00000370: bb44 7cbb 38b5 7cbb 37d9 e73b 9094 c93c
00000380: fd25 dbba 70a9 093d 7876 90b9 7590 77bc
00000390: f9f8 66bd 6719 2bbd 6521 4d3d 40ba e4bd
000003a0: 2b2b 033e 8ed1 2b3d 6050 143d f92c 9bbd
000003b0: 72ff b7bd 90ca 76bd e2ea febd 549c 283d
000003c0: 5ec6 ee3c e348 293d cb0d c73c fd7a 8dbc
000003d0: e8dd 29bd d238 d9bd beca 543d da1e 573d
000003e0: bda8 a9bd 21b6 71bd c5bf b53a d3c4 b0bb
000003f0: 45f1 303d b25a 51bd 4338 ae3c 0007 6c3d

encoder.4.bias f4 [128]
0.0064238063 -0.033645943 0.04882034 0.02016186 0.008925428 -0.013296523 0.016390482 -0.058989026
-0.034411255 0.04526176 -0.016902797 -0.05306409 -0.04997691 -0.0147123365 -0.041215483 -0.047517527
-0.020134633 0.045096956 0.015171772 0.009297639 0.026148578 -0.030966617 -0.0006683763 -0.004251248
0.036283273 -0.003546595 0.042374976 0.011443696 -0.050206766 -0.05712237 -0.04203905 0.023525422
0.039274044 -0.019909311 0.062541045 -0.0055901883 0.02544832 -0.06002719 0.043461747 0.018373676
0.003608439 0.034850214 0.0010852792 -0.023760485 0.045051042 0.06014386 -0.013879219 0.029426754
0.04432432 0.031037495 -0.060380913 0.024175433 0.039017275 -0.033769917 -0.044766806 0.057918686
-0.053203776 0.0054232823 0.04062753 -0.010749319 -0.017791834 -0.031733308 -0.02954934 0.020196116
0.027995294 -0.03638642 -0.025437336 -0.021851802 -0.051012922 -0.0062897266 -0.030190986 0.05923316
-0.022286989 -0.052709118 -0.0035655752 -0.02652559 0.048855953 -0.009777262 -0.068576604 0.006118544
-0.013036914 -0.048316304 -0.056853265 0.047352873 -0.01972727 0.01601067 -0.014732354 -0.05505188
-0.022513524 -0.0021237775 -0.007835949 -0.009681666 0.029133199 -0.020657694 -0.054781463 -0.03637504
0.049051467 -0.00018621013 -0.006509072 0.033851776 -0.054752048 -0.005454725 -0.0034807173 0.047645506
-0.04037398 0.021205181 0.0076780226 -0.026246838 0.05853447 -0.025315864 0.03445435 0.06445529
0.0041798893 -0.041220073 -0.049510993 -0.059283625 -0.036707778 -0.013720717 -0.055852976 0.04344218
0.0062598926 0.007109541 0.045567546 0.020792969 0.017435644 -0.06707933 -0.040409554 -0.05749622
00000000: cb7e d23b 54d0 09bd d6f7 473d 7c2a a53c
00000010: f53b 123c a9d9 59bc 5545 863c 7a9e 71bd
00000020: d1f2 0cbd 6564 393d bc77 8abc bb59 59bd
00000030: 97b4 4cbd 030c 71bc 91d1 28bd bda1 42bd
00000040: 63f1 a4bc 96b7 383d 0693 783c 2055 183c
00000050: 8b35 d63c b4ad fdbc f935 2fba 0e4e 8bbb
00000060: c59d 143d fe6d 68bb 6291 2d3d 577e 3b3c
00000070: 9ca5 4dbd 25f9 69bd 2431 2cbd 63b8 c03c
00000080: d2dd 203d da18 a3bc 8515 803d e62d b7bb
00000090: ff78 d03c 12df 75bd f204 323d 6484 963c
000000a0: 8f7b 6c3b 19bf 0e3d ed3f 8e3a 59a5 c2bc
000000b0: 7187 383d 6859 763d aa65 63bc 6010 f13c
000000c0: 6b8d 353d 5842 fe3c fa51 77bd 8f0b c63c
000000d0: 94d0 1f3d 5352 0abd 665d 37bd 253c 6d3d
000000e0: 34ec 59bd cab5 b13b 0e69 263d e91d 30bc
000000f0: 2ec0 91bc c9fa 01bd 7511 f2bc 5372 a53c
00000100: 6356 e53c ed09 15bd f661 d0bc 8d02 b3bc
00000110: edf2 50bd 0d1a cebb 1653 f7bc 789e 723d
00000120: 3493 b6bc 84e5 57bd 6dac 69bb 324c d9bc
00000130: 2e1d 483d cf30 20bc e471 8cbd 117e c83b
00000140: c898 55bc 51e7 45bd f8de 68bd 16f5 413d
00000150: 159b a1bc cf28 833c f95f 71bc 157e 61bd
00000160: 486e b8bc 132f 0bbb 5a62 00bc da9f 1ebc
00000170: bfa8 ee3c 533a a9bc 8762 60bd fefd 14bd
00000180: 31ea 483d 6741 43b9 0e4a d5bb 29a8 0a3d
00000190: af43 60bd 8dbd b2bb bf1c 64bb ef27 433d
000001a0: 305f 25bd 7db6 ad3c ec97 fb3b 9c03 d7bc
000001b0: d7c1 6f3d 3763 cfbc 0120 0d3d 2301 843d
000001c0: 74f7 883b 61d6 28bd 0acc 4abd 63d3 72bd
000001d0: e55a 16bd dccc 60bc 17c6 64bd 6df0 313d
000001e0: c91f cd3b 27f7 e83b 09a5 3a3d 0456 aa3c
000001f0: 32d5 8e3c e360 89bd 7d84 25bd 2881 6bbd

encoder.5.weight f4 [128]
0.9695168 0.9308008 1.0468119 0.93757826 0.9695432 1.1428958 1.0738323 0.88558424
0.9163587 0.99088573 1.0003009 0.9334608 0.93591905 1.0455865 0.99313235 1.096248
0.9665238 0.95407754 1.010135 1.1649603 0.9386523 1.0144421 0.9402994 0.90202695
0.9920991 0.94036907 1.0820874 0.9625198 0.93815327 1.0426617 1.001219 0.9790209
0.97285295 1.1638166 0.9365919 0.9105873 0.9496825 0.92339325 1.0387347 0.9549658
0.92905265 1.0381247 1.0261331 0.9743041 0.9397356 0.87359124 1.0417356 1.0174419
0.9266355 0.9752334 0.9689156 1.0189594 0.94719625 0.9874697 1.0209711 1.0304484
0.9346166 1.1153481 1.0305718 0.95672303 0.9524316 0.9527874 1.0086161 1.0581338
1.1442132 0.99363947 0.9885244 0.9090274 0.89051956 1.0244029 0.97034204 0.9543536
0.9083334 0.98775876 1.0920453 0.9188817 1.1085148 0.94757664 0.9644751 1.0182797
1.1338006 1.0688465 0.9884413 1.0604022 0.9770257 0.9326351 1.0524395 0.9247021
0.9542508 0.9276989 1.0607642 1.0048169 1.0125154 0.94593376 0.9720998 0.96590096
1.0082513 0.9760626 0.96378434 0.92616147 0.97710395 0.9275231 1.0391753 1.0919365
1.0149425 0.9367882 0.9943922 1.090084 0.94230676 0.9921937 1.0379031 0.9410639
0.9679042 0.94044673 0.9993706 1.0195724 1.0194879 0.9934489 0.9088336 0.94390774
0.919376 1.126 0.9085693 0.91727585 1.0058653 0.95369905 0.99955475 1.038473
00000000: 4132 783f f648 6e3f effd 853f 2105 703f
00000010: fc33 783f 694a 923f 5673 893f a6b5 623f
00000020: 7c96 6a3f b0aa 7d3f dc09 803f 49f7 6e3f
00000030: 6498 6f3f c7d5 853f ec3d 7e3f db51 8c3f
00000040: 1b6e 773f 6d3e 743f 1b4c 813f 6b1d 953f
00000050: 844b 703f 3dd9 813f 76b7 703f 3deb 663f
00000060: 35fa 7d3f 07bc 703f d781 8a3f b367 763f
00000070: d02a 703f f075 853f f227 803f 1da1 7a3f
00000080: e40c 793f f1f7 943f 7dc4 6f3f 401c 693f
00000090: 641e 733f 8063 6c3f 42f5 843f a378 743f
000000a0: 65d6 6d3f 45e1 843f 5458 833f fe6b 793f
000000b0: 8392 703f ada3 5f3f 9857 853f 893b 823f
000000c0: fc37 6d3f e5a8 793f da0a 783f 436d 823f
000000d0: 747b 723f d0ca 7c3f 2eaf 823f bce5 833f
000000e0: 0943 6f3f bac3 8e3f c7e9 833f cdeb 743f
000000f0: 8fd2 733f e0e9 733f 551a 813f ee70 873f
00000100: 9475 923f 285f 7e3f ef0f 7d3f 05b6 683f
00000110: 17f9 633f a21f 833f 5668 783f 8450 743f
00000120: 8a88 683f c2dd 7c3f 24c8 8b3f d53b 6b3f
00000130: d0e3 8d3f 6294 723f d7e7 763f fd56 823f
00000140: 6120 913f f6cf 883f 7d0a 7d3f 42bb 873f
00000150: 5b1e 7a3f 2dc1 6e3f 56b6 863f 47b9 6c3f
00000160: c849 743f ad7d 6d3f 1fc7 873f d79d 803f
00000170: 1b9a 813f b728 723f 88db 783f 4945 773f
00000180: 610e 813f 3ddf 793f 92ba 763f eb18 6d3f
00000190: 7c23 7a3f 2772 6d3f b203 853f 93c4 8b3f
000001a0: a3e9 813f 5ad1 6f3f 7d90 7e3f df87 8b3f
000001b0: 043b 713f 6800 7e3f 02da 843f 90e9 703f
000001c0: 92c8 773f 1ec1 703f c0d6 7f3f 5981 823f
000001d0: 947e 823f ab52 7e3f 52a9 683f f0a3 713f
000001e0: 3a5c 6b3f c520 903f ff97 683f 97d2 6a3f
000001f0: 32c0 803f 9f25 743f d2e2 7f3f afec 843f
