outputs_intermediate/models/simclr_model.pth (torch, 916896 bytes, 24 tensors)

encoder.0.weight f4 [512, 50]
0	0xbca9cc88	-0.02072741
1	0xbdf3e58b	-0.11909016
2	0x3e2139e7	0.15744744
3	0xbdb9e776	-0.09077351
4	0x3e286a37	0.16446768
5	0x3dbba302	0.09161951
6	0xbde956d3	-0.113935135
7	0x3d85ff68	0.065428555
8	0x3db1d2be	0.08682774
9	0x3e405d78	0.18785655
10	0x3d8c5f78	0.06854147
11	0x3d7d3b41	0.061824087
12	0xbc31648a	-0.010827193
13	0xbd58b9d6	-0.052911602
14	0xbe05ceef	-0.1306722
15	0x3db5487a	0.088517144
16	0x3ec0ed10	0.37680864
17	0xbcb16b63	-0.021657651
18	0xbe08c0ca	-0.13354793
19	0x3ceb7127	0.028740479
20	0xbdcf4962	-0.101214185
21	0xbd860a16	-0.065448925
22	0x3ded9be5	0.11602
23	0xbde9a9e2	-0.11409356
24	0x3e16a5b3	0.14711647
25	0x3ca2ee8f	0.019889144
26	0x3d330491	0.043705527
27	0x3da77cad	0.08178077
28	0x3d9ba8c0	0.07600546
29	0xbe70f12d	-0.23529501
30	0x3c25a1a2	0.010109337
31	0xbda7f5f1	-0.082012065
32	0xbdc98aee	-0.09840952
33	0xbdec8b9b	-0.11550065
34	0xbcf5ef3f	-0.030021308
35	0xbc930c9c	-0.017950349
36	0x3df05e1f	0.11736702
37	0xbe45a951	-0.1930287
38	0xbe58f2ce	-0.21186373
39	0xbc210e7d	-0.009830114
40	0x3da47784	0.08030608
41	0x3e579cc8	0.21055901
42	0xbe1d4d0e	-0.15361425
43	0xbda5a89e	-0.08088802
44	0xbcd534fb	-0.02602624
45	0x3df7ecdb	0.121057235
46	0xbb08b401	-0.0020859244
47	0x3e085f3b	0.13317578
48	0x3cf6c366	0.03012247
49	0x3ca89294	0.020577706
50	0xbc0eae82	-0.008708598
51	0xbe103967	-0.14084397
52	0xbea1bd34	-0.31589663
53	0x3d4ea473	0.0504498
54	0x3dd23d71	0.10265625
55	0xbdfd4d55	-0.123682655
56	0x3e1b9256	0.15192541
57	0x3e02d136	0.1277512
58	0x3e8456d8	0.25847507
59	0xbe9867ca	-0.29766685
60	0x3d83870a	0.06422241
61	0x3db46da7	0.08809977
62	0x3daebfe5	0.08532695
63	0x3db66cb4	0.08907452
64	0xbc55caea	-0.013048867
65	0x3c43fb6e	0.011961801
66	0xbe21a66e	-0.15786144
67	0x3d815fcc	0.063171
68	0xbe010815	-0.1260074
69	0x3dfe4d1d	0.12417052
70	0x3e4795ad	0.1949069
71	0x3d89da76	0.06731121
72	0x3de75f5d	0.11297486
73	0xbb47a31d	-0.0030462213
74	0xbcfbe4a7	-0.030748678
75	0x3d8f5981	0.069994934
76	0x3e246844	0.16055399
77	0xbe85f0a9	-0.26160172
78	0x3d26bb87	0.040706184
79	0x3c269ec5	0.01016969
80	0x3d520d76	0.05128237
81	0xbd3c7e6b	-0.046019
82	0xbe29cdf3	-0.1658247
83	0x3ca3b63f	0.019984363
84	0xbdef6216	-0.1168863
85	0x3c86c525	0.016451428
86	0xbcd079aa	-0.025448639
87	0x3e200795	0.15627892
88	0x3d09d3a6	0.03364911
89	0x3c0fe157	0.008781753
90	0x3da1b9b0	0.07896745
91	0xbd49d4cc	-0.049275205
92	0xbc8aec96	-0.016958516
93	0xbcd8c9bd	-0.026463384
94	0xbc3ace36	-0.011401704
95	0x3ba3612a	0.004985948
96	0xbda8d11c	-0.082430094
97	0xbce2479f	-0.027622042
98	0xbc6af8b6	-0.014341524
99	0x3d3e802f	0.046508964
100	0x3e5c328a	0.21503654
101	0x3e9b2467	0.3030121
102	0x3ab0c972	0.001348777
103	0xbdc3f200	-0.09567642
104	0x3e1e78c7	0.1547576
105	0xbbd5dc9e	-0.0065265438
106	0xbe32f796	-0.17477259
107	0x3cd69eb5	0.026198724
108	0xbdc843b8	-0.09778541
109	0xbc66a1e8	-0.014076687
110	0xbcbe7b57	-0.023252172
111	0x3da3dcfd	0.080011345
112	0x3d01a5f3	0.031652402
113	0xbd834d74	-0.064112574
114	0x3cd19e12	0.02558807
115	0xbdbe6dc5	-0.092982806
116	0xbd2ae0ad	-0.041718174
117	0x3dc0ed39	0.09420247
118	0x3d8e600b	0.069519125
119	0xbdb75dd3	-0.089534424
120	0x3cfedfd1	0.031112583
121	0xbcbb72ee	-0.022881951
122	0xbd9ad908	-0.07560927
123	0xbcbb22d2	-0.022843752
124	0xbcb92a89	-0.02260329
125	0xbbe95968	-0.0071212538
126	0x3dec8c22	0.11550166
127	0xbc97dd3c	-0.01853811
128	0x3ce0b271	0.027428837
129	0x3e04f86a	0.12985387
130	0x3d6894f9	0.056782696
131	0x3b87f3bb	0.004148928
132	0x3c8c22b1	0.017106386
133	0x3c314b3d	0.010821161
134	0xbd36d14e	-0.044633202
135	0x3ad25bc9	0.0016049083
136	0xbc4ad94d	-0.01238091
137	0xbd2921f6	-0.041292153
138	0x3d872aed	0.06599984
139	0xbd535161	-0.05159128
140	0x3b1f42f9	0.0024301393
141	0xbd4d098d	-0.050057936
142	0x3e182dcf	0.14861225
143	0x3e1ca081	0.15295602
144	0x3cd9cd1b	0.02658706
145	0x3c3a919e	0.011387257
146	0x3bb6ed3b	0.0055824793
147	0xbcf1c20d	-0.029511476
148	0x3ca27eee	0.019835915
149	0xbc8a99ec	-0.016919099
150	0xbac98d09	-0.0015377115
151	0xbd365c17	-0.044521417
152	0x3d8a6ccd	0.06759033
153	0x3c89fd9b	0.016844561
154	0xbd1e1300	-0.03859234
155	0xbc9cff5e	-0.019164737
156	0xbe4648d5	-0.1936372
157	0x3df1cfd2	0.11807217
158	0xbd80c450	-0.06287444
159	0xbd8c44de	-0.06849073
160	0x3df6f27b	0.12057968
161	0xbd9ddc32	-0.077080145
162	0xbdd62939	-0.10457081
163	0xbd3e67ce	-0.046485715
164	0x3db74dc2	0.08950378
165	0x3d671348	0.056414872
166	0xbd8e0e24	-0.06936291
167	0xbd622d1b	-0.055218797
168	0x3ce14aaf	0.027501432
169	0x3db588d4	0.088639885
170	0x3d2059a4	0.039147988
171	0xbc999f2c	-0.018752657
172	0x3e24522e	0.16046974
173	0xbb6dcd8f	-0.0036285853
174	0xbdf38df9	-0.118923135
175	0x3e04a034	0.12951738
176	0xbdfb7709	-0.122785635
177	0xbd0d2282	-0.034456737
178	0x3ca541ae	0.02017292
179	0xbbae9206	-0.005327466
180	0xbd8c4221	-0.068485506
181	0xbd391434	-0.045185283
182	0xbd955aa9	-0.07292683
183	0x3df73597	0.12070768
184	0xbdcead51	-0.10091651
185	0x3e2beb02	0.16788867
186	0xbdf66e90	-0.12032807
187	0xbda2496d	-0.07924161
188	0xbe32690d	-0.17422886
189	0x3c0c04b4	0.008546043
190	0x3d7b2a0e	0.061319403
191	0xbe6ce18a	-0.23132911
192	0x3d91385c	0.07090828
193	0x3d5bf1cd	0.053697396
194	0x3d0db1f1	0.034593526
195	0x3de1a61a	0.110180095
196	0x3c7577c9	0.014982172
197	0xbe31632a	-0.17322984
198	0xbe5d5559	-0.21614589
199	0xbe208bb7	-0.15678297
200	0x3b8d7b27	0.0043176594
201	0xbca2ea37	-0.019887073
202	0x3d5fa9b2	0.054605193
203	0x3dc2c867	0.0951088
204	0x3e4b383b	0.19845669
205	0x3e1d3bff	0.15354918
206	0xbdf101a5	-0.11767892
207	0xbd99e25f	-0.0751388
208	0x3daab1f5	0.08334724
209	0x3bedb0da	0.0072537484
210	0xbd59e0dd	-0.053192962
211	0x3e5fc962	0.21854165
212	0xbc83b162	-0.016075794
213	0x3c575db2	0.013144897
214	0xbdab815d	-0.083742835
215	0x3d779bc7	0.060451295
216	0x3dc1d367	0.0946415
217	0x3e46d425	0.19416864
218	0xbc56b8a3	-0.013105544
219	0xbd819a6b	-0.06328281
220	0x3df424db	0.11921092
221	0xbe3399f5	-0.17539199
222	0x3db4d2de	0.08829282
223	0x3e14a88d	0.14517422
224	0xbd0fa0ed	-0.03506558
225	0xba7b40df	-0.00095845567
226	0xbe2295c1	-0.15877439
227	0xbe32a390	-0.17445207
228	0xbe62bb8a	-0.22141853
229	0x3e3b926b	0.18317573
230	0xbdeac5fd	-0.114635445
231	0x3e33c748	0.17556489
232	0xbe786a89	-0.2425939
233	0x3da4eb15	0.08052651
234	0x3e5b08cd	0.21390076
235	0x3dd8502a	0.10562165
236	0x3cb6451f	0.022249756
237	0xbbd37371	-0.0064529707
238	0x3d0ed6e3	0.0348729
239	0x3e0cc2cb	0.13746183
240	0x3d3296ca	0.043600835
241	0x3e1b2539	0.15150918
242	0x3e5cd839	0.21566857
243	0x3e68ad89	0.22722448
244	0xbcf56f54	-0.029960312
245	0xbd75b616	-0.059988104
246	0x3d5ecb47	0.05439308
247	0xbe25a863	-0.16177516
248	0xbde5642d	-0.11200748
249	0xbce12825	-0.027484963
250	0x3c348e76	0.011020293
251	0xbe33f2b4	-0.17573053
252	0x3d5f4c32	0.054516025
253	0xbcc03195	-0.023461143
254	0xbde5d291	-0.11221803
255	0xbdfe7827	-0.12425261

encoder.0.bias f4 [512]
0	0xbd0cea68	-0.034403235
1	0x3d99e757	0.07514828
2	0xbd9457fe	-0.07243346
3	0xbd17ee67	-0.037092593
4	0x3dcf826e	0.10132299
5	0x3d2cb220	0.04216206
6	0x3d9a43d9	0.07532472
7	0x3c4029e1	0.011728735
8	0x3dacd9bf	0.08439969
9	0x3d6b54a1	0.057453755
10	0x3dca97d6	0.09892242
11	0xbc8f42cf	-0.017487912
12	0x3dbd61ca	0.092471674
13	0x3d97befa	0.07409473
14	0x3dfe34d2	0.124124184
15	0x3cb884a5	0.022524187
16	0x3dc3b583	0.09556105
17	0xbdfbe93b	-0.123003446
18	0x3de1cb23	0.110250734
19	0xbcdd3c19	-0.027006196
20	0x3dd0d98e	0.10197745
21	0x3c4bb125	0.012432371
22	0x3e06c10d	0.1315958
23	0xbd42e9ab	-0.047586124
24	0xbb05a1c3	-0.0020390607
25	0x3d940a96	0.072285816
26	0x3e080138	0.13281715
27	0x3cd6bbfb	0.026212683
28	0xbdaf139c	-0.08548662
29	0x3d919469	0.07108385
30	0x3d1f74ef	0.038929876
31	0x3d1e3a3e	0.038629763
32	0xbd536655	-0.051611263
33	0x3e0b6b21	0.13615085
34	0x3dd5f01c	0.10446188
35	0xbe029e96	-0.12755808
36	0x3e013d5b	0.12621062
37	0xbd97ef38	-0.07418674
38	0xbc8e05c4	-0.017336734
39	0x3b1f21d5	0.002428164
40	0xbcf2366e	-0.02956697
41	0x3d482720	0.048865438
42	0x3de4da7a	0.111744836
43	0xbdffcf6a	-0.12490733
44	0x3dbafe4e	0.09130536
45	0xbdbc1a53	-0.091847084
46	0x3d195247	0.03743198
47	0xbd99c689	-0.07508571
48	0x3db5b936	0.08873217
49	0x3d405126	0.04695239
50	0x3dcb7921	0.09935213
51	0x3e0f4f8f	0.13995193
52	0x3dc38c58	0.09548253
53	0xbd1db3a3	-0.038501393
54	0x3da82f05	0.08212093
55	0xbd222931	-0.039590064
56	0xbd2e9953	-0.04262669
57	0xbd0cc63e	-0.034368746
58	0x3d2f006d	0.042725015
59	0x3d05126f	0.032488283
60	0x3e0de234	0.13855821
61	0xbcf5f6c2	-0.03002489
62	0xbe0d2124	-0.13782173
63	0x3da126c8	0.07868725
64	0x3b0597cd	0.002038467
65	0xbd924509	-0.07142074
66	0x3d817388	0.06320864
67	0xbcc4580f	-0.02396777
68	0xbcf46bf3	-0.02983663
69	0xbdbb039e	-0.09131549
70	0xbc226f43	-0.009914222
71	0xbc436c16	-0.011927625
72	0x3bedb58c	0.007254308
73	0xbde53d36	-0.11193316
74	0x3db6fd24	0.089350015
75	0x3d433c86	0.04766514
76	0xbe0a82f8	-0.13526523
77	0x3c969bad	0.018384779
78	0x3d1b8e68	0.037977606
79	0xbdbc1eea	-0.09185584
80	0xbddc4f5b	-0.10757323
81	0x3d6713ed	0.056415487
82	0x3d5d5e89	0.054045234
83	0xbe061733	-0.13094787
84	0x3d270729	0.040778313
85	0x3d222790	0.03958851
86	0x3d2c2e6e	0.042036466
87	0xbe0dbb2b	-0.1384093
88	0xbd37c184	-0.044862285
89	0x3cced172	0.025246356
90	0xbd88d4b4	-0.06681195
91	0x3d397f27	0.045287278
92	0x3e0211dd	0.12702127
93	0x3dde20bf	0.108460896
94	0x3ddcf15a	0.10788222
95	0xbdfcc063	-0.12341382
96	0x3db2017e	0.08691691
97	0xbdea1378	-0.114294946
98	0x3da8f70f	0.08250248
99	0x3c17a228	0.00925497
100	0x3c370069	0.011169531
101	0x3cf1f7ea	0.02953716
102	0x3dbe79e7	0.09300595
103	0xbd0d84aa	-0.034550346
104	0xbc41bba8	-0.011824526
105	0xbd5962ea	-0.053072847
106	0xbc99ec7a	-0.018789519
107	0xbdc8d39f	-0.098059885
108	0x3d95b4f6	0.07309906
109	0x3dcfe0c8	0.101502955
110	0x3e00ae45	0.12566479
111	0xbd59590e	-0.053063445
112	0x3d6c58a3	0.057701718
113	0x3d9d2a82	0.07674123
114	0xbd9f8938	-0.07789844
115	0xbc923ef8	-0.017852291
116	0xbd9d1a32	-0.07671012
117	0x3e0769de	0.13223979
118	0xbcd83d7d	-0.026396507
119	0x3dbef774	0.09324542
120	0xbe00f664	-0.1259399
121	0x3de081d5	0.109622635
122	0xbde775dd	-0.113017775
123	0xbcbff4b6	-0.023432117
124	0x3e073fb3	0.13207893
125	0x3c9faa73	0.019490456
126	0xbd3e5166	-0.046464346
127	0x3dfbc55e	0.12293504
128	0x3dba59e0	0.090991735
129	0xbd156b61	-0.036479358
130	0xbd1853ce	-0.037189297
131	0x3dce8f80	0.10085964
132	0x3db1e4ee	0.08686243
133	0x3df6eb36	0.12056582
134	0xbe04a370	-0.12952971
135	0xbdd5c86c	-0.10438618
136	0x3cc24702	0.0237155
137	0x3d744f8f	0.059646185
138	0xbd663baa	-0.056209244
139	0x3e0dc022	0.13842824
140	0x3e002410	0.12513757
141	0xbdab86e9	-0.083753414
142	0x3dfabde6	0.122432515
143	0x3d89f336	0.06735842
144	0x3e0e3a1a	0.13889351
145	0xbda242dd	-0.079229094
146	0xbde3effb	-0.11129757
147	0x3dd25f7d	0.10272119
148	0xbd04d84f	-0.03243285
149	0x3e09b14f	0.13446544
150	0x3dcad8ab	0.099046074
151	0x3ca3c247	0.0199901
152	0xbcd85d6e	-0.026411738
153	0xbd8e5d5b	-0.069514
154	0xbd65b096	-0.05607661
155	0xbcb8c52a	-0.022554953
156	0x3ceca8ca	0.028889079
157	0xbc8ac463	-0.016939348
158	0x3dd67a69	0.10472567
159	0xbddf6c20	-0.10909295
160	0xbcc71a44	-0.024304517
161	0x3e02c71e	0.1277127
162	0x3dfc9ff0	0.12335193
163	0x3dccb03c	0.099945515
164	0xbe0f8c24	-0.14018303
165	0xbdd34930	-0.10316694
166	0xbccaec6b	-0.024770936
167	0x3dd6222d	0.10455737
168	0xbd24e57c	-0.040257916
169	0x3db9f47a	0.09079833
170	0xbcddbd74	-0.027067877
171	0xbd068b51	-0.032847706
172	0x3da23f90	0.0792228
173	0x3de5d01a	0.11221333
174	0xbd81cab2	-0.06337489
175	0x3dbb58ad	0.09147773
176	0x3dfa8938	0.12233204
177	0x3bfc28d0	0.007695295
178	0x3d864d8b	0.06557759
179	0x3cfea366	0.031083774
180	0xbdcb864b	-0.09937724
181	0x3dc026f4	0.0938243
182	0xbdc646fc	-0.09681508
183	0xbc875100	-0.016518116
184	0xbce17786	-0.027522814
185	0xbe0671cd	-0.13129349
186	0x3c5dbd3a	0.013533885
187	0x3d02830f	0.03186327
188	0xbd98b639	-0.07456631
189	0xbb8aaf5a	-0.0042323293
190	0x3d7437da	0.059623577
191	0xbc789745	-0.015172784
192	0xbda3c9d3	-0.07997479
193	0x3e085c5c	0.13316482
194	0x3d5f6863	0.05454291
195	0xbd0d1131	-0.034440223
196	0x3c9c2299	0.019059466
197	0x3ce6365f	0.028102098
198	0x3db4a69b	0.0882084
199	0xbe040aa1	-0.1289468
200	0x3cb2c157	0.021820707
201	0xbd86c875	-0.06581203
202	0xbdab3487	-0.08359628
203	0x3db27f13	0.08715644
204	0x3b15b2e2	0.0022842218
205	0x3d8df938	0.069323
206	0x3dde3474	0.108498484
207	0x3e09a525	0.13441904
208	0xbdbca57c	-0.09211251
209	0x3bfa821e	0.0076449057
210	0xbcd16044	-0.025558598
211	0x3d10e800	0.035377502
212	0xbd95917a	-0.07303138
213	0x3def99a6	0.11699228
214	0xbccc01e0	-0.024903238
215	0x3d206eec	0.039168283
216	0xbc324e90	-0.010882989
217	0xbd85c3e2	-0.06531502
218	0x3c220a80	0.009890199
219	0x3db9a4a6	0.09064607
220	0x3e003540	0.12520313
221	0xbdb82506	-0.08991437
222	0x3d8185d3	0.06324353
223	0xbdaed1cc	-0.08536109
224	0x3dc70658	0.09718007
225	0x3cd18977	0.025578244
226	0x3df6646e	0.12030874
227	0xbdad2df0	-0.084560275
228	0xbca3f53d	-0.0200144
229	0xbdfc6c31	-0.123253234
230	0x3c0d3556	0.008618673
231	0xbc9a90a4	-0.018867798
232	0xbb849b1a	-0.00404681
233	0xbe0b382a	-0.13595644
234	0x3dae9715	0.0852491
235	0x3cb471c2	0.0220269
236	0x3cb78c63	0.022405809
237	0xbdee3f03	-0.11633112
238	0xbd417867	-0.047233965
239	0xbe0bba99	-0.136454
240	0xbde052ba	-0.10953279
241	0xbe0af625	-0.13570459
242	0x3dc3c1e4	0.09558466
243	0xbdd66676	-0.104687616
244	0x3dbbe6d5	0.09174887
245	0x3cf4bcb7	0.029875142
246	0x3b261b5e	0.0025345902
247	0xbd38843f	-0.045047995
248	0x3de58fcc	0.11209068
249	0xbe09c943	-0.13455682
250	0xbd3cbb88	-0.04607728
251	0xbd259d12	-0.040432997
252	0xbadd3cc1	-0.0016879068
253	0x3d81ada4	0.063319474
254	0x3dc530c6	0.096284434
255	0xbcad9302	-0.021188263

encoder.1.weight f4 [512]
0	0x3f7b02e8	0.9805131
1	0x3f7fb168	0.99880075
2	0x3f83aced	1.0287148
3	0x3f7d1bf1	0.9887076
4	0x3f7f8363	0.99809855
5	0x3f83e799	1.0305053
6	0x3f805235	1.0025088
7	0x3f805ba3	1.0027965
8	0x3f8b4ae5	1.0882231
9	0x3f836f33	1.026831
10	0x3f87a146	1.0596092
11	0x3f8ba2a9	1.0909015
12	0x3f8e7f06	1.1132514
13	0x3f64bd9c	0.8935182
14	0x3f7dc459	0.9912773
15	0x3f8c928d	1.0982224
16	0x3f64ae58	0.8932853
17	0x3f784eb7	0.9699511
18	0x3f6d9b5a	0.9281517
19	0x3f8a0cee	1.0785196
20	0x3f5ff91e	0.874895
21	0x3f7350fb	0.9504544
22	0x3f85dcac	1.0457969
23	0x3f89232f	1.0713862
24	0x3f840b40	1.0315933
25	0x3f83af1d	1.0287815
26	0x3f79a829	0.9752222
27	0x3f7ee38c	0.9956596
28	0x3f85daa4	1.0457349
29	0x3f83f63f	1.0309523
30	0x3f7cb60b	0.98715276
31	0x3f8050bc	1.0024638
32	0x3f81575c	1.0104785
33	0x3f76bc45	0.96381027
34	0x3f81329f	1.0093573
35	0x3f82aa52	1.0208228
36	0x3f73cbaf	0.9523267
37	0x3f783a74	0.9696419
38	0x3f7a2cda	0.9772469
39	0x3f71c1df	0.9443645
40	0x3f86ecd6	1.0541027
41	0x3f601ef8	0.87547255
42	0x3f71f265	0.9451049
43	0x3f830640	1.0236282
44	0x3f8e9d86	1.1141822
45	0x3f8201ca	1.0156796
46	0x3f83f308	1.0308542
47	0x3f64f3f9	0.8943477
48	0x3f83ddb2	1.0302031
49	0x3f77d0bd	0.96802884
50	0x3f85b49c	1.0445743
51	0x3f7779a1	0.96669966
52	0x3f84579a	1.0339234
53	0x3f6ea29e	0.93216884
54	0x3f816643	1.0109333
55	0x3f8e1625	1.1100508
56	0x3f7b92eb	0.98271054
57	0x3f76f1b6	0.9646257
58	0x3f7a690a	0.97816527
59	0x3f866f5f	1.0502738
60	0x3f5f95bd	0.8733786
61	0x3f81f548	1.0152979
62	0x3f785549	0.97005135
63	0x3f806ff8	1.003417
64	0x3f8be025	1.0927778
65	0x3f69e86e	0.91370285
66	0x3f809419	1.0045196
67	0x3f64812d	0.89259607
68	0x3f77718a	0.9665762
69	0x3f828249	1.019601
70	0x3f884e94	1.064898
71	0x3f87ecc1	1.0619127
72	0x3f89ab40	1.0755386
73	0x3f7fdee0	0.99949455
74	0x3f70e449	0.94098336
75	0x3f75befe	0.95994556
76	0x3f828b33	1.019873
77	0x3f77ac1f	0.9674701
78	0x3f846fb5	1.034659
79	0x3f7bab4d	0.9830826
80	0x3f89cd36	1.076575
81	0x3f87ece3	1.0619167
82	0x3f8251f0	1.0181255
83	0x3f80bcc3	1.0057606
84	0x3f8667c7	1.050042
85	0x3f7599c2	0.9593774
86	0x3f8c4a84	1.096024
87	0x3f785c8d	0.9701622
88	0x3f8a0b25	1.0784651
89	0x3f72bedd	0.94822484
90	0x3f7c4aef	0.9855184
91	0x3f7027aa	0.9381052
92	0x3f77da2a	0.96817267
93	0x3f75a275	0.95951015
94	0x3f841884	1.0319982
95	0x3f634f6d	0.8879307
96	0x3f95428f	1.1660937
97	0x3f78923e	0.9709815
98	0x3f88551c	1.0650973
99	0x3f7e08a5	0.9923194
100	0x3f74cf24	0.9562857
101	0x3f8b1ea7	1.0868729
102	0x3f5dae40	0.8659401
103	0x3f94804e	1.1601655
104	0x3f61c1e8	0.881865
105	0x3f6cbe72	0.92478096
106	0x3f8af86f	1.0857066
107	0x3f7de1b2	0.9917251
108	0x3f8600bf	1.0468978
109	0x3f862954	1.0481362
110	0x3f72bf27	0.94822925
111	0x3f8528d4	1.0403085
112	0x3f8831e2	1.0640223
113	0x3f771bfe	0.9652709
114	0x3f809d78	1.0048056
115	0x3f883b08	1.0643015
116	0x3f539ece	0.8266419
117	0x3f6271dc	0.88454986
118	0x3f85e2c7	1.0459832
119	0x3f800521	1.0001565
120	0x3f8b7946	1.0896385
121	0x3f7e499f	0.99331087
122	0x3f847dea	1.0350926
123	0x3f8461b7	1.034232
124	0x3f834297	1.0254697
125	0x3f742e50	0.9538317
126	0x3f89fee1	1.0780908
127	0x3f761123	0.961199
128	0x3f6a7609	0.9158636
129	0x3f882c0c	1.0638442
130	0x3f6c8440	0.923893
131	0x3f853822	1.0407755
132	0x3f84b9d3	1.0369209
133	0x3f72978a	0.9476248
134	0x3f8ef0e6	1.1167266
135	0x3f87fb66	1.0623596
136	0x3f64fa06	0.89444005
137	0x3f89919f	1.0747565
138	0x3f84e386	1.0381935
139	0x3f7d765f	0.99008745
140	0x3f818c95	1.0121027
141	0x3f8d3b19	1.103366
142	0x3f7b52d3	0.98173255
143	0x3f839851	1.0280858
144	0x3f830bd6	1.0237987
145	0x3f7547a0	0.95812416
146	0x3f827dba	1.0194619
147	0x3f89c9d2	1.0764716
148	0x3f7eb9bc	0.9950216
149	0x3f86861c	1.0509677
150	0x3f7dad64	0.990927
151	0x3f8efc10	1.1170673
152	0x3f872007	1.0556649
153	0x3f88c1aa	1.0684102
154	0x3f628053	0.8847706
155	0x3f862ad6	1.0481822
156	0x3f81a1af	1.0127467
157	0x3f8ff61d	1.1246983
158	0x3f8e8d7b	1.1136926
159	0x3f80804c	1.0039153
160	0x3f8889da	1.0667069
161	0x3f84d845	1.03785
162	0x3f886dce	1.065851
163	0x3f6cb276	0.9245981
164	0x3f7f7894	0.9979336
165	0x3f82d2c5	1.0220572
166	0x3f7c3694	0.9852078
167	0x3f6e3ca0	0.93061256
168	0x3f6a902b	0.9162623
169	0x3f8d25ad	1.1027123
170	0x3f6f94dc	0.93586516
171	0x3f7fe72c	0.99962115
172	0x3f6b3809	0.9188238
173	0x3f7e6987	0.9937977
174	0x3f7fda0b	0.9994208
175	0x3f7ae3e8	0.9800401
176	0x3f8326e4	1.0246243
177	0x3f83745f	1.0269889
178	0x3f85d5af	1.0455836
179	0x3f767ab4	0.9628098
180	0x3f6dfabe	0.9296073
181	0x3f6888f1	0.90833956
182	0x3f86f1a2	1.054249
183	0x3f8245f9	1.0177604
184	0x3f7b04e5	0.98054343
185	0x3f7aefd6	0.9802221
186	0x3f773b4d	0.9657486
187	0x3f84df6e	1.0380685
188	0x3f851e4b	1.039987
189	0x3f5e9384	0.8694384
190	0x3f8778aa	1.0583699
191	0x3f7ebf9b	0.99511117
192	0x3f78a549	0.97127205
193	0x3f822486	1.0167396
194	0x3f8a8c9b	1.0824159
195	0x3f6bc494	0.9209683
196	0x3f883689	1.0641643
197	0x3f8a9e6d	1.0829598
198	0x3f7a9505	0.97883636
199	0x3f7b2a73	0.9811165
200	0x3f7c12b9	0.9846607
201	0x3f797510	0.9744425
202	0x3f83488c	1.0256515
203	0x3f6aac74	0.9166939
204	0x3f82bff1	1.0214826
205	0x3f85df8f	1.045885
206	0x3f73d5e3	0.9524824
207	0x3f70f67e	0.9412612
208	0x3f7810f5	0.96900874
209	0x3f8b2b11	1.0872518
210	0x3f6574bd	0.89631253
211	0x3f75c4bc	0.9600332
212	0x3f84ae6a	1.0365727
213	0x3f8e61b6	1.1123569
214	0x3f670f6f	0.90257925
215	0x3f8129e1	1.0090905
216	0x3f6640e9	0.89942795
217	0x3f81f41f	1.0152625
218	0x3f780678	0.9688487
219	0x3f8122eb	1.0088781
220	0x3f876255	1.0576884
221	0x3f7cd81d	0.9876726
222	0x3f6f57e1	0.9349347
223	0x3f89947f	1.0748442
224	0x3f86dbef	1.0535868
225	0x3f89e0ef	1.0771769
226	0x3f6f7007	0.93530315
227	0x3f5bdbf6	0.8588251
228	0x3f7c12b9	0.9846607
229	0x3f7e6342	0.99370205
230	0x3f712683	0.9419939
231	0x3f874cfe	1.0570371
232	0x3f6e1661	0.930029
233	0x3f7d15e0	0.98861504
234	0x3f78d8f7	0.9720606
235	0x3f7d3d6b	0.9892184
236	0x3f6d62fa	0.9272915
237	0x3f7c9fa7	0.9868111
238	0x3f821252	1.0161841
239	0x3f8710ed	1.055204
240	0x3f83fe55	1.0311991
241	0x3f76071e	0.9610461
242	0x3f81b58a	1.0133526
243	0x3f88fc20	1.0701942
244	0x3f861c26	1.047734
245	0x3f6b6f66	0.91966856
246	0x3f8253dd	1.0181843
247	0x3f7766cb	0.96641225
248	0x3f80858f	1.0040759
249	0x3f7588ee	0.95912063
250	0x3f788059	0.97070843
251	0x3f724f16	0.94651926
252	0x3f897c20	1.0741005
253	0x3f687bf7	0.90814155
254	0x3f7b202b	0.9809596
255	0x3f811879	1.0085593

encoder.1.bias f4 [512]
0	0xbdc09029	-0.09402496
1	0x3d0aa3e2	0.033847697
2	0x3cc4b5d8	0.024012491
3	0xbd93e565	-0.07221488
4	0xbe1d3d91	-0.15355517
5	0xbd35ca33	-0.044382285
6	0xbdc1ff2e	-0.094725
7	0xbc26ff47	-0.010192699
8	0xbe0045a0	-0.1252656
9	0xbc252cc3	-0.010081473
10	0x3dc41e27	0.095760636
11	0x3df44658	0.119274795
12	0x3e252947	0.16129027
13	0xbcc03fb1	-0.02346787
14	0xbe193311	-0.14960887
15	0xbd2baadb	-0.041910987
16	0xbd7f0fed	-0.062271047
17	0xbd40a8bd	-0.04703592
18	0xbd6b3ae0	-0.057429194
19	0xbe0c707d	-0.13714786
20	0xbd8bba02	-0.068225875
21	0xbd32e5f7	-0.043676343
22	0xbd95389c	-0.07286188
23	0xbdaf5128	-0.08560401
24	0xb9339744	-0.00017127121
25	0xbbac8b18	-0.0052656047
26	0xbddb3e28	-0.10705215
27	0x3d8cf9b8	0.068835676
28	0xbd19eb37	-0.037577834
29	0xbd026de1	-0.03184307
30	0xbdec40fb	-0.115358315
31	0x3c0e0da6	0.008670246
32	0x3d8b3da8	0.06798869
33	0xbda6fa54	-0.08153215
34	0xbdaab6c8	-0.08335644
35	0xbd751b74	-0.059840634
36	0xbd2ac1b9	-0.041688655
37	0xbe154054	-0.1457532
38	0xbd6a9728	-0.05727306
39	0x3dc53fd7	0.09631317
40	0xbda7e12d	-0.08197246
41	0xbd3ac283	-0.045595657
42	0xbb76f293	-0.0037681207
43	0x3cfd003b	0.030883899
44	0xbd46b5fa	-0.04851339
45	0x3d8dab1e	0.06917404
46	0xbce4568f	-0.027873306
47	0x3c3db869	0.011579611
48	0xbd63d001	-0.05561829
49	0xbd0d5c75	-0.034512002
50	0xbd7d6009	-0.061859164
51	0xbe296ca6	-0.16545352
52	0xbba1206e	-0.004917196
53	0xbda6a413	-0.081367634
54	0xbc547156	-0.0129664745
55	0x3cfcb405	0.030847559
56	0x3be10229	0.0068667126
57	0xbdbd8e35	-0.092556395
58	0x3cdcdf5c	0.026961975
59	0x3dd5e7f8	0.10444635
60	0xbe95c8ff	-0.2925491
61	0xbd236f55	-0.039901096
62	0xbca785b3	-0.020449495
63	0xbd9ba48c	-0.07599744
64	0xbd0e28d5	-0.03470691
65	0xbdad4f73	-0.08462419
66	0xbd9c28df	-0.07624983
67	0xbda8c76b	-0.08241161
68	0x3d810fd7	0.06301849
69	0xbda7eb54	-0.08199182
70	0xbd4c932b	-0.049945038
71	0xbdc1f7c2	-0.09471084
72	0x3cc9790b	0.02459385
73	0xbd9ca7d1	-0.07649196
74	0x3db39b3c	0.08769843
75	0xbdb07653	-0.086163186
76	0xbd340b8c	-0.043956324
77	0x3dcff0c6	0.10153346
78	0xbd3904ca	-0.045170583
79	0x3c133d93	0.008986848
80	0xbdfeb399	-0.12436599
81	0xbda90ba7	-0.08254176
82	0xbde96eff	-0.11398124
83	0xbe0b2d0b	-0.13591401
84	0xbd98e06e	-0.074646816
85	0xbc5253c3	-0.012837353
86	0xbcd6b512	-0.026209388
87	0x3d4343c1	0.047672037
88	0x3dc685c9	0.09693486
89	0xbe565485	-0.20930679
90	0x3d367e19	0.04455385
91	0xbc3ab5d9	-0.011395895
92	0xbd2c4092	-0.042053767
93	0xbbfdf16e	-0.007749728
94	0xbdfc39ca	-0.1231571
95	0xbdf3c143	-0.11902096
96	0xbd84a10c	-0.0647603
97	0x3a83e983	0.0010064099
98	0xbd6a70e6	-0.057236575
99	0x3c8bf8a9	0.017086344
100	0xbe5b9bae	-0.21446106
101	0x3d12f611	0.0358792
102	0xbdbf5edd	-0.093442656
103	0x3db67dea	0.08910735
104	0xbd8ab71a	-0.06773205
105	0xbd6f71bb	-0.05845807
106	0x3ce7b236	0.02828322
107	0x3daacb6f	0.08339583
108	0xbe126415	-0.14295991
109	0x3ced3326	0.028955054
110	0xbdbdfc8f	-0.09276687
111	0xbd0e281e	-0.034706227
112	0xbe0bd585	-0.1365567
113	0xbda424d5	-0.08014838
114	0x3da98987	0.082781844
115	0xbdf26a03	-0.118366264
116	0xbc8cbcfc	-0.017179959
117	0x3d091251	0.033464734
118	0xbd10eab9	-0.0353801
119	0xbd8a7df2	-0.067623034
120	0x3c1a0c55	0.009402354
121	0x3cdac878	0.02670692
122	0x3d8c0d57	0.06838482
123	0xbd2c5efc	-0.04208277
124	0x3d32e9ec	0.043680117
125	0xbca9e694	-0.020739831
126	0x3d862ba5	0.06551293
127	0xbe766cb4	-0.24064904
128	0xbdb09ed4	-0.08624044
129	0xbdd5959a	-0.10428925
130	0xbd636094	-0.055512026
131	0x3d5d61bf	0.054048296
132	0xbda8eefd	-0.082487084
133	0xbd0f873c	-0.03504108
134	0xbcbe6755	-0.023242632
135	0xbdbb9a79	-0.09160323
136	0xbe16d312	-0.14728954
137	0xbd8db3a6	-0.06919031
138	0xbd56f6ce	-0.052481465
139	0xbde91cdc	-0.113824576
140	0xbe2cad89	-0.16863073
141	0xbd6fdb8e	-0.058558993
142	0xbdfa2a9e	-0.1221516
143	0x3d47ecea	0.048809923
144	0xbdd8a3f8	-0.105781496
145	0xbd9b5cfa	-0.07586093
146	0xbd9b119f	-0.0757172
147	0xbd7b69c8	-0.061380178
148	0xbd7a959b	-0.06117783
149	0x3cb2f44e	0.02184501
150	0xbd5b95b2	-0.053609557
151	0xbdeef04a	-0.11666925
152	0xbd48c880	-0.049019337
153	0xbd31c5bf	-0.043401476
154	0x3c9a4f4d	0.018836642
155	0x3d2a3456	0.041553818
156	0xbd5f91bd	-0.054582346
157	0xbd69b42c	-0.05705659
158	0xbad600f2	-0.0016327186
159	0xbe0244c2	-0.12721542
160	0xbdf3287d	-0.11872957
161	0xbe19b563	-0.150106
162	0xbb8747f2	-0.0041284496
163	0x3a9eb802	0.0012109282
164	0xbddc7575	-0.10764591
165	0x3da59c66	0.08086471
166	0xbdf1f25a	-0.11813803
167	0xbd61a5ad	-0.05508964
168	0x3d9c362f	0.07627522
169	0xbac0e563	-0.00147168
170	0xbd99b9f1	-0.07506169
171	0x3d10da34	0.035364345
172	0xbde620a8	-0.112366974
173	0xbe40fbde	-0.1884608
174	0xbd303629	-0.0430204
175	0xbc2e6055	-0.0106430845
176	0xbdd95cf9	-0.10613436
177	0xbddd5cb0	-0.10808694
178	0xbd3797b5	-0.044822413
179	0xbe1e2962	-0.15445474
180	0xbae4715c	-0.0017428803
181	0xbdc87676	-0.0978822
182	0xbc786efe	-0.015163181
183	0xbcff7231	-0.03118238
184	0xbdf446af	-0.11927544
185	0xbdd87f05	-0.10571102
186	0xbdcfb304	-0.101415664
187	0x3d9d5431	0.07682074
188	0xbe03d117	-0.1287273
189	0x3d46c4dd	0.048527587
190	0x3c1b1673	0.0094658015
191	0x3dd27481	0.102761276
192	0xbe19eee2	-0.15032533
193	0xbd94e4ac	-0.07270178
194	0xbcdf4446	-0.027254235
195	0xbd327ccc	-0.043576047
196	0xbded6f87	-0.11593538
197	0x3d9056cb	0.070478044
198	0xbdde185c	-0.1084449
199	0xbdfa749d	-0.122292735
200	0xbc8fe96a	-0.017567355
201	0xbb97d372	-0.0046333605
202	0xbd143b89	-0.03618959
203	0xbd7ae8f9	-0.061257336
204	0x3e5293e8	0.20564234
205	0xbcac786e	-0.02105352
206	0x3c9350a0	0.017982781
207	0xbdcf71af	-0.10129105
208	0xbdc0d07e	-0.09414767
209	0x3e7dc582	0.24782375
210	0x3d27ed24	0.04099764
211	0x3d075a58	0.033045143
212	0xbd83b926	-0.06431799
213	0x3d3d8b13	0.04627521
214	0x3c3cb252	0.011517124
215	0x3cf6aa32	0.030110452
216	0xbe5be134	-0.21472627
217	0xbcbfb247	-0.023400439
218	0xbcbbfb27	-0.022946907
219	0x3dd1ec78	0.10250181
220	0x3d5078da	0.050896503
221	0x3de38528	0.11109382
222	0xbe09e964	-0.13467938
223	0x3d65a83d	0.056068648
224	0x3dca255e	0.098704085
225	0x3b5924ab	0.0033133428
226	0xbe7d5e26	-0.24742946
227	0xbcc36dc2	-0.023856048
228	0xbdc1a6bb	-0.094556294
229	0xbe0bbeac	-0.13646954
230	0xbdf78d9f	-0.12087559
231	0x3dc67081	0.09689427
232	0xbc5a09b8	-0.013307981
233	0xbdf0f9a6	-0.11766367
234	0xbe290459	-0.16505565
235	0xbd380388	-0.044925243
236	0xbd430e90	-0.04762131
237	0xbc7152f0	-0.0147292465
238	0xbd97ab60	-0.07405734
239	0x3c8cb9fe	0.017178532
240	0xbdf97e27	-0.12182265
241	0xbd9556d5	-0.072919525
242	0xbe5ad3b0	-0.21369815
243	0x3cca8d01	0.024725439
244	0x3c1471d9	0.0090603465
245	0x3cd2d166	0.025734615
246	0xbd8e2502	-0.069406524
247	0xbdb65107	-0.089021735
248	0xbe3b6e48	-0.18303788
249	0xbc1d5ded	-0.009604913
250	0xbcf95ef5	-0.030440787
251	0x3c2f0e9b	0.010684635
252	0xbc1bda04	-0.009512428
253	0x3cb1c03c	0.02169811
254	0xbd960eb1	-0.07327021
255	0x3ce8c76c	0.028415404

encoder.1.running_mean f4 [512]
0	0xbe09c788	-0.13455021
1	0xbc99e5a3	-0.018786257
2	0x3ed09901	0.40741733
3	0x3df66be8	0.120323
4	0x3d3bac1b	0.04581843
5	0x3de81ebe	0.113339886
6	0xbc2e7dc0	-0.010650098
7	0x3b861948	0.004092369
8	0x3d9a37f4	0.075302035
9	0x3e579c1a	0.21055642
10	0x3f289306	0.6584934
11	0x3e5a5887	0.21322833
12	0x3ea03cd8	0.3129642
13	0xbe579858	-0.21054208
14	0x3eb2e50c	0.34940374
15	0x3e963d84	0.29343808
16	0xbb7afb24	-0.0038296664
17	0x3eae4646	0.3403799
18	0xbe463045	-0.19354351
19	0xbd7d131d	-0.061785806
20	0x3ef88a46	0.48542994
21	0xbc9dbcc7	-0.019255055
22	0x3e28e0e5	0.1649204
23	0xbdd9a4fc	-0.106271714
24	0x3e8dae64	0.27672112
25	0x3d3a9352	0.04555065
26	0x3dca6e08	0.09884268
27	0x3e4900ed	0.1962926
28	0xbe7e5939	-0.24838723
29	0x3c8e63a0	0.01738149
30	0xbe3bbe0a	-0.18334213
31	0xbc68a8b0	-0.0142003745
32	0x3ec28926	0.3799526
33	0x3f1458bb	0.5794789
34	0xbd571491	-0.052509848
35	0x3de00d7a	0.109400705
36	0xbe051faa	-0.1300036
37	0xbdf57be0	-0.11986518
38	0x3eb41342	0.35170943
39	0x3cdb2ecf	0.026755719
40	0xbaab3920	-0.0013063289
41	0x3edf0e35	0.43565527
42	0x3ea1d706	0.31609362
43	0xbdeb8bf3	-0.115013026
44	0x3df66808	0.12031561
45	0xbcf595c2	-0.029978637
46	0xbe8ee59e	-0.2790956
47	0x3dc0af28	0.094084084
48	0x3e1280d1	0.14306952
49	0xbe80d1d3	-0.25160083
50	0xbb11d7e0	-0.0022253916
51	0x3e12caab	0.14335124
52	0xbd0218e9	-0.031762037
53	0xbdddac3b	-0.10823866
54	0x3eca02d0	0.3945527
55	0xbe2fe231	-0.17176129
56	0x3d0106c2	0.031500585
57	0xbdd285b8	-0.10279411
58	0xbe02b8d9	-0.12765826
59	0x3e7e0527	0.24806653
60	0x3e973ffc	0.29541004
61	0xbdc059e3	-0.093921445
62	0xbee8dd63	-0.45481405
63	0x3de2d3d5	0.1107556
64	0xbdb04316	-0.086065456
65	0x3e5eb7d4	0.21749812
66	0xbb75fed0	-0.0037535913
67	0xbd8f144f	-0.069862954
68	0x3ee97626	0.45597953
69	0xbe655874	-0.22397023
70	0x3c794e46	0.015216416
71	0xbe36799d	-0.1781983
72	0x3d1a1c0b	0.0376244
73	0x3c1a405c	0.0094147585
74	0x3f17c592	0.59285843
75	0x3ecf0920	0.4043665
76	0x3db74172	0.089480296
77	0x3dcad809	0.09904487
78	0xbd1be29c	-0.03805791
79	0x3d19b296	0.03752383
80	0x3d5529dd	0.052041877
81	0x3da44996	0.08021848
82	0xbbff8920	-0.007798329
83	0xbea60c4b	-0.32431254
84	0x3cce644a	0.025194306
85	0x3e932375	0.2873799
86	0x3d61a3ae	0.055087738
87	0x3e12cd34	0.14336091
88	0xbe5ace6a	-0.21367803
89	0xbdee3c42	-0.11632587
90	0xbdeeac34	-0.11653939
91	0x3e8194e2	0.253089
92	0x3e9ae2d1	0.30251172
93	0x3e26c00b	0.16284196
94	0xbc7427b3	-0.014902043
95	0xbe642534	-0.22279817
96	0xbbee3ff8	-0.0072708093
97	0xbcb58f50	-0.022163063
98	0xbd0cefa2	-0.03440822
99	0xbd7de5bc	-0.06198667
100	0x3e2b9b98	0.16758573
101	0x3ca82166	0.020523738
102	0x3eeedee6	0.46654433
103	0x3cf49750	0.029857308
104	0x3e8101a2	0.25196558
105	0x3da2b64a	0.07944925
106	0xbcb1c0e6	-0.021698426
107	0xbd845361	-0.06461216
108	0xbda1e8fe	-0.07905768
109	0x3e192b64	0.14957958
110	0x3dbcc3b2	0.092170134
111	0xbd91df9e	-0.0712273
112	0xbdd93692	-0.106061116
113	0xbe40995a	-0.18808499
114	0xbcf2049c	-0.029543214
115	0xbd8968e2	-0.06709458
116	0x3d159ef5	0.036528546
117	0x3ec72ac8	0.38899827
118	0x3eaefe75	0.3417851
119	0xbe77e88c	-0.24209803
120	0xbea0779b	-0.31341252
121	0x3e659872	0.22421435
122	0x3e36a5ae	0.1783664
123	0xbdbc0112	-0.09179892
124	0xbdba9479	-0.0911035
125	0xbc514385	-0.012772446
126	0x3d6caec2	0.05778385
127	0x3e05dba4	0.13072067
128	0x3f05778c	0.5213554
129	0xbd73e458	-0.059543937
130	0x3c95ad2e	0.018271055
131	0x3d948021	0.07251001
132	0xbe492420	-0.19642687
133	0x3d42d6ff	0.047568318
134	0xbdfc5702	-0.12321283
135	0xbe66b496	-0.22529826
136	0xbd208710	-0.039191306
137	0x3d60068e	0.05469375
138	0xbebdd52e	-0.37076706
139	0x3e940a2d	0.28914014
140	0x3e7a7cc0	0.24461651
141	0xbdd220ea	-0.10260184
142	0x3e5a7fb6	0.2133778
143	0xbe413555	-0.18868001
144	0x3ea5ffff	0.32421872
145	0xbeb63203	-0.3558503
146	0x3d972b05	0.07381252
147	0xbdbf3d29	-0.09337837
148	0xbdcfed3e	-0.10152672
149	0xbc980777	-0.018558247
150	0x3e1f012b	0.1552779
151	0x3e7190eb	0.23590438
152	0xbe5288e8	-0.20560038
153	0xbdf748e2	-0.12074448
154	0xbe82ca01	-0.25544742
155	0x3dc39a42	0.09550907
156	0x3b80cd98	0.0039307587
157	0x3f0afeff	0.54295343
158	0x3dee4a6b	0.11635288
159	0xbe555872	-0.2083452
160	0xbdb7f336	-0.08981936
161	0xbd55ef97	-0.052230444
162	0x3dd20aea	0.10255988
163	0x3eb5bb47	0.35494444
164	0xbc24fbfc	-0.010069843
165	0x3d303fe2	0.043029673
166	0x3dbd9d77	0.0925855
167	0xbe1edc91	-0.15513827
168	0x3e4a2d22	0.1974378
169	0x3e1dd939	0.15414895
170	0xbe9aef2d	-0.30260602
171	0xbe8793df	-0.26480004
172	0x3e067507	0.1313058
173	0x3d8b2bed	0.067954876
174	0x3e1559b5	0.14585002
175	0x3ebf0ffd	0.37316886
176	0x3d3a3f8e	0.045470767
177	0x3d019c5a	0.03164325
178	0xbe857cd4	-0.260718
179	0x3e9b8093	0.30371532
180	0xbf008537	-0.5020327
181	0xbdb8685e	-0.090042815
182	0xbe06e9e6	-0.13175163
183	0xbd132da1	-0.035932187
184	0x3b0f6040	0.0021877438
185	0xbdf53568	-0.11973077
186	0x3e4a1914	0.19736129
187	0xbe2a9248	-0.16657364
188	0x3c876cea	0.016531426
189	0x3e8a9a14	0.27070677
190	0xbdf14da8	-0.1178239
191	0xbd5b8763	-0.05359591
192	0xbef8b27c	-0.48573673
193	0x3cb5acdc	0.022177152
194	0x3e745341	0.23859884
195	0xbe80b5b6	-0.25138634
196	0x3e6a5bc0	0.22886562
197	0x3e13f7e7	0.14450036
198	0x3de0597e	0.10954569
199	0x3e0df234	0.13861924
200	0x3e6d1488	0.23152363
201	0xbe0d4f29	-0.13799728
202	0xbd9e8784	-0.07740691
203	0x3e1be9e2	0.15225938
204	0x3d89522f	0.067051284
205	0xbe280032	-0.16406325
206	0x3df1cdc0	0.11806822
207	0x3ef02c87	0.46908972
208	0xbe172228	-0.14759123
209	0x3debca45	0.11513189
210	0xbaabe320	-0.0013113953
211	0xbd177235	-0.03697415
212	0xbd0b6ba4	-0.0340382
213	0x3e940e6e	0.2891726
214	0x3e5aec14	0.21379119
215	0xbda9b140	-0.08285761
216	0xbd544eaa	-0.051832832
217	0x3e34e844	0.17666727
218	0x3e654764	0.22390515
219	0xbc5a4020	-0.013320953
220	0xbe83a387	-0.257107
221	0xbeabdaf1	-0.33565477
222	0xbc825e1c	-0.015914015
223	0xbe62bba4	-0.22141892
224	0x3f18bab4	0.59659886
225	0xbe81ff76	-0.25390214
226	0xbe7509cf	-0.23929523
227	0xbe431192	-0.19049671
228	0x3ccebd43	0.025236731
229	0x3db807dc	0.08985874
230	0xbf037080	-0.51343536
231	0x3d61bf7e	0.05511426
232	0xbe772df0	-0.24138618
233	0x3e64da20	0.22348833
234	0xbe4f2bd3	-0.20231561
235	0xbe131f1e	-0.14367339
236	0x3d2b9376	0.041888677
237	0xbe09c548	-0.13454163
238	0xbe8c410c	-0.27393377
239	0xb9ccda60	-0.00039072614
240	0x3c6671f5	0.014065255
241	0xbe685af3	-0.22690944
242	0x3d0cd2c0	0.034380674
243	0xbeacf35e	-0.33779424
244	0xbd9467d2	-0.07246365
245	0x3e80f44c	0.25186384
246	0xbd892458	-0.06696385
247	0xbdeb3f7a	-0.114867166
248	0xbe1206d4	-0.14260417
249	0xbeaa6a55	-0.3328425
250	0x3ea2eb7b	0.31820282
251	0x3e7a88ed	0.24466296
252	0x3d7e8363	0.06213702
253	0xbea85906	-0.3288042
254	0xbd5e4a36	-0.05426999
255	0x3dc91da0	0.09820104

encoder.1.running_var f4 [512]
0	0x40babb0b	5.8353324
1	0x40ee59c9	7.44846
2	0x42aed2e3	87.41189
3	0x4064d225	3.5753262
4	0x40c052ca	6.010106
5	0x40b866e0	5.762558
6	0x403f2862	2.9868398
7	0x40917b49	4.5462995
8	0x40a7e455	5.2466226
9	0x40c5997b	6.1749854
10	0x410520bb	8.320491
11	0x40b4f2ad	5.6546235
12	0x40c0144c	6.0024776
13	0x41725390	15.145401
14	0x4095b35b	4.678144
15	0x40f9c6d4	7.805521
16	0x40def732	6.967675
17	0x40e2d1e5	7.088122
18	0x41560a3f	13.3775015
19	0x40af132b	5.47109
20	0x42db8b08	109.771545
21	0x412099c8	10.037544
22	0x40a94cf5	5.290644
23	0x4075158d	3.8294404
24	0x41037034	8.214893
25	0x40ad1be1	5.409653
26	0x405540b8	3.332075
27	0x4096f222	4.717057
28	0x406ecbb1	3.7311823
29	0x40937833	4.6084228
30	0x40984b48	4.7591896
31	0x40a39a00	5.112549
32	0x4123a331	10.227342
33	0x40d0024e	6.5002813
34	0x408e9f04	4.456911
35	0x4051ad32	3.276196
36	0x40a06daa	5.0133867
37	0x407ed19c	3.9815435
38	0x433aa6bc	186.6513
39	0x40cb88e5	6.3604608
40	0x404c7353	3.1945388
41	0x43291a0f	169.10179
42	0x412a8460	10.657318
43	0x4094c848	4.6494484
44	0x408498f4	4.143671
45	0x40cd57bf	6.416961
46	0x4109f6a5	8.622716
47	0x417122a1	15.070954
48	0x40eb5f0a	7.3553514
49	0x40a03946	5.0069914
50	0x40835ac1	4.1048284
51	0x4051da9e	3.2789683
52	0x407e4bb1	3.9733698
53	0x40ad70b0	5.420006
54	0x41212ad5	10.072957
55	0x4038e143	2.888749
56	0x40cbdb95	6.3705544
57	0x40b7d6c8	5.7449684
58	0x40e7281e	7.223647
59	0x40d78bd1	6.7358174
60	0x40a3332d	5.099997
61	0x408a0d0a	4.3140917
62	0x40871e0f	4.2224193
63	0x40b26302	5.574586
64	0x40593624	3.3939295
65	0x408d4281	4.414368
66	0x4067ee1f	3.6239088
67	0x41673096	14.449362
68	0x4240359b	48.05235
69	0x405b75f1	3.4290736
70	0x409331a3	4.599809
71	0x4058bca2	3.3865132
72	0x406eae4e	3.7293887
73	0x4096445b	4.695844
74	0x41f40a53	30.505041
75	0x430e173f	142.0908
76	0x40888b3d	4.266997
77	0x42070054	33.75032
78	0x40ccf51d	6.404921
79	0x40ee017d	7.4376817
80	0x404c055e	3.1878276
81	0x409806a2	4.7508097
82	0x404b292c	3.174388
83	0x407b38b5	3.9253361
84	0x4091d6f3	4.557489
85	0x407ecffd	3.9814446
86	0x40d700cd	6.7188478
87	0x410c61d9	8.773889
88	0x40f13757	7.5380054
89	0x4046a5c0	3.1038666
90	0x4093538a	4.6039476
91	0x410ad078	8.675896
92	0x410d9bd7	8.850547
93	0x40bf8310	5.984749
94	0x408775c9	4.233128
95	0x41014117	8.078391
96	0x40909ca0	4.5191193
97	0x40a02916	5.0050154
98	0x4079585e	3.8960185
99	0x40c03d48	6.0074806
100	0x409d6507	4.9185824
101	0x409de021	4.9336095
102	0x41053f22	8.327913
103	0x40cd54fb	6.4166236
104	0x40a1425e	5.0393515
105	0x408ffd88	4.4996986
106	0x40f952cc	7.791357
107	0x40e7c924	7.2433033
108	0x40684f28	3.6298313
109	0x40638ed9	3.5555937
110	0x4061f46a	3.5305429
111	0x40ad01ed	5.406485
112	0x40821288	4.064762
113	0x40eee7bf	7.4657893
114	0x40ca38b5	6.3194222
115	0x408599dd	4.175032
116	0x4196cd60	18.85028
117	0x41052a0d	8.322766
118	0x40f797e3	7.737291
119	0x408adccb	4.3394523
120	0x4093cd4a	4.6188097
121	0x4082a2a8	4.0823555
122	0x40782ca6	3.8777251
123	0x405d1175	3.4541905
124	0x404dd81a	3.2163148
125	0x4096bf38	4.710842
126	0x406d51c3	3.7081153
127	0x402835dd	2.6282876
128	0x432c858e	172.5217
129	0x40894005	4.289065
130	0x40b2886a	5.579152
131	0x4050f2dd	3.2648232
132	0x40adf68e	5.436347
133	0x4094926a	4.642873
134	0x4055f086	3.3428054
135	0x4044b603	3.073609
136	0x40804fed	4.0097566
137	0x4019becc	2.4022703
138	0x410252be	8.145201
139	0x40b2d4b7	5.588466
140	0x4066f30d	3.6085846
141	0x405a1db9	3.4080641
142	0x407676e4	3.8510065
143	0x40ad876b	5.4227805
144	0x410b2f70	8.699081
145	0x40c37620	6.1081696
146	0x4084fdc2	4.1559763
147	0x407304d7	3.7971704
148	0x40bdeba1	5.9350133
149	0x40f3184d	7.5967164
150	0x4046b28a	3.1046472
151	0x408e7283	4.4514785
152	0x409be724	4.8719654
153	0x410138cc	8.076366
154	0x40f303af	7.5941997
155	0x40c493de	6.14305
156	0x4092d7c9	4.588841
157	0x412d91b3	10.848071
158	0x40a06cab	5.013265
159	0x415f8140	13.969055
160	0x40377422	2.8664632
161	0x4037e94d	2.8736145
162	0x40bded06	5.9351835
163	0x40e3462b	7.1023154
164	0x403adabd	2.9196007
165	0x411e494b	9.892894
166	0x403e7164	2.9756708
167	0x4118d17b	9.551143
168	0x410eff22	8.937288
169	0x412481a2	10.281649
170	0x411ca67f	9.790648
171	0x4083fa65	4.1243157
172	0x41580632	13.501513
173	0x40718793	3.7738998
174	0x40c416f3	6.1278014
175	0x407a3d02	3.9099736
176	0x408417ba	4.1278963
177	0x40ac0420	5.3755035
178	0x40966275	4.6995187
179	0x40c68a24	6.204363
180	0x4099d004	4.8066425
181	0x40b9d303	5.8070083
182	0x40afa641	5.4890447
183	0x4096203c	4.691435
184	0x408dd988	4.432804
185	0x4046c3a4	3.105691
186	0x4042e44d	3.0451844
187	0x4090bd1b	4.523084
188	0x407e68c0	3.9751434
189	0x410b4200	8.703613
190	0x410b0bc8	8.690376
191	0x40cd5bcf	6.417457
192	0x40b95640	5.7917786
193	0x411e0c7f	9.878051
194	0x403c55a0	2.9427261
195	0x40d33ad0	6.6009293
196	0x40a59a7a	5.175107
197	0x4102d3eb	8.176738
198	0x40630e28	3.547739
199	0x411d8d8a	9.847055
200	0x40dc039e	6.8754416
201	0x4058f051	3.3896677
202	0x40759aa1	3.8375628
203	0x4084028e	4.125312
204	0x40fd7043	7.919954
205	0x409d11b1	4.9084096
206	0x40707cb9	3.7576125
207	0x40f4aa52	7.645791
208	0x40b030e2	5.505967
209	0x40b9b04a	5.8027697
210	0x41869271	16.821505
211	0x412025a6	10.0091915
212	0x409b8808	4.8603554
213	0x40af80f1	5.48449
214	0x41e20994	28.254677
215	0x40aca597	5.3952136
216	0x40a31002	5.095704
217	0x40b6a937	5.708156
218	0x40d3065e	6.5945272
219	0x408587ff	4.172851
220	0x410134d6	8.075399
221	0x40e75baa	7.2299395
222	0x40716a9b	3.7721317
223	0x410f33e4	8.950169
224	0x411133b8	9.075127
225	0x40888d6b	4.267263
226	0x41324855	11.142659
227	0x41181829	9.505898
228	0x40958bad	4.6733003
229	0x40535de7	3.3026063
230	0x41a1cc71	20.224825
231	0x4091e524	4.5592213
232	0x40e1ba6c	7.0540066
233	0x40d7abad	6.7397065
234	0x42759c16	61.402428
235	0x41b1f11f	22.242735
236	0x40a04769	5.008717
237	0x40af98f1	5.4874196
238	0x4049190e	3.1421542
239	0x407353c1	3.801987
240	0x406fca4b	3.746722
241	0x407ca6dc	3.9476843
242	0x401eb5cb	2.4798458
243	0x409d6b00	4.9193115
244	0x40e32f7a	7.0995455
245	0x4110d6e7	9.052466
246	0x4070ddf4	3.763547
247	0x40534042	3.300797
248	0x4081ddb3	4.058313
249	0x418bd8e3	17.480902
250	0x4133a398	11.22744
251	0x41060dae	8.37834
252	0x407c83d8	3.945547
253	0x41013dc4	8.0775795
254	0x4060d004	3.5126963
255	0x408eab56	4.458415

encoder.4.weight f4 [256, 512]
0	0xbdc3a92a	-0.0955375
1	0x3d083ac9	0.033259187
2	0x3d2fba30	0.04290217
3	0x3cc3aaf4	0.023885228
4	0x3aad95ea	0.001324353
5	0xbdddd763	-0.108320974
6	0xbdbbd02f	-0.09170567
7	0x3c685b83	0.014181974
8	0xbd7984c3	-0.060917627
9	0xbdbde3cd	-0.09271965
10	0xbd9302fa	-0.07178302
11	0xbd8fbd7e	-0.07018565
12	0xbdd0954b	-0.101847254
13	0xbd4f4cd4	-0.05061038
14	0xbd8d8e1f	-0.06911873
15	0xbdd7a2db	-0.10529109
16	0x3d1f0d62	0.038831122
17	0xbda119d9	-0.07866258
18	0x3d41e032	0.04733295
19	0x3df02426	0.11725645
20	0x3d883841	0.066513546
21	0x3d229fc8	0.03970316
22	0xbd0413f1	-0.03224558
23	0xbd350737	-0.044196334
24	0xbd11d384	-0.035602108
25	0xbd89c4e2	-0.067270055
26	0x3c69d58b	0.014272104
27	0x3d3b0caa	0.045666374
28	0xbcc10a74	-0.023564555
29	0xbdc68587	-0.09693437
30	0xbd480a68	-0.04883805
31	0xbcc93b6c	-0.024564467
32	0x3a23da6b	0.00062505034
33	0xbd5a36a3	-0.053274762
34	0xbd871235	-0.065952696
35	0xbd701490	-0.05861336
36	0xbd8e1010	-0.069366574
37	0xbc60b641	-0.013715328
38	0x3d802850	0.06257689
39	0xbd0d0e4d	-0.034437466
40	0xbdbf5684	-0.093426734
41	0x3dad40b1	0.084596045
42	0xbdba72d7	-0.09103935
43	0xbcd6e816	-0.026233714
44	0xbdae39e2	-0.08507134
45	0xbd1a9318	-0.037737936
46	0x3d916d06	0.07100873
47	0xbc1bdaa5	-0.009512578
48	0xbd59b42e	-0.05315035
49	0x3d707444	0.05870463
50	0x3b786f8f	0.003790829
51	0xbd87d3b8	-0.06632179
52	0x3d1a1963	0.037621867
53	0x3bde55f6	0.0067851497
54	0xbdd472d2	-0.10373463
55	0x3d12d7d1	0.03585035
56	0xbd82b260	-0.063816786
57	0xbdabe558	-0.08393353
58	0xbc862d7d	-0.016379112
59	0xbd3a5f1c	-0.04550086
60	0xbd1b38bd	-0.037895907
61	0xbdea2e72	-0.1143464
62	0xbdfd31da	-0.12363024
63	0xbe05d5d5	-0.13069852
64	0x3ab7d698	0.0014025746
65	0xbd87f788	-0.0663901
66	0x3c3e995b	0.0116332425
67	0x3d539f9a	0.05166588
68	0x3d45ac7c	0.048260197
69	0x3c13741e	0.008999852
70	0xbbe8343c	-0.007086305
71	0x3d3be735	0.045874793
72	0x3d0e3788	0.034720927
73	0xbd2df3d9	-0.04246888
74	0x3d3b75bd	0.04576658
75	0x3db451c5	0.08804659
76	0xbd9c34cb	-0.07627257
77	0x3d048925	0.032357354
78	0xbc0d4c6e	-0.008624179
79	0xbc544187	-0.012955076
80	0xbd6fb110	-0.05851847
81	0xbd65e2d3	-0.05612452
82	0xbc9df0ad	-0.019279802
83	0xbd763132	-0.06010551
84	0xbc565530	-0.013081834
85	0xbda86dee	-0.082240924
86	0xbce6defc	-0.0281825
87	0xbe1d8fd6	-0.153869
88	0x3c80c31c	0.015718035
89	0x3d462ed4	0.048384503
90	0xbc72d4b4	-0.01482122
91	0xbd5ff1e4	-0.054674044
92	0xbdacb81a	-0.08433552
93	0xbd7046e5	-0.05866136
94	0xbd61cb0f	-0.055125292
95	0xbd5f2691	-0.05448014
96	0xbd526314	-0.05136402
97	0x3ae2054d	0.0017244011
98	0xbce40528	-0.02783449
99	0xbc0048e7	-0.007829881
100	0xbd1caee1	-0.038252715
101	0xbda5b70c	-0.08091554
102	0xbd0f15ef	-0.034933027
103	0xbd9bf270	-0.07614601
104	0xbda38933	-0.07985153
105	0xbd7164dd	-0.05893408
106	0xbd1d562e	-0.038412265
107	0xbc6c73f9	-0.014431947
108	0xbcabdc74	-0.020979144
109	0xbb92fd0d	-0.0044857324
110	0xbcf714f3	-0.030161357
111	0xbe01c93a	-0.12674418
112	0xbd161183	-0.036637794
113	0x3cd9f0f7	0.026604159
114	0xbc75ecbf	-0.015010058
115	0xbd8fbf13	-0.070188664
116	0xbbb477ab	-0.0055074296
117	0x3cc0b1bf	0.023522256
118	0xbe094d5d	-0.13408418
119	0xbd52fa4c	-0.051508233
120	0xbd425866	-0.047447585
121	0xbdb899c0	-0.090137005
122	0xbc9d5b94	-0.019208707
123	0x3d38ee54	0.045149162
124	0xbcd03939	-0.02541791
125	0x3cb71446	0.022348534
126	0xbce874c3	-0.028375989
127	0xbd7be6c2	-0.061499365
128	0xbb9a8d7c	-0.0047165733
129	0xbd083853	-0.03325684
130	0xbd769756	-0.06020292
131	0xbdf9cc3e	-0.12197159
132	0x3ba14801	0.0049219136
133	0xbd32db90	-0.043666422
134	0xbd2f09a6	-0.04273381
135	0xbd064cd9	-0.03278813
136	0x3ba580d3	0.0050507574
137	0xbdd035ab	-0.10166486
138	0xbc22a4c7	-0.009926981
139	0x3d36921f	0.044572946
140	0xbc2fa92d	-0.010721487
141	0xbe063675	-0.13106711
142	0xbde91d2b	-0.113825165
143	0xbd637fc5	-0.055541772
144	0xbdb0d9e7	-0.086353116
145	0xbc513653	-0.0127693
146	0xbbfff939	-0.007811692
147	0x3d237c20	0.039913297
148	0x3c7156ef	0.014730199
149	0x3d0e5eee	0.0347585
150	0xbe0dc6f5	-0.13845427
151	0xbd7a94a0	-0.061176896
152	0xbd1482ce	-0.036257558
153	0xbc24d722	-0.010061057
154	0x3c198a78	0.009371392
155	0x3d2c88c8	0.042122632
156	0xbce47f70	-0.027892798
157	0xbdbf6e6d	-0.09347234
158	0xbda1f732	-0.07908477
159	0x3d8bf3cc	0.0683361
160	0xbc56b029	-0.013103523
161	0xbc92cce8	-0.017919973
162	0x3cc610e5	0.024177978
163	0xbd835583	-0.064127944
164	0xbd4a267d	-0.04935311
165	0x3d0fd4c7	0.03511503
166	0xbd901b22	-0.07036425
167	0xbce39c39	-0.027784454
168	0xbbd12601	-0.0063827042
169	0xbdc1ec87	-0.09468942
170	0xbd5a42f0	-0.053286493
171	0xbd143485	-0.0361829
172	0x3d3a6b9a	0.045512773
173	0xbdefa09a	-0.11700554
174	0xbd43bd97	-0.04778823
175	0xbe0e9da9	-0.1392733
176	0x3c7d5a77	0.015463463
177	0x3c82e107	0.015976442
178	0x3cab5326	0.020913672
179	0xbd2994f1	-0.041401807
180	0x3d00f50a	0.031483687
181	0xbc492427	-0.012276686
182	0xbcd95ef2	-0.026534531
183	0x3c815c36	0.01579104
184	0x3cec5ce5	0.02885289
185	0xbccdc17b	-0.025116673
186	0xbd9397a4	-0.072066575
187	0xbdaf2d72	-0.0855359
188	0x3be471da	0.00697158
189	0xbd3de4cf	-0.046360787
190	0xbc8c9f2c	-0.017165743
191	0xbd79d08c	-0.0609899
192	0x3d6c3c87	0.05767491
193	0xbc922c81	-0.017843487
194	0xbd432eb0	-0.047651947
195	0xbba98138	-0.005172875
196	0x3d360613	0.044439387
197	0xbd6bc9ac	-0.057565376
198	0xbd2aba86	-0.04168179
199	0xbe0924bd	-0.13392921
200	0xbd449630	-0.047994792
201	0xbdb6b089	-0.0892039
202	0xbdff2910	-0.12459004
203	0xbde04c0d	-0.109520055
204	0x3ce3c159	0.027802156
205	0x3c8955b7	0.016764505
206	0xbd66b8fc	-0.05632876
207	0xbc8d8f84	-0.017280348
208	0xbbb1cf62	-0.0054263333
209	0x3d2e89c7	0.042611863
210	0x3d35b62b	0.044363182
211	0x3c85ee4c	0.01634898
212	0x3d17cbe1	0.03705967
213	0xbdab26d0	-0.08357012
214	0x3c6f9e83	0.0146251945
215	0x3d2eab49	0.04264382
216	0xbd26774f	-0.040641125
217	0xbc13074e	-0.00897391
218	0xbd91a3fa	-0.07111354
219	0xbbf37ef2	-0.0074309045
220	0x3d94a736	0.072584555
221	0x3cc0f955	0.02355639
222	0x3d069ae9	0.032862578
223	0xbc7d98c7	-0.0154783195
224	0xbc5bf72e	-0.013425631
225	0x3b61a314	0.0034429478
226	0x3da3610e	0.07977496
227	0xbd34b458	-0.0441173
228	0xbc7d1de4	-0.015449021
229	0xbb966708	-0.004589919
230	0xbc8a0384	-0.01684738
231	0xbc82e307	-0.015977396
232	0xbc9f4e68	-0.019446567
233	0xbd9fc495	-0.07801167
234	0x3d6128db	0.054970603
235	0x3d1ea579	0.038732026
236	0x3a5c3f69	0.0008401783
237	0x3d0b23d7	0.033969726
238	0x3da765b8	0.08173698
239	0xbd1b6b23	-0.03794397
240	0xbdc6cbee	-0.09706865
241	0xbdc2e39b	-0.095160685
242	0xbd869e58	-0.065731704
243	0xbdaf4023	-0.08557155
244	0x3bedb2db	0.0072539872
245	0xbd179e80	-0.03701639
246	0x3d2bd9d1	0.041955773
247	0xbdbf01d3	-0.0932652
248	0xbe0dbc7d	-0.13841434
249	0xbd8248ee	-0.063615665
250	0xbc89f09f	-0.01683837
251	0xbb844cee	-0.004037491
252	0xbcf90c32	-0.030401323
253	0xbc99b839	-0.018764602
254	0xbd923a92	-0.07140078
255	0xbda217dd	-0.07914708
